save/model_20240611_170537.pth (torch, 62844 bytes, 9 tensors)

lstm.weight_ih_l0 f4 [128, 15]
0	0x3f012af9	0.50456196
1	0x3ed43a38	0.41450667
2	0x3f14097f	0.5782699
3	0x3e9ef415	0.31045595
4	0x3f0c0685	0.5469745
5	0x3ebef373	0.37295112
6	0x3eedd8bb	0.46454415
7	0x3edef246	0.43544215
8	0x3ef4514b	0.47718272
9	0x3efec766	0.49761504
10	0x3ebcd933	0.3688446
11	0x3f1e633f	0.6187019
12	0x3ea1e721	0.3162165
13	0x3ed01339	0.40639666
14	0x3f100635	0.5625947
15	0x3ef5e7c6	0.48028392
16	0x3f0fb421	0.5613423
17	0x3f0e5a7d	0.55606824
18	0x3f17b7a1	0.5926457
19	0x3f014fbb	0.50512284
20	0x3ec207e4	0.37896645
21	0x3ec2407c	0.37939823
22	0x3e9455d8	0.28971744
23	0x3f07b12b	0.5300471
24	0x3eb28faa	0.34875232
25	0x3f218c29	0.6310449
26	0x3f05f674	0.5232918
27	0x3e70f7d2	0.23532036
28	0x3f18b9ef	0.5965871
29	0x3f13fe68	0.5781007
30	0x3e9b9e08	0.30394006
31	0x3f27048d	0.6524132
32	0x3f13800b	0.57617253
33	0x3e94a832	0.29034573
34	0x3f1b182a	0.60583746
35	0x3e87ea2d	0.2654585
36	0x3e72e27d	0.23719211
37	0x3ef6055d	0.48050967
38	0x3ecc118a	0.3985713
39	0x3ea02965	0.31281582
40	0x3ed8dbe6	0.4235527
41	0x3edc9511	0.4308248
42	0x3e944555	0.28959146
43	0x3f1fc5ea	0.6241137
44	0x3f1a7529	0.6033502
45	0x3f113098	0.56714773
46	0x3f359ada	0.7093941
47	0x3f1eaea0	0.61985207
48	0x3f0d0b49	0.55095345
49	0x3f16af85	0.5886157
50	0x3edd4fcb	0.4322494
51	0x3ee332bb	0.44374642
52	0x3ec75a99	0.38936308
53	0x3f171ca4	0.5902808
54	0x3f18eabf	0.59733194
55	0x3ec64197	0.38721916
56	0x3ea9f7e8	0.3319695
57	0x3f0ac495	0.5420621
58	0x3f0dd5fc	0.5540464
59	0x3ed3ca38	0.41365218
60	0x3f0ec969	0.5577608
61	0x3eaea532	0.3411041
62	0x3e9e316d	0.30897084
63	0x3eda746b	0.42666945
64	0x3ee8a14e	0.45435566
65	0x3edddee2	0.4333411
66	0x3efc6ea5	0.49303165
67	0x3ee519af	0.44746158
68	0x3f02abde	0.510435
69	0x3f01de20	0.5072956
70	0x3ee0fe36	0.43943948
71	0x3f041fde	0.51611125
72	0x3f0eb3c7	0.5574307
73	0x3f04aa1a	0.51822054
74	0x3ee9a7a6	0.45635718
75	0x3ebe334c	0.3714851
76	0x3f0b888b	0.54505223
77	0x3ed20f33	0.4102722
78	0x3f0bd2a4	0.5461829
79	0x3f08b214	0.53396726
80	0x3ef62635	0.48076025
81	0x3ee26151	0.44214872
82	0x3e9e7105	0.30945602
83	0x3f137375	0.5759805
84	0x3eaaec7c	0.33383548
85	0x3ec8028e	0.3906445
86	0x3eee27cd	0.4651474
87	0x3effe8b4	0.49982226
88	0x3efa77b5	0.48919454
89	0x3ec75b97	0.38937065
90	0x3eb5dbee	0.35519356
91	0x3ea86183	0.32886896
92	0x3f0c9ab3	0.5492355
93	0x3e9d9529	0.30777863
94	0x3eaa0fa4	0.33215058
95	0x3ee33fd6	0.4438464
96	0x3e7a7ebc	0.24462408
97	0x3ee6126e	0.44935936
98	0x3f0977cd	0.53698426
99	0x3eb70fc4	0.35754216
100	0x3f09bc35	0.53802806
101	0x3f1abe3e	0.60446537
102	0x3f0fd4fa	0.5618435
103	0x3ecb7ab2	0.39742047
104	0x3ed4e1d3	0.4157854
105	0x3ed5b9ec	0.4174341
106	0x3f0ca275	0.5493539
107	0x3ef48880	0.4776039
108	0x3efbb1c7	0.4915907
109	0x3f1e084b	0.61731404
110	0x3f01e005	0.5073245
111	0x3ece3cdf	0.40280816
112	0x3f0c1d23	0.5473196
113	0x3f39eadc	0.7262399
114	0x3f126c69	0.5719667
115	0x3f0a0852	0.53918946
116	0x3eee5ac4	0.46553624
117	0x3ea99f5f	0.33129403
118	0x3ec278e1	0.37982848
119	0x3f1c263b	0.60995835
120	0x3eb95215	0.36195436
121	0x3e9dc3f5	0.30813566
122	0x3eecb208	0.46229577
123	0x3ed71c32	0.420137
124	0x3f1cb6cf	0.61216444
125	0x3f069486	0.5257038
126	0x3ec06427	0.3757641
127	0x3f122320	0.57084846
128	0x3e8ecc27	0.2789013
129	0x3ea1d864	0.31610405
130	0x3edec53d	0.43509856
131	0x3f0a429c	0.5400789
132	0x3f03812b	0.5136897
133	0x3f134062	0.57520115
134	0x3ecccb89	0.39999035
135	0x3f11152a	0.5667292
136	0x3ef3794a	0.47553474
137	0x3ecc2071	0.398685
138	0x3ef2badf	0.47408196
139	0x3f02fb85	0.5116504
140	0x3e9d90b9	0.30774477
141	0x3e22f520	0.1591382
142	0x3e9db888	0.3080485
143	0x3f051ce0	0.51997185
144	0x3ed97245	0.42469993
145	0x3f18a21e	0.5962237
146	0x3f11104e	0.56665504
147	0x3edea9b1	0.4348884
148	0x3f139a05	0.5765689
149	0x3f03fb61	0.5155545
150	0x3e80ccc6	0.2515623
151	0x3f1fff31	0.62498766
152	0x3f134590	0.5752802
153	0x3f0aca18	0.5421462
154	0x3f1819d5	0.59414417
155	0x3e6dc3e4	0.23219258
156	0x3ed561b9	0.4167612
157	0x3eb7741a	0.35830766
158	0x3ee57304	0.44814312
159	0x3ee5eb4b	0.44906077
160	0x3ed61808	0.4181521
161	0x3ecb5fcc	0.39721525
162	0x3f031992	0.5121089
163	0x3ed2d7fa	0.41180402
164	0x3ee860a8	0.45386243
165	0x3f13f78a	0.5779959
166	0x3ea53fe1	0.32275298
167	0x3e9b0470	0.30276823
168	0x3ede57f2	0.43426472
169	0x3eb4a7c4	0.35284245
170	0x3e8288ad	0.254949
171	0x3e95eafc	0.2928084
172	0x3f133c04	0.5751345
173	0x3f1ea3e1	0.6196881
174	0x3eed6885	0.46368805
175	0x3f0c9fae	0.5493115
176	0x3efd3bd0	0.49459696
177	0x3ed8d3c1	0.42349055
178	0x3ea1cd24	0.31601822
179	0x3e949793	0.29021892
180	0x3edc5027	0.430299
181	0x3f04d817	0.51892227
182	0x3f240cae	0.6408185
183	0x3ea2e6c1	0.31816676
184	0x3f1a9021	0.60376173
185	0x3edd6570	0.43241453
186	0x3ef20df7	0.4727628
187	0x3ef1f2ae	0.47255462
188	0x3ee8413d	0.45362273
189	0x3ec2df86	0.3806116
190	0x3f16ccf7	0.589065
191	0x3f1b3d34	0.60640264
192	0x3f029527	0.5100884
193	0x3eaa4944	0.33259022
194	0x3ecb1761	0.39666274
195	0x3ec3a037	0.38208172
196	0x3f02c769	0.51085526
197	0x3f0ec2d0	0.5576601
198	0x3eb49c78	0.35275626
199	0x3f0647c7	0.52453274
200	0x3e95b2bb	0.29237923
201	0x3eb3b218	0.35096812
202	0x3e9b6935	0.30353704
203	0x3ee03ee7	0.4379799
204	0x3ea0a771	0.31377748
205	0x3eddefd1	0.43347028
206	0x3f18b8a3	0.59656733
207	0x3eecabfe	0.4622497
208	0x3f12b766	0.57311094
209	0x3ed2c635	0.41166845
210	0x3f0d3b67	0.55168766
211	0x3f0bcaa6	0.5460609
212	0x3f155ca3	0.5834448
213	0x3e9f3183	0.31092462
214	0x3ea679a6	0.32514685
215	0x3eb29b46	0.3488409
216	0x3eed553e	0.46354097
217	0x3ecec5af	0.40385196
218	0x3f16a761	0.5884915
219	0x3ed97ab5	0.4247643
220	0x3eb4d72d	0.35320416
221	0x3ebbec0d	0.3670353
222	0x3ec57ef8	0.38573432
223	0x3f0e9561	0.55696684
224	0x3f174963	0.59096354
225	0x3ee45ecc	0.44603574
226	0x3f0fcb14	0.5616925
227	0x3e9acfb6	0.30236596
228	0x3edfa6f4	0.43682063
229	0x3f0a9eb0	0.5414839
230	0x3e8b0aff	0.27156827
231	0x3e69fb1d	0.22849698
232	0x3edf032c	0.43557107
233	0x3f08b9f9	0.5340877
234	0x3f0402df	0.5156688
235	0x3eed6166	0.46363372
236	0x3e8afc4e	0.27145618
237	0x3ef03ff2	0.46923786
238	0x3f029e57	0.5102286
239	0x3e95a7f2	0.29229695
240	0x3ef38f55	0.4757029
241	0x3f124591	0.571374
242	0x3eb023a9	0.34402207
243	0x3ee3b34a	0.44472724
244	0x3ec5d0fd	0.38636008
245	0x3ed3a564	0.4133712
246	0x3ed85376	0.42251176
247	0x3f0115a9	0.50423676
248	0x3f0f0be9	0.5587755
249	0x3f2398e7	0.63905185
250	0x3ef3d7a6	0.47625464
251	0x3ed618fe	0.41815943
252	0x3f05a39b	0.5220277
253	0x3f226898	0.6344085
254	0x3eb2e4ac	0.34940088
255	0x3e9c35f9	0.30509928

lstm.weight_hh_l0 f4 [128, 32]
0	0xbe16f8c7	-0.14743339
1	0xbdddab2a	-0.108236626
2	0xbdb33114	-0.08749595
3	0xbd2ec8ec	-0.042672083
4	0xbdad5734	-0.08463898
5	0xbd10c968	-0.035348326
6	0x3d44eff0	0.048080385
7	0xbdd4b11c	-0.103853434
8	0xbe34dcfe	-0.17662427
9	0x3da249ca	0.079242304
10	0x3de2e0f6	0.11078064
11	0x3cca9320	0.024728358
12	0x3df5285a	0.11970587
13	0xbe08b47d	-0.13350101
14	0x3d88645e	0.066597685
15	0xbbe48260	-0.0069735497
16	0x3ce489b8	0.0278977
17	0xbc9f5fa0	-0.019454777
18	0x3dff4952	0.124651566
19	0x3df13ede	0.11779569
20	0xbdd96be6	-0.10616283
21	0x3d833f2e	0.06408535
22	0xbdf6dbc4	-0.12053636
23	0xbd2bf730	-0.041983783
24	0x3d8fb7de	0.07017492
25	0x3cea8350	0.028627068
26	0x3e10585d	0.14096208
27	0x3dec6e76	0.11544506
28	0xbc828038	-0.01593028
29	0x3c6f3290	0.014599457
30	0xbe0d5730	-0.1380279
31	0xbcae37e0	-0.021266878
32	0xbdce0400	-0.10059357
33	0xbbc46a00	-0.0059940815
34	0xbdf6e408	-0.12055212
35	0xbe153fe8	-0.1457516
36	0xbe337765	-0.17526014
37	0x3d2302c4	0.03979756
38	0x3dabd12e	0.08389507
39	0x3d21acb0	0.03947133
40	0x3dab285e	0.08357309
41	0x3e1fe2df	0.15613888
42	0x3e1635d7	0.14668976
43	0x3d4a8bf8	0.04944989
44	0x3b341500	0.0027478337
45	0xbc819ef8	-0.015822873
46	0x3d2065bc	0.03915952
47	0x3ca96518	0.020678088
48	0xbce54b00	-0.027989864
49	0xbc7465f0	-0.014916882
50	0xbd1f4940	-0.038888216
51	0x3bc54dc0	0.0060212314
52	0x3e327e99	0.17431106
53	0x3cc63e90	0.024199754
54	0xbb852540	-0.0040632784
55	0xbe34dbff	-0.17662047
56	0xbdff19e2	-0.12456109
57	0x3bfa3a60	0.0076363534
58	0x3d8472aa	0.06467183
59	0x3d808164	0.06274679
60	0x3b8fe480	0.004391253
61	0xbdd4c894	-0.1038982
62	0xbd5c3d1e	-0.053769223
63	0x3c12e1c0	0.008964956
64	0xbdad5b50	-0.08464682
65	0x3b861180	0.0040914416
66	0xbdd40184	-0.103518516
67	0x3d71c89c	0.059029207
68	0xbd3df5b4	-0.0463769
69	0xbc5aa380	-0.0133446455
70	0x3d59e5e4	0.053197756
71	0xbe1707ee	-0.14749119
72	0xbde2a0f9	-0.11065859
73	0x3dfd1466	0.12357406
74	0xbe2f38be	-0.17111489
75	0xbbbc8ce0	-0.0057540983
76	0xbe01eb00	-0.12687302
77	0xbd38e9c0	-0.045144796
78	0xbe20e18a	-0.15711036
79	0x3dbab676	0.09116833
80	0xbdf53b48	-0.119741976
81	0xbe02bcb3	-0.12767296
82	0x3d43bdfc	0.047788605
83	0x3c3e8510	0.011628404
84	0xbdfed784	-0.1244345
85	0x3df31322	0.11868884
86	0x3cc52618	0.024066016
87	0x3c9c51d0	0.01908198
88	0xbd0b45c4	-0.03400208
89	0x3dff900a	0.12478645
90	0xbe198d42	-0.14995292
91	0xbe0ec10e	-0.13940832
92	0x3d760150	0.060059845
93	0x3e0ed36d	0.1394784
94	0x3dc06aba	0.093953565
95	0x3e257d67	0.16161118
96	0xbe0ba7cf	-0.13638233
97	0xbd66da86	-0.056360744
98	0x3da4c88a	0.08046062
99	0x3c92a038	0.017898664
100	0x3d397d4c	0.045285508
101	0xbe2fbaad	-0.17161055
102	0xbe34aefa	-0.17644873
103	0xbcd12fa8	-0.02553542
104	0x3df10d22	0.11770083
105	0xbcba3f78	-0.022735342
106	0xbe0efed6	-0.139644
107	0xbdae02db	-0.084966384
108	0xbe038fd9	-0.12847842
109	0x3e2d1135	0.16901095
110	0xbdf36254	-0.11883989
111	0xbe17dcb4	-0.14830285
112	0xbe1521f8	-0.1456374
113	0xbe242f4d	-0.16033669
114	0x3d8ceb54	0.06880823
115	0x3b511b80	0.003190726
116	0x3e30ecd9	0.1727785
117	0xbe14c6aa	-0.1452891
118	0x3d7bcb1c	0.061472997
119	0xbe2f0434	-0.17091447
120	0x3d94a2b2	0.07257594
121	0xbdf75098	-0.12075919
122	0xbe0ac70d	-0.13552494
123	0xbdacf35c	-0.084448546
124	0x3df90546	0.12159209
125	0x3e2124f1	0.15736748
126	0xbda98e2b	-0.082790695
127	0xbd9e6dec	-0.0773581
128	0xbdfe7677	-0.12424939
129	0xbd5cf51e	-0.0539447
130	0x3dba815e	0.09106706
131	0x3d124268	0.03570786
132	0x3c8cf910	0.017208606
133	0xbdbc731c	-0.09201643
134	0xbe1f744a	-0.15571705
135	0x3dd2c942	0.10292293
136	0x3db25a22	0.08708598
137	0x3e0d05ff	0.13771819
138	0x3e20aecf	0.15691684
139	0xbe04d1d8	-0.12970674
140	0x3e346215	0.1761554
141	0x3c4f3970	0.0126479715
142	0xbe10f149	-0.14154543
143	0x3e330b63	0.17484812
144	0x3e03d595	0.12874444
145	0x3d64755c	0.055775985
146	0xbd0babac	-0.034099266
147	0xbde457f1	-0.11149586
148	0x3e26cb67	0.1628853
149	0xbdf88c87	-0.121361785
150	0xbe00583b	-0.12533657
151	0x3c601020	0.0136757195
152	0x3e01e9e1	0.12686874
153	0x3d935766	0.07194404
154	0x3dbc514e	0.09195195
155	0xbd950822	-0.07276942
156	0xbda17dc0	-0.07885313
157	0x3a211e00	0.0006146133
158	0xbdcced4a	-0.10006197
159	0x3df49f72	0.11944474
160	0x3c4c5ef0	0.012473807
161	0x3e0d28b9	0.13785066
162	0xbbc9b0a0	-0.0061550885
163	0x3d9c84da	0.07642527
164	0xbd1abfb8	-0.037780493
165	0x3e0d3b1d	0.13792081
166	0x3e080b0f	0.13285469
167	0xbe0c0d80	-0.13677025
168	0x3e249cd9	0.16075458
169	0xbdb0fbec	-0.086418
170	0x3df6ff4a	0.12060411
171	0xbda19124	-0.078890115
172	0x3a8c1580	0.001068756
173	0xbe2b29f3	-0.16715221
174	0xbdd8bab9	-0.105824895
175	0xbdf052a2	-0.11734511
176	0xbdd31a48	-0.10307747
177	0xbb9ba620	-0.0047500283
178	0x3c18a710	0.009317175
179	0x3e0f4ff9	0.13995351
180	0xbe2a1d61	-0.1661277
181	0x3ceb1af8	0.028699383
182	0xbd248554	-0.040166214
183	0xbe2ebb7a	-0.17063704
184	0xbd27ec50	-0.04099685
185	0xbca91568	-0.02064009
186	0xbd9df444	-0.077126056
187	0xbe087e65	-0.13329466
188	0xbe00fc2f	-0.125962
189	0x3e2cade7	0.16863213
190	0x3d29b570	0.041432798
191	0x3db694d6	0.08915107
192	0x3e061a09	0.13095869
193	0x3d8377f4	0.064193636
194	0xbd8fc12f	-0.07019269
195	0xbdc56b7c	-0.09639642
196	0xbdce1c95	-0.10064045
197	0xbdc6d9ec	-0.09709534
198	0xbe214d17	-0.15752064
199	0xbc58d6d0	-0.013234809
200	0xbe16acda	-0.14714375
201	0xbdf73db0	-0.12072313
202	0xbe101b24	-0.14072853
203	0xbe1bb47b	-0.15205567
204	0x3dddb042	0.10824634
205	0x3e163cdb	0.14671652
206	0xbdee37df	-0.1163175
207	0xbd860fa6	-0.065459535
208	0x3dd3bb56	0.10338466
209	0x3daec76e	0.08534132
210	0x3e10dc69	0.1414658
211	0x3dc4cd66	0.09609489
212	0xbc3a8b80	-0.011385798
213	0x3e2dbdad	0.16966887
214	0x3dbe7dd6	0.09301345
215	0x3e2516db	0.16122
216	0x3bb166a0	0.005413845
217	0x3de89d42	0.113581195
218	0xbc6e9280	-0.0145612955
219	0x3cb05f78	0.021529898
220	0xbd050a38	-0.03248045
221	0x3dc78b76	0.09743397
222	0xbe23f100	-0.16009903
223	0xbdd8e1ac	-0.105899185
224	0x3d2e8e24	0.042616025
225	0xbdf29870	-0.118454814
226	0x3db2f58a	0.08738239
227	0x3da9aa26	0.08284406
228	0xbd525484	-0.05135013
229	0x3e129389	0.14314093
230	0x3c71a4d0	0.014748767
231	0xbde1b55d	-0.110209204
232	0xbcb65d80	-0.022261381
233	0x3bc70900	0.006074071
234	0x3e2fb0ed	0.17157336
235	0xbdd4424e	-0.10364209
236	0x3bbcda20	0.005763307
237	0xbdceb8e9	-0.100938626
238	0xbd34fe18	-0.044187635
239	0xbd36d3d0	-0.044635594
240	0x3e264953	0.16238908
241	0x3d743f18	0.059630483
242	0xbda7bad9	-0.08189935
243	0xbd08e7b4	-0.033424094
244	0xbbc9a880	-0.00615412
245	0xbe17eeca	-0.14837185
246	0xbd713f10	-0.05889803
247	0x3caa6058	0.020797893
248	0xbe1638e3	-0.14670138
249	0xbd830ff1	-0.06399525
250	0xbe2c2bbe	-0.16813561
251	0xbe1307ad	-0.14358397
252	0x3d1c62c4	0.038180128
253	0xbe01bab6	-0.12668881
254	0x3ca6f358	0.020379707
255	0xbd365a44	-0.044519678

lstm.bias_ih_l0 f4 [128]
0	0x3edd9cf3	0.43283805
1	0x3ed52a4b	0.4163383
2	0x3f2c30e9	0.6726213
3	0x3f37c877	0.7179026
4	0x3f2f1a1c	0.68399215
5	0x3f10de1f	0.5658893
6	0x3ebf30b9	0.3734186
7	0x3f47348e	0.7781457
8	0x3f2b7ee3	0.6699049
9	0x3f1e64ed	0.6187275
10	0x3ee756b2	0.4518333
11	0x3f184539	0.59480625
12	0x3ed9511b	0.4244469
13	0x3ed9b6ad	0.42522183
14	0x3f11bdc1	0.56930166
15	0x3f1e541e	0.618471
16	0x3f264bfe	0.64959705
17	0x3eeb461f	0.45951936
18	0x3f10101e	0.5627459
19	0x3f476200	0.7788391
20	0x3f06aaa1	0.5260411
21	0x3f2892ae	0.65848815
22	0x3f1bd92b	0.6087825
23	0x3eb1352d	0.34610882
24	0x3ee6b42c	0.45059335
25	0x3f1eac6f	0.6198186
26	0x3f6ea1e0	0.9321575
27	0x3f06e9b7	0.5270037
28	0x3f0e6418	0.5562148
29	0x3eeaa5e2	0.45829684
30	0x3f0a1616	0.5393995
31	0x3ec18f39	0.37804583
32	0xbca916a8	-0.020640686
33	0x3e2a6789	0.16641058
34	0xbe04963f	-0.1294794
35	0xbe2c3214	-0.16815978
36	0xbab0c080	-0.0013485104
37	0x3df472ae	0.11935936
38	0xbd87686b	-0.06611713
39	0x3e09c329	0.13453354
40	0xbd03cbdc	-0.032176837
41	0xbdda210d	-0.10650835
42	0x3dac413e	0.084108815
43	0xb902a800	-0.00012460351
44	0x3da33cca	0.07970579
45	0xbe0491fe	-0.12946317
46	0x3d89c52c	0.06727061
47	0xbd312c14	-0.043254927
48	0x3d29666c	0.041357443
49	0x3d27daf0	0.04098028
50	0x3e2d94c3	0.1695128
51	0x3e1f1269	0.15534367
52	0x3e3475a7	0.17623006
53	0xbc24ed40	-0.01006633
54	0x3c88e148	0.016708985
55	0xbccc0268	-0.024903491
56	0xbc1ff530	-0.009763047
57	0x3d82d9d0	0.06389201
58	0xbe0d0256	-0.13770422
59	0x3cb37008	0.021904007
60	0xbd91bd1e	-0.07116149
61	0x3decd63a	0.11564298
62	0x3d2b2a9c	0.041788682
63	0x3e020ef1	0.12701012
64	0xbf094076	-0.53613985
65	0x3ea19f30	0.31566763
66	0x3e97e84a	0.2966941
67	0xbef42aa4	-0.47688782
68	0xbea2f525	-0.31827655
69	0xbef502b9	-0.4785364
70	0x3e8aa3d1	0.27078107
71	0xbeeeb962	-0.4662581
72	0x3f0212e3	0.5081007
73	0x3ed31b07	0.41231558
74	0xbec01d16	-0.3752219
75	0xbef2a023	-0.473878
76	0x3e75cdd5	0.240043
77	0x3ec9a772	0.39385563
78	0xbf07ec70	-0.5309515
79	0x3f01c12d	0.5068539
80	0x3ef36ecd	0.47545472
81	0xbeeead25	-0.46616474
82	0x3f05e9e6	0.52310026
83	0x3f200b3e	0.62517154
84	0x3eab6d0d	0.33481637
85	0x3ea2d705	0.31804672
86	0xbf0a1c7b	-0.5394971
87	0xbf015e79	-0.5053478
88	0xbeb988fb	-0.3623732
89	0xbec6e275	-0.38844648
90	0x3f0abb9c	0.5419252
91	0xbf0b9c39	-0.5453525
92	0x3eeb763b	0.4598864
93	0x3f10d43e	0.56573856
94	0x3ebb4c14	0.3658148
95	0x3f033747	0.5125622
96	0x3f174ebd	0.5910452
97	0x3f06aeb5	0.5261033
98	0x3ee40f4d	0.44542924
99	0x3f45089c	0.7696626
100	0x3f03b698	0.5145049
101	0x3f19e6db	0.6011788
102	0x3ee325cd	0.44364777
103	0x3f4505a3	0.76961726
104	0x3eaff1c8	0.34364152
105	0x3f2f6157	0.68507904
106	0x3f19cc13	0.6007702
107	0x3effed77	0.4998586
108	0x3f25fd2f	0.6483945
109	0x3efdf598	0.49601436
110	0x3f1f9084	0.6232989
111	0x3eea3033	0.45739898
112	0x3eefa020	0.46801853
113	0x3f0736e9	0.5281816
114	0x3f08b1c7	0.53396267
115	0x3f62b40c	0.8855598
116	0x3f14d033	0.58130187
117	0x3ed981ae	0.4248175
118	0x3ef43d8d	0.4770321
119	0x3ed862cf	0.42262885
120	0x3f1e3a28	0.6180749
121	0x3f0068ae	0.5015973
122	0x3f630278	0.8867564
123	0x3f02bae5	0.5106643
124	0x3f1a69dd	0.60317785
125	0x3f0098a5	0.5023292
126	0x3f00240e	0.50055015
127	0x3f08de88	0.53464556

lstm.bias_hh_l0 f4 [128]
0	0x3f01e11f	0.5073413
1	0x3ed145a6	0.4087345
2	0x3eaf5843	0.34247026
3	0x3f10f75e	0.5662745
4	0x3f00b82e	0.50281036
5	0x3efa23e5	0.4885551
6	0x3f06a423	0.525942
7	0x3f2a921a	0.66629183
8	0x3ed71849	0.42010716
9	0x3ef470d1	0.47742322
10	0x3f282c12	0.65692246
11	0x3efc8569	0.49320534
12	0x3ed3120f	0.41224715
13	0x3f088864	0.53333116
14	0x3eca8e91	0.39561895
15	0x3ee8c6ef	0.45464274
16	0x3eeb0d3f	0.45908543
17	0x3ecc9637	0.39958355
18	0x3f18abb6	0.5963701
19	0x3f8b93ba	1.0904458
20	0x3f1adbce	0.60491645
21	0x3ebff6e0	0.37493038
22	0x3ecd40b5	0.4008843
23	0x3f15e079	0.58545643
24	0x3f035ff5	0.51318294
25	0x3f0fcede	0.5617503
26	0x3f5d2b3b	0.8639409
27	0x3f2b9fe5	0.67040855
28	0x3ee92537	0.45536205
29	0x3f102c35	0.56317455
30	0x3ee62aab	0.44954428
31	0x3eeb1737	0.4591615
32	0x3d83c1fc	0.06433484
33	0x3d8fd60c	0.07023248
34	0xbbea4920	-0.0071498305
35	0x3b8671c0	0.0041029155
36	0x3e1af1ed	0.1513135
37	0x3e31a753	0.17348985
38	0x3e156c45	0.14592083
39	0x3c86ec08	0.01646997
40	0xbcccb670	-0.024989337
41	0xbe077a70	-0.132303
42	0x3db6689e	0.08906673
43	0x3e2bbbbb	0.16770832
44	0x3e1b894b	0.15189092
45	0xbd0e96e4	-0.03481187
46	0xbd773a52	-0.060358353
47	0xbe214bf4	-0.1575163
48	0xbdce034b	-0.10059222
49	0x3dfc8396	0.123297855
50	0x3de15776	0.1100301
51	0x3d056e34	0.0325758
52	0x3e15be0d	0.1462328
53	0xbd21bfdc	-0.039489612
54	0xbdbe2c56	-0.092858
55	0xbc2d0460	-0.010560125
56	0x3de6326a	0.112400845
57	0x3df572e2	0.11984803
58	0x3d851f6c	0.06500134
59	0xbe2eec82	-0.17082408
60	0x3e1615ff	0.14656828
61	0xbc7fc560	-0.015611023
62	0xbde94037	-0.11389201
63	0xbbb49500	-0.0055109262
64	0xbe9eebfb	-0.31039414
65	0x3f0847fa	0.5323483
66	0x3f030dba	0.5119282
67	0xbf0f08a2	-0.5587255
68	0xbee8a64d	-0.45439377
69	0xbf09048c	-0.53522563
70	0x3ea05e43	0.31321916
71	0xbf0383bd	-0.5137289
72	0x3e8bf7e7	0.27337572
73	0x3e8fe421	0.28103736
74	0xbf096b27	-0.53679127
75	0xbe79a5db	-0.24379675
76	0x3f0d20ac	0.5512798
77	0x3f025cb0	0.5092268
78	0xbecd2c22	-0.40072733
79	0x3edf1914	0.4357382
80	0x3eb18ea1	0.3467913
81	0xbeb9d88f	-0.36298034
82	0x3f044f97	0.51683944
83	0x3f1cf4c3	0.61310977
84	0x3ee156b8	0.44011474
85	0x3f04d88f	0.5189294
86	0xbee34e1d	-0.44395533
87	0xbeb8d31d	-0.36098567
88	0xbe828eed	-0.2549967
89	0xbf0526df	-0.5201244
90	0x3f2f3e3c	0.6845434
91	0xbed3816c	-0.4130968
92	0x3ee30623	0.4434062
93	0x3eaed8f0	0.34149885
94	0x3f0055e9	0.5013109
95	0x3f0a5fe5	0.54052573
96	0x3ef85e88	0.48509622
97	0x3f02c683	0.51084155
98	0x3f1425ba	0.57870066
99	0x3f3de7e8	0.74181986
100	0x3f168dc1	0.5881005
101	0x3f101dc9	0.5629545
102	0x3f1fc700	0.62413025
103	0x3f4e4aec	0.8058307
104	0x3edf3afe	0.43599695
105	0x3ef6877a	0.48150235
106	0x3eff6e0b	0.49888644
107	0x3f337b79	0.7011028
108	0x3ee0142f	0.437654
109	0x3f239723	0.6390249
110	0x3f277fff	0.6542968
111	0x3ecac7d6	0.39605588
112	0x3f1da1fd	0.615753
113	0x3f1e17a0	0.617548
114	0x3f04133b	0.51591843
115	0x3f967035	1.1752993
116	0x3f310326	0.6914543
117	0x3f29df07	0.6635594
118	0x3ee5fd2a	0.4491971
119	0x3f020963	0.50795573
120	0x3f4245a0	0.7588749
121	0x3ee630a1	0.44958976
122	0x3f6d4b18	0.9269271
123	0x3f1668f1	0.5875388
124	0x3ee57557	0.44816086
125	0x3edc9c35	0.43087927
126	0x3f00a17a	0.50246394
127	0x3f239efc	0.63914466

lstm.weight_ih_l1 f4 [128, 32]
0	0xbf40ed6d	-0.75362283
1	0x3f38fdc2	0.72262204
2	0x3ee3f3ef	0.44522044
3	0xbf5b54c7	-0.85676235
4	0xbf4b8994	-0.795068
5	0xbee3b63a	-0.44474965
6	0x3f3b4b4b	0.7316176
7	0xbf9946ca	-1.1974728
8	0x3f08d2d3	0.5344669
9	0x3f09cc5b	0.53827447
10	0xbf0b38b5	-0.54383403
11	0xbf0824ec	-0.5318134
12	0x3f4e7def	0.8066091
13	0x3f07c756	0.5303854
14	0xbf3174f6	-0.69319093
15	0x3ec8a523	0.3918849
16	0x3f1c1701	0.609726
17	0xbf354536	-0.7080873
18	0x3f106d3d	0.56416684
19	0x403b22bd	2.9239953
20	0x3f2f3faf	0.6845655
21	0x3f143f03	0.5790865
22	0xbf738f19	-0.95140225
23	0xbf30c841	-0.69055563
24	0xbf6116ea	-0.8792559
25	0xbf35d958	-0.71034765
26	0x4016066f	2.3441427
27	0xbf44cbeb	-0.76873654
28	0x3f456e80	0.77121735
29	0x3f1ce146	0.6128124
30	0x3f608c08	0.8771367
31	0x3ee331d9	0.44373968
32	0xbf141254	-0.57840466
33	0x3f338580	0.7012558
34	0x3f2c5006	0.67309606
35	0xbf755d06	-0.9584507
36	0xbf3109d4	-0.6915562
37	0xbeb64acf	-0.3560395
38	0x3f226873	0.63440627
39	0xbf9827ec	-1.1887183
40	0x3f041238	0.515903
41	0x3f4a892f	0.79115576
42	0xbecaef28	-0.39635587
43	0xbf1edfcb	-0.6206023
44	0x3f2e4f59	0.68089825
45	0x3f533407	0.8250126
46	0xbf328693	-0.69736594
47	0x3efed809	0.49774197
48	0x3f61b2fd	0.8816374
49	0xbf61c70b	-0.8819434
50	0x3f43f99d	0.76552755
51	0x4041e060	3.0293198
52	0x3f223862	0.63367283
53	0x3edd896c	0.43268907
54	0xbf4dd600	-0.80404663
55	0xbef4a6af	-0.4778342
56	0xbf418a26	-0.7560142
57	0xbf45cf33	-0.77269286
58	0x40088679	2.1332076
59	0xbeefcde1	-0.4683676
60	0x3f67e762	0.9058744
61	0x3ee69b46	0.4504034
62	0x3f483e78	0.7822032
63	0x3f123632	0.57113945
64	0xbf3bc48a	-0.7334677
65	0x3f2ae5e2	0.66757023
66	0x3f2a8be5	0.6661971
67	0xbf7d3a03	-0.98916644
68	0xbf233274	-0.6374886
69	0xbf08fe8c	-0.5351341
70	0x3f20d067	0.62817997
71	0xbfaaba35	-1.3338076
72	0x3eb972da	0.36220437
73	0x3f2cb0e1	0.67457396
74	0xbf0b5fd8	-0.5444312
75	0xbf2bdf4d	-0.67137605
76	0x3f0f0212	0.55862534
77	0x3f1b1c2b	0.60589856
78	0xbf29283d	-0.66077024
79	0x3f1dc850	0.6163378
80	0x3f4f7b0b	0.81047124
81	0xbf58d40e	-0.8469857
82	0x3f524310	0.8213358
83	0x405c0662	3.4378896
84	0x3f10a2a7	0.5649819
85	0x3ec91886	0.39276522
86	0xbf3d47d8	-0.7393775
87	0xbf1d8af4	-0.6154015
88	0xbf281020	-0.65649605
89	0xbf10c167	-0.5654511
90	0x400f1d44	2.2361612
91	0xbeccba04	-0.3998567
92	0x3f3bd708	0.73374987
93	0x3ed119d9	0.40840033
94	0x3f537f95	0.8261655
95	0x3f0ab7fa	0.54186976
96	0xbf0c175c	-0.54723144
97	0x3f4a3cf7	0.78999275
98	0x3f24ab5e	0.64323986
99	0xbf8b8df3	-1.0902694
100	0xbf355d21	-0.7084523
101	0xbecf2a61	-0.4046202
102	0x3f3e392d	0.74305993
103	0xbf9633c1	-1.1734544
104	0x3ebb3090	0.36560488
105	0x3f485c3a	0.78265727
106	0xbf26597a	-0.6498028
107	0xbf02152b	-0.5081355
108	0x3f39e485	0.7261432
109	0x3efa1314	0.4884268
110	0xbefeb576	-0.4974782
111	0x3ee71013	0.4512945
112	0x3f4eaec2	0.8073541
113	0xbf46b451	-0.7761889
114	0x3f3117f6	0.69177186
115	0x40459830	3.0874138
116	0x3ee3d38f	0.44497344
117	0x3f03e03e	0.5151404
118	0xbf5f876b	-0.87316006
119	0xbf25ae57	-0.64719146
120	0xbf3f04f5	-0.7461694
121	0xbf3c313e	-0.7351264
122	0x4016caeb	2.3561351
123	0xbef6d159	-0.48206595
124	0x3f55f60e	0.83578575
125	0x3edb4094	0.42822707
126	0x3f54d961	0.83144194
127	0x3eb742ca	0.35793144
128	0xbf2d30aa	-0.6765238
129	0x3f2743f5	0.6533807
130	0x3f1c9ae1	0.61173826
131	0xbf8c45f7	-1.0958852
132	0xbf06db3c	-0.52678275
133	0xbf293581	-0.66097265
134	0x3f1a38ce	0.6024293
135	0xbf90060e	-1.1251848
136	0x3f22e8ed	0.63636667
137	0x3f308c6a	0.68964255
138	0xbf073360	-0.5281277
139	0xbf111de1	-0.56686217
140	0x3f0a231f	0.5395984
141	0x3f01f43c	0.507633
142	0xbf31174e	-0.69176185
143	0x3f2a1248	0.66434145
144	0x3f1cbd86	0.6122669
145	0xbf44c55e	-0.7686366
146	0x3f5d8c2b	0.86542004
147	0x40371062	2.860375
148	0x3f122bd3	0.5709812
149	0x3eee3154	0.4652201
150	0xbf22ba39	-0.63565403
151	0xbf417a65	-0.75577384
152	0xbf24eb72	-0.6442176
153	0xbee629e2	-0.4495383
154	0x4014d1f7	2.3253152
155	0xbf3bf529	-0.7342096
156	0x3f332d1c	0.69990706
157	0x3f2973de	0.66192424
158	0x3f7eaa6b	0.9947879
159	0x3f15ec24	0.58563447
160	0xbf538312	-0.8262187
161	0x3f266eb6	0.6501268
162	0x3ef14604	0.4712373
163	0xbf995a2d	-1.1980644
164	0xbf43665a	-0.7632805
165	0xbeec17d9	-0.46111944
166	0x3f0ba3c7	0.5454678
167	0xbf8cb807	-1.0993661
168	0x3f2e949b	0.68195504
169	0x3f3964d1	0.7241946
170	0xbeff66da	-0.49883157
171	0xbef32b61	-0.47494033
172	0x3f3fabf9	0.74871784
173	0x3f0899d9	0.5335975
174	0xbea6d903	-0.32587442
175	0x3f2cdd2b	0.67524976
176	0x3f56dced	0.83930856
177	0xbf61275e	-0.87950695
178	0x3f10e122	0.56593525
179	0x4057aeef	3.370052
180	0x3f17a7ce	0.59240425
181	0x3eb25325	0.3482906
182	0xbf253176	-0.64528596
183	0xbf235a25	-0.63809425
184	0xbf46324e	-0.7742051
185	0xbeefd171	-0.4683948
186	0x40199826	2.3999114
187	0xbf0ecc03	-0.5578005
188	0x3f2fc986	0.68666875
189	0x3f32ebde	0.69891155
190	0x3f6d8831	0.92785937
191	0x3f169daa	0.58834326
192	0xbf2423e6	-0.64117277
193	0x3f19b750	0.6004534
194	0x3f3a9be2	0.7289411
195	0xbf8781d1	-1.0586492
196	0xbf4c3efb	-0.797836
197	0xbf0f5a3e	-0.55997074
198	0x3f1c0516	0.6094526
199	0xbfae8f95	-1.3637568
200	0x3ed00bd0	0.40634012
201	0x3f454269	0.7705446
202	0xbec19241	-0.37806895
203	0xbf0e1632	-0.5550262
204	0x3efad8f1	0.48993638
205	0x3f19b7c7	0.60046047
206	0xbecd8677	-0.4014165
207	0x3f307a7a	0.68936884
208	0x3f32c916	0.6983808
209	0xbf2a8395	-0.6660703
210	0x3f3a1afc	0.72697425
211	0x403c9486	2.9465652
212	0x3eebaa01	0.4602814
213	0x3efc10ab	0.49231467
214	0xbf61f1ff	-0.8825988
215	0xbf2ad25e	-0.66727245
216	0xbf3a4079	-0.7275463
217	0xbf2fd3de	-0.6868266
218	0x40119363	2.2746208
219	0xbf1b48ee	-0.60658157
220	0x3f45e4ed	0.7730244
221	0x3f320dfd	0.69552594
222	0x3f639040	0.88891983
223	0x3eefb3f6	0.46816987
224	0xbf3f6ba1	-0.74773604
225	0x3f21fc3b	0.632755
226	0x3ef926cd	0.48662415
227	0xbf6ac12a	-0.91700995
228	0xbf43cf7d	-0.76488477
229	0xbedd6f1d	-0.43248835
230	0x3f4d38ce	0.801648
231	0xbf82d0c3	-1.0219959
232	0x3ee18d21	0.44052985
233	0x3f5b8013	0.857423
234	0xbef73924	-0.48285782
235	0xbf0a5a0c	-0.5404365
236	0x3f580151	0.8437701
237	0x3f050e74	0.5197518
238	0xbf31d85d	-0.6947077
239	0x3f0d52df	0.55204576
240	0x3f79903a	0.974857
241	0xbf433e33	-0.76266783
242	0x3f362ed8	0.7116523
243	0x4026d259	2.6065886
244	0x3eebc348	0.46047425
245	0x3f0bfa63	0.54678935
246	0xbf457cb4	-0.77143407
247	0xbf3095bb	-0.6897847
248	0xbf6d2601	-0.92636114
249	0xbf185f6e	-0.59520614
250	0x4010ca16	2.2623343
251	0xbf13e767	-0.57774967
252	0x3f3c64dd	0.73591405
253	0x3f1df1af	0.61696905
254	0x3f7fc1db	0.99905175
255	0x3ef392d8	0.4757297

lstm.weight_hh_l1 f4 [128, 32]
0	0xbdc87b06	-0.0978909
1	0xbe1f0160	-0.15527868
2	0x3e2f0a97	0.17093883
3	0xbc10b3c0	-0.008831918
4	0x3d7e4f34	0.062087253
5	0xbd080260	-0.03320539
6	0x3cb8af60	0.022544563
7	0xbd0f6d58	-0.035016388
8	0x3de41d86	0.11138444
9	0xbc8280c0	-0.015930533
10	0x3e0c9425	0.13728388
11	0x3d8ed798	0.06974715
12	0xbe1af504	-0.15132529
13	0xbe1e959a	-0.15486756
14	0x3decfbf2	0.11571492
15	0xbe151039	-0.1455697
16	0x3d220f64	0.03956546
17	0xbcfa6108	-0.030563846
18	0x3db3c846	0.087784335
19	0xbd57d57a	-0.05269382
20	0x3e148893	0.14505224
21	0x3d2f5e78	0.0428147
22	0xbdd3b605	-0.10337452
23	0x3d786728	0.060645252
24	0x3ca04290	0.01956299
25	0xbd33bde4	-0.043882266
26	0xbd8b77e9	-0.068099804
27	0x3e2f8df5	0.17143996
28	0xbdae488c	-0.08509931
29	0xbbe278a0	-0.0069113523
30	0xbe098812	-0.13430813
31	0xbe2b1c85	-0.16710098
32	0x3dd087c6	0.10182147
33	0x3c90e328	0.017686442
34	0x3d84b51c	0.06479856
35	0xbe0c0bca	-0.13676372
36	0xbc8f1280	-0.017464876
37	0xbd5da61e	-0.0541135
38	0x3d5a38a4	0.053276673
39	0x3e10a485	0.14125259
40	0xbe347d5f	-0.1762595
41	0x3e2bc9e5	0.16776235
42	0xbd525dec	-0.051359102
43	0x3def3256	0.11679523
44	0x3dffad32	0.12484206
45	0xbddb324b	-0.10702952
46	0xbd90a02d	-0.07061801
47	0xbbbd4680	-0.0057762265
48	0xbd1b34b0	-0.037892044
49	0xbe087fca	-0.13329998
50	0x3e0333fd	0.128128
51	0x3e1a813d	0.15088363
52	0xbe26ef6b	-0.16302268
53	0xbd87a10d	-0.06622515
54	0x3d650144	0.05590941
55	0x3de56a3a	0.11201902
56	0x3e2babe7	0.16764794
57	0x3e2f5a8b	0.17124383
58	0xbcbc66a8	-0.022998169
59	0xbe1853a2	-0.14875653
60	0x3df1d37e	0.11807917
61	0xbdbec060	-0.09314036
62	0x3e0b174f	0.1358311
63	0xbd98a42b	-0.074531876
64	0x3d8ef7d4	0.06980863
65	0x3d2d7fd8	0.04235825
66	0x3e10e563	0.14150004
67	0x3e2c0d69	0.1680199
68	0x3dc71836	0.09721415
69	0x3e237707	0.15963374
70	0x3e1621c1	0.14661314
71	0xbcd58c30	-0.026067823
72	0x3e1f44b1	0.15553547
73	0x3d00513c	0.03132747
74	0x3d344b0c	0.044016883
75	0x3e03a8eb	0.12857406
76	0xbc04ec40	-0.008112967
77	0x3ae54200	0.0017490983
78	0x3b868f40	0.004106432
79	0x3da272ca	0.079320505
80	0x3e2d4319	0.16920127
81	0x3dd78556	0.10523479
82	0xbdddec35	-0.108360685
83	0xbda87e08	-0.082271636
84	0xbd804f24	-0.06265095
85	0x3de6266e	0.11237799
86	0xbcf9f340	-0.030511498
87	0x3e1b54a5	0.15169008
88	0x3d7440c0	0.059632063
89	0x3d5eec44	0.05442454
90	0x3e2e56e9	0.17025341
91	0x3e25eb1f	0.16202973
92	0xbd1700d0	-0.03686601
93	0x3d259d88	0.040433437
94	0x3d22d638	0.039755076
95	0xbd86b4e1	-0.06577469
96	0x3c78b660	0.0151802
97	0x3de1819a	0.11011048
98	0x3def1b96	0.116751835
99	0xbe0d4a44	-0.13797861
100	0xbe2d2c3a	-0.16911402
101	0xbe09f04a	-0.13470569
102	0xbd97d365	-0.07413367
103	0x3d6e2b9c	0.058147058
104	0xbd198a8c	-0.037485644
105	0x3d3731e8	0.04472533
106	0x3ddd735a	0.10813017
107	0x3defe9a2	0.11714484
108	0x3e34fd77	0.17674814
109	0x3dd30976	0.10304539
110	0x3d94a780	0.072585106
111	0x3d74d678	0.059774846
112	0x3d8349ec	0.06410584
113	0xbdf3ab58	-0.118979156
114	0xbcf1df08	-0.029525295
115	0xbe21e494	-0.15809852
116	0xbce98400	-0.028505325
117	0x3ddfcaf2	0.109273806
118	0x3d8b008e	0.06787215
119	0x3d642388	0.055697948
120	0x3dbfb22a	0.09360154
121	0x3da283be	0.07935284
122	0x3d7c3be4	0.061580554
123	0xbdb98cdf	-0.09060072
124	0x3e226ddb	0.15862219
125	0xbba4b960	-0.0050269812
126	0xbe108fbc	-0.1411733
127	0xbe1c0089	-0.15234579
128	0x3c981fa0	0.018569767
129	0x3e30b47f	0.17256354
130	0xbdfbdd8e	-0.122981176
131	0x3e17b64d	0.14815636
132	0xbe314349	-0.17310824
133	0x3d8cd6d2	0.06876911
134	0xbd9d890d	-0.07692156
135	0x3d057f04	0.032591835
136	0xbd0a7918	-0.03380689
137	0x3e07cd2b	0.13261859
138	0x3e213d09	0.1574594
139	0xbe290696	-0.16506419
140	0xbd8b49fe	-0.06801222
141	0xbc710b70	-0.0147122
142	0x3d568114	0.052369192
143	0xbd0b137c	-0.03395413
144	0xbd729076	-0.0592198
145	0x3e281b73	0.16416721
146	0x3e2ff6cb	0.17183988
147	0x3d83cd00	0.06435585
148	0xbe2923b3	-0.16517524
149	0x3e32583d	0.17416473
150	0xbdbfefb3	-0.09371891
151	0xbda8dad7	-0.082448654
152	0x3e01768f	0.12642883
153	0xbdb55924	-0.08854893
154	0x3e0f4ff3	0.13995342
155	0xbe227812	-0.15866116
156	0x3e2a783b	0.16647427
157	0x3dafe24e	0.08588086
158	0x3e179747	0.14803801
159	0x3c133e70	0.008987054
160	0x3e10889b	0.14114611
161	0xbe0c50c9	-0.13702692
162	0xbdd07819	-0.10179157
163	0x3d647aec	0.05578129
164	0x3bf7f9a0	0.0075675994
165	0xbde2d451	-0.110756524
166	0xbe23ae02	-0.15984347
167	0x3d898ef2	0.06716718
168	0x3d920cf4	0.07131377
169	0x3de19c8e	0.110161886
170	0x3e2da7c9	0.16958536
171	0xbd77942a	-0.060444035
172	0x3d8df958	0.06932324
173	0xbe329e50	-0.17443204
174	0x3dcae482	0.09906866
175	0xbe25f472	-0.1620653
176	0xbdd26313	-0.10272803
177	0xbdd43925	-0.10362462
178	0xbcb76238	-0.022385702
179	0xbde035ef	-0.10947787
180	0x3de72256	0.11285846
181	0x3e169059	0.14703502
182	0xbe175114	-0.14777023
183	0xbbd9f7c0	-0.0066518486
184	0xbddb92f2	-0.10721387
185	0x3db58636	0.08863489
186	0xbc8a7fb8	-0.016906604
187	0x3dbd613e	0.09247063
188	0x3e04da77	0.12973963
189	0x3d3f1bac	0.04665725
190	0x3e04cbf9	0.12968434
191	0x3dcd110a	0.100130156
192	0xbd8f9ff6	-0.07012932
193	0xbddc2d26	-0.10750799
194	0xbe1a0342	-0.15040305
195	0xbd485bbc	-0.04891561
196	0xbd3d7cc4	-0.046261564
197	0x3dbabc2e	0.09117924
198	0x3da0ba9a	0.078480914
199	0xbe2c84e9	-0.16847576
200	0xbd01dc58	-0.031704277
201	0xbd4f6538	-0.05063364
202	0xbdaa624a	-0.083195284
203	0xbd3a99c0	-0.045556784
204	0xbe30a215	-0.1724933
205	0x3de30a86	0.110859916
206	0xbe28403a	-0.1643075
207	0x3dd2490e	0.1026784
208	0xbe2dd039	-0.16973962
209	0xbdd79d4f	-0.10528051
210	0xbe3109aa	-0.17288843
211	0xbde9d0ad	-0.11416755
212	0x3cb452d0	0.022012144
213	0xbd90060a	-0.07032402
214	0x3b800520	0.003906861
215	0xbdc81a40	-0.09770632
216	0xbd90b035	-0.07064859
217	0xbda2c354	-0.07947412
218	0xbcde1950	-0.02711168
219	0x3d5549ec	0.05207245
220	0x3e250a0b	0.16117112
221	0x3e0d01fb	0.13770287
222	0x3dbdcbe2	0.09267403
223	0xbdd94c06	-0.106102034
224	0x3d8ddd44	0.06926969
225	0x3d8c674a	0.06855638
226	0xbc82b910	-0.015957385
227	0x3df74396	0.12073438
228	0xbdead613	-0.11466613
229	0xbd8a4c0a	-0.067527846
230	0xbdc43d0b	-0.095819555
231	0x3d9ff006	0.07809453
232	0xbdffc736	-0.12489168
233	0x3d58d64c	0.052938744
234	0x3d8cc608	0.06873709
235	0x3e03e809	0.12881483
236	0x3d086c84	0.033306614
237	0xbd7610f6	-0.06007477
238	0xbcb6ebe0	-0.02232927
239	0x3e1635b9	0.14668931
240	0x3d0c99b8	0.034326285
241	0xbd7401a8	-0.059571892
242	0x3db3dc5a	0.08782263
243	0xbdb93662	-0.09043576
244	0x3d8b0a96	0.067891285
245	0x3db9f22a	0.09079392
246	0xbdcb5164	-0.099276334
247	0xbd7ffa0a	-0.062494315
248	0x3dc286e6	0.09498386
249	0xbe30bab8	-0.17258728
250	0x3d8cfcf0	0.068841815
251	0x3da2d332	0.079504386
252	0x3ddd2976	0.10798924
253	0xbd61cd24	-0.055127278
254	0x3db66c92	0.08907427
255	0xbe2bf81f	-0.1679387

lstm.bias_ih_l1 f4 [128]
0	0x3ed2486a	0.41070873
1	0x3ed4dc03	0.41574106
2	0x3e9a2040	0.3010273
3	0x3f060209	0.52346855
4	0x3eee9604	0.46598828
5	0x3edd3c80	0.4321022
6	0x3ec4b379	0.38418177
7	0x3eb47664	0.35246575
8	0x3e971833	0.2951065
9	0x3f0005f2	0.5000907
10	0x3edb571a	0.4283989
11	0x3f11189f	0.56678194
12	0x3f0fa978	0.56117964
13	0x3f06678f	0.5250177
14	0x3f00a56f	0.5025243
15	0x3ee3dffb	0.4450682
16	0x3ee07ba7	0.4384434
17	0x3f1b0fb0	0.6057081
18	0x3f0c5aa4	0.54825807
19	0x3ec3c63f	0.38237187
20	0x3efc39c5	0.49262825
21	0x3ecff6fb	0.4061812
22	0x3ebeeb6e	0.37288994
23	0x3f2785b0	0.65438366
24	0x3ef27b9e	0.47359937
25	0x3f182b17	0.5944075
26	0x3ee6ddc9	0.45091084
27	0x3f0c500e	0.54809654
28	0x3f07ce34	0.53049016
29	0x3f24e4d4	0.64411664
30	0x3f0b95f8	0.5452571
31	0x3eefb91e	0.4682092
32	0xbe2907ca	-0.16506878
33	0xbd4b600c	-0.049652144
34	0x3e32aeef	0.17449544
35	0x3d5c0550	0.053716004
36	0x3dc1d6a6	0.09464769
37	0xbd09e018	-0.033660978
38	0x3e1b5cd9	0.15172137
39	0xbd9e54e2	-0.07731034
40	0xbe15d279	-0.1463107
41	0x3e14e9dd	0.14542337
42	0x3d966f1e	0.07345413
43	0xbd4cc8c4	-0.049996153
44	0x3e2ff277	0.17182337
45	0x3ddcde0e	0.10784541
46	0x3e2e97df	0.17050122
47	0x3e104635	0.14089282
48	0x3e32f333	0.17475586
49	0xbe26f3b3	-0.16303901
50	0xbd7ab744	-0.061209932
51	0xbd441a74	-0.04787679
52	0x3adc1900	0.0016792119
53	0x3dab992e	0.08378826
54	0xbd8ab835	-0.06773416
55	0xbbff0f80	-0.00778383
56	0xbe28cdeb	-0.16484801
57	0xbe2652bd	-0.162425
58	0xbc549070	-0.01297389
59	0x3dfb5aee	0.12273203
60	0xbe2b3061	-0.16717674
61	0xbdab554d	-0.08365879
62	0x3d922048	0.071350634
63	0xbcbd3150	-0.023094803
64	0x3e94d0fb	0.2906569
65	0xbe8f5b90	-0.27999544
66	0x3ec445fb	0.3833464
67	0x3e932784	0.28741086
68	0xbebd7187	-0.37000677
69	0x3e9ea49a	0.30984956
70	0x3ee3aa75	0.44465986
71	0x3ea9ad5e	0.3314008
72	0x3e817365	0.25283352
73	0x3ed32697	0.4124038
74	0xbed301f9	-0.41212443
75	0xbecaa21c	-0.39576805
76	0x3d865095	0.065583386
77	0xbe6e00f0	-0.23242545
78	0xbe82d7c9	-0.25555256
79	0x3ede13c0	0.43374443
80	0xbe0d381d	-0.13790937
81	0xbec8c1dd	-0.39210406
82	0x3eb01d7d	0.34397498
83	0xbeaf198f	-0.34199187
84	0xbecd8092	-0.40137154
85	0xbec4dfee	-0.38452095
86	0x3edb5cbc	0.42844188
87	0x3ecb95b5	0.39762655
88	0x3e9f59aa	0.31123096
89	0x3e1904d5	0.1494325
90	0xbe028d21	-0.12749149
91	0x3e80bb01	0.25142673
92	0xbe66b731	-0.2253082
93	0x3e87163f	0.2638416
94	0x3edea256	0.43483227
95	0xbe0d5bac	-0.13804501
96	0x3f0f3209	0.5593572
97	0x3f1e3be6	0.6181015
98	0x3f06ca78	0.5265269
99	0x3eac4ea0	0.33653736
100	0x3f2555e2	0.6458417
101	0x3f042178	0.5161357
102	0x3f1f4623	0.62216395
103	0x3f2d5c48	0.67718935
104	0x3ed17c36	0.40915078
105	0x3f1bc22d	0.60843164
106	0x3f152d5a	0.58272326
107	0x3f0417fa	0.51599085
108	0x3f21d0dc	0.6320932
109	0x3e9e4898	0.3091476
110	0x3ed02470	0.406528
111	0x3eff9c95	0.4992415
112	0x3ec302ef	0.38088176
113	0x3f19c499	0.6006561
114	0x3ec69123	0.38782606
115	0x3f1f7113	0.6228191
116	0x3f09dffc	0.538574
117	0x3f22d476	0.6360544
118	0x3eaf130b	0.34194216
119	0x3f23e470	0.6402044
120	0x3f21745b	0.6306817
121	0x3f15a511	0.58454996
122	0x3f017880	0.50574493
123	0x3eb390c9	0.350714
124	0x3f087260	0.5329952
125	0x3efcd004	0.49377453
126	0x3f0dd173	0.5539772
127	0x3eecf6e7	0.46282122

lstm.bias_hh_l1 f4 [128]
0	0x3eb386c4	0.35063756
1	0x3edf7abb	0.43648323
2	0x3f000a9d	0.50016195
3	0x3f191049	0.59790474
4	0x3ef150e2	0.4713202
5	0x3e84f498	0.2596786
6	0x3f0d857b	0.552818
7	0x3f189a66	0.59610593
8	0x3f160bf2	0.5861198
9	0x3ee74af6	0.45174378
10	0x3e999522	0.29996592
11	0x3ebf3440	0.3734455
12	0x3f22aff0	0.6354971
13	0x3f12c026	0.57324445
14	0x3f2f11df	0.68386644
15	0x3ea6186d	0.3244051
16	0x3f067857	0.52527374
17	0x3ef65d20	0.48117924
18	0x3eae2b2a	0.34017307
19	0x3f03a66f	0.5142583
20	0x3ebc62b4	0.36794055
21	0x3edee19b	0.43531498
22	0x3ea18de8	0.31553578
23	0x3f06d98c	0.526757
24	0x3f0259ea	0.5091845
25	0x3f162368	0.58647776
26	0x3ee1868a	0.44047958
27	0x3f053b94	0.52044034
28	0x3f23a93b	0.639301
29	0x3ecb337c	0.39687717
30	0x3f24fbde	0.6444682
31	0x3f1c65cf	0.6109285
32	0x3e1fe109	0.15613188
33	0xbd66101e	-0.056167714
34	0xbd7c68a8	-0.061623245
35	0x3d4d896c	0.050179884
36	0x3d7a6c38	0.06113836
37	0xbe221cb0	-0.15831256
38	0x3e1642cf	0.14673923
39	0x3ca6eef8	0.020377621
40	0x3cd12250	0.025529057
41	0x3d57f728	0.05272594
42	0xbe082fd2	-0.13299492
43	0x3e03103b	0.1279916
44	0xbd045f78	-0.03231761
45	0x3e29c639	0.16579522
46	0xbdb0a6f5	-0.086255945
47	0x3d5eb194	0.05436857
48	0xbc4036b0	-0.0117317885
49	0xbdc5dad8	-0.09660882
50	0xbdd8791b	-0.10569974
51	0x3dc87f1e	0.09789871
52	0xbbbabec0	-0.0056990087
53	0x3d083f30	0.033263385
54	0x3d256df8	0.040388077
55	0x3db7e0a2	0.08978392
56	0x3dc233b6	0.09482519
57	0xbdf55900	-0.11979866
58	0x3e1aa60b	0.15102403
59	0x3e14c9f7	0.14530168
60	0x3cd83970	0.026394576
61	0x3da29996	0.079394504
62	0xbe18ef4e	-0.14935037
63	0x3d65bcf0	0.056088388
64	0x3ecee9fa	0.40412885
65	0xbebd310d	-0.36951485
66	0x3e916345	0.2839605
67	0x3ea04944	0.31305897
68	0xbec2c880	-0.38043594
69	0x3ea01c93	0.312718
70	0x3e65af8c	0.22430247
71	0x3e31c55c	0.17360443
72	0x3ea380fd	0.31934348
73	0x3e83dd6b	0.25754866
74	0xbe6880ee	-0.22705433
75	0xbea9f10f	-0.33191726
76	0x3e1e1c27	0.15440427
77	0xbec4fb16	-0.38472813
78	0xbeb2cfd8	-0.34924197
79	0x3e905a15	0.28193727
80	0xbe9b3b78	-0.3031881
81	0xbe3f9534	-0.1870926
82	0x3e73b32d	0.23798819
83	0xbe4eb705	-0.20187004
84	0xbea95fe8	-0.33080983
85	0xbe315b07	-0.1731988
86	0x3e49caf1	0.19706322
87	0x3eaedd3e	0.3415317
88	0x3e2a68ab	0.1664149
89	0x3e436ce0	0.19084501
90	0xbed124cf	-0.40848395
91	0x3ecb0292	0.39650398
92	0xbebdcfc8	-0.37072587
93	0x3e604851	0.21902587
94	0x3e932492	0.28738838
95	0xbe3117d8	-0.17294252
96	0x3eb7af43	0.35875902
97	0x3e99a84d	0.30011216
98	0x3ece3fc1	0.40283015
99	0x3ee08138	0.43848586
100	0x3eafa049	0.34301975
101	0x3f199e47	0.6000714
102	0x3ec4b102	0.38416296
103	0x3f1e2762	0.61778843
104	0x3f0605e0	0.52352715
105	0x3ebf2e93	0.3734022
106	0x3ecc5eef	0.3991618
107	0x3ee83463	0.45352468
108	0x3f0b8b3b	0.54509324
109	0x3eae6fc6	0.3406965
110	0x3ed9d8db	0.4254826
111	0x3f148a83	0.5802385
112	0x3f09d7fb	0.53845185
113	0x3ed57b43	0.41695604
114	0x3f0ec1cf	0.5576448
115	0x3ed91808	0.42401147
116	0x3e961dfa	0.29319745
117	0x3ea5ef36	0.32409066
118	0x3f1ae1e9	0.6050096
119	0x3f00b79b	0.5028016
120	0x3eddb7fa	0.43304425
121	0x3f1b8f18	0.6076522
122	0x3f19d7ec	0.60095096
123	0x3eb428e2	0.3518744
124	0x3ecb9e71	0.3976932
125	0x3f02f722	0.51158345
126	0x3ef4d9d7	0.4782245
127	0x3ebd7771	0.3700519

fc.weight f4 [1, 32]
0	0x441278f8	585.89014
1	0xc412752b	-585.83075
2	0x44127cbf	585.94916
3	0x441274f0	585.82715
4	0xc41277aa	-585.86975
5	0x44127d01	585.9532
6	0x44127e23	585.9709
7	0x44127578	585.83545
8	0x441274a5	585.8226
9	0x441275a3	585.8381
10	0xc4127e13	-585.9699
11	0xc4127b9a	-585.9313
12	0x4412791d	585.8924
13	0xc4127916	-585.89197
14	0xc4127aa9	-585.91656
15	0x441279f1	585.90533
16	0xc4127681	-585.8516
17	0xc4127ce8	-585.95166
18	0x44127cc6	585.9496
19	0xc412791d	-585.8924
20	0xc4127981	-585.8985
21	0xc41275fa	-585.8434
22	0x44127ff5	585.9993
23	0x4412751d	585.8299
24	0x44127c86	585.9457
25	0x4412782d	585.87775
26	0xc41278a6	-585.88513
27	0x44127e86	585.9769
28	0xc41276ae	-585.8544
29	0x44127c04	585.93774
30	0x44127729	585.8619
31	0xc4127c1a	-585.9391
