save/model_20240611_193725.pth (torch, 822312 bytes, 13 tensors)

lstm.weight_ih_l0 f4 [396, 15]
0	0x3dc55346	0.09635024
1	0x3e4bbe55	0.19896825
2	0x3e3ead11	0.18620707
3	0x3ded03e0	0.11573005
4	0x3e600df3	0.21880321
5	0x3dbcbf48	0.092161715
6	0x3e1ff1f1	0.15619637
7	0x3ddf8518	0.109140575
8	0x3e0284a4	0.12745911
9	0x3e3cbc3c	0.1843118
10	0x3e217085	0.15765579
11	0x3e8ae652	0.27128845
12	0x3e070b4b	0.13187902
13	0x3e0f8919	0.14017142
14	0x3e86b8c0	0.26312828
15	0x3dd1061b	0.10206243
16	0x3e25a072	0.16174486
17	0x3e3c5077	0.1839007
18	0x3e51d7b4	0.2049244
19	0x3e71f306	0.23627862
20	0x3e5be9ce	0.21475908
21	0x3e8df685	0.27727142
22	0x3e816683	0.25273523
23	0x3dd7bc71	0.10533989
24	0x3e4a8256	0.19776282
25	0x3e1c23d7	0.15248047
26	0x3e1a9ede	0.15099666
27	0x3e0d4f4b	0.13799779
28	0x3e52da8a	0.20591179
29	0x3db1c961	0.08680988
30	0x3e3209df	0.17386578
31	0x3e7dd705	0.24789055
32	0x3e845c84	0.25851834
33	0x3dbff567	0.09372979
34	0x3e77ba2e	0.24192116
35	0x3e17706c	0.1478898
36	0x3dc7425e	0.097294554
37	0x3e845289	0.2584422
38	0x3e70f4cd	0.23530884
39	0x3e74d58e	0.2390959
40	0x3e8440d5	0.25830713
41	0x3e1d1e26	0.15343532
42	0x3e7dc4b7	0.24782072
43	0x3e3a87fd	0.18215938
44	0x3e55ab8f	0.20866226
45	0x3dc921b0	0.098208785
46	0x3db6b5fb	0.08921429
47	0x3d93af52	0.07211174
48	0x3dc37d63	0.095454
49	0x3e49ba1f	0.19699906
50	0x3e089d53	0.13341264
51	0x3d45d002	0.048294075
52	0x3d92c853	0.07167115
53	0x3e71350f	0.23555396
54	0x3e41f1a8	0.18939841
55	0x3e840557	0.25785324
56	0x3e17359f	0.14766549
57	0x3e5deeac	0.21673077
58	0x3d94eb2f	0.0727142
59	0x3e0ef210	0.13959527
60	0x3e4308fe	0.19046399
61	0x3e8b8829	0.2725232
62	0x3e55e793	0.2088912
63	0x3dbcc1e0	0.09216666
64	0x3e4ce7b9	0.2001027
65	0x3db05b2b	0.08611139
66	0x3e241a87	0.16025744
67	0x3e756d2a	0.23967424
68	0x3e8f5fd7	0.28002807
69	0x3e365848	0.17807114
70	0x3e633bc4	0.22190768
71	0x3e4daa6e	0.20084545
72	0x3e0b608e	0.13611051
73	0x3de8d920	0.11369538
74	0x3e3bf07b	0.18353455
75	0x3daa1108	0.0830403
76	0x3e71117e	0.23541829
77	0x3e216ce7	0.15764199
78	0x3d651595	0.055928785
79	0x3e2a87c0	0.16653347
80	0x3e0ac56c	0.13551873
81	0x3d809aa3	0.062794946
82	0x3d776cff	0.06040668
83	0x3e5831b5	0.21112712
84	0x3db31877	0.08744901
85	0x3e2a4f61	0.16631843
86	0x3e0b9e68	0.13634646
87	0x3e36da61	0.17856742
88	0x3d972a7b	0.073811494
89	0x3e0c1c05	0.13682564
90	0x3e6f55f7	0.23372637
91	0x3e45b9f9	0.19309224
92	0x3d8fe6c5	0.07026438
93	0x3e553b6e	0.20823452
94	0x3dfce8b3	0.12349071
95	0x3e4b9e59	0.19884624
96	0x3dd4ac3c	0.103844136
97	0x3dd87f4e	0.105711564
98	0x3e0a515d	0.135076
99	0x3db1d4d0	0.08683169
100	0x3e2c765c	0.16842026
101	0x3e66d499	0.22542037
102	0x3e6c3e7a	0.23070708
103	0x3e0d83dd	0.13819833
104	0x3e66019c	0.22461551
105	0x3dd945d2	0.1060902
106	0x3de9315d	0.113863684
107	0x3e4f9c92	0.2027457
108	0x3e1550d6	0.14581618
109	0x3e587b4d	0.21140786
110	0x3e0173fe	0.12641904
111	0x3dbbc7f8	0.091690004
112	0x3e0b86c9	0.13625635
113	0x3e4d5db3	0.20055275
114	0x3e1bf96b	0.15231864
115	0x3e848d58	0.25889087
116	0x3db8fa06	0.09032063
117	0x3e16f4df	0.14741848
118	0x3e646686	0.22304735
119	0x3e6323e1	0.22181655
120	0x3e2f017c	0.1709041
121	0x3dd1cead	0.102444984
122	0x3e4db3c3	0.20088105
123	0x3e78d1ba	0.24298754
124	0x3e302bf0	0.17204261
125	0x3e62b777	0.22140299
126	0x3e302b31	0.17203976
127	0x3dfb816e	0.12280546
128	0x3e1fa253	0.15589266
129	0x3e409d50	0.1881001
130	0x3dfc9bb4	0.123343855
131	0x3dd08478	0.101815164
132	0x3db14c3c	0.08657119
133	0x3db5889c	0.08863947
134	0x3dab857b	0.08375069
135	0x3e8e301c	0.2777108
136	0x3e5a914e	0.21344492
137	0x3dd03fb1	0.10168398
138	0x3e8dc15a	0.27686578
139	0x3e29f4cc	0.16597289
140	0x3e0ce53a	0.13759318
141	0x3da92820	0.08259606
142	0x3e320ad0	0.17386937
143	0x3e279807	0.16366588
144	0x3e005ba8	0.12534964
145	0x3e6aaab2	0.22916678
146	0x3e2ce497	0.16884075
147	0x3de36752	0.11103691
148	0x3e2bd27e	0.16779515
149	0x3e6615d1	0.2246926
150	0x3e86e59d	0.26347056
151	0x3e080d30	0.1328628
152	0x3e80cb04	0.2515489
153	0x3e3d1eda	0.184688
154	0x3dc31422	0.095253244
155	0x3df02022	0.11724879
156	0x3e29d0dd	0.16583581
157	0x3e1ba2c9	0.15198816
158	0x3deed6cd	0.11662064
159	0x3e8541b0	0.26026678
160	0x3e7f9020	0.24957323
161	0x3e2a8667	0.16652833
162	0x3e44c1f5	0.19214614
163	0x3e2aa173	0.1666315
164	0x3e90b6e9	0.2826455
165	0x3e4fb42e	0.20283577
166	0x3dd75fbd	0.105163075
167	0x3e785e04	0.24254614
168	0x3e33de0e	0.17565176
169	0x3e2e9a9f	0.17051171
170	0x3e50a5f9	0.20375814
171	0x3e48d8f7	0.19614016
172	0x3e0d7f74	0.13818151
173	0x3ddfeac3	0.10933449
174	0x3d7aea0e	0.06125837
175	0x3d7db8f8	0.061943978
176	0x3e743dad	0.23851652
177	0x3e6ffb98	0.23435819
178	0x3e60a177	0.21936594
179	0x3e6e0b65	0.23246534
180	0x3e4d441b	0.20045511
181	0x3def273c	0.11677405
182	0x3e3e093c	0.1855821
183	0x3dff5be8	0.124687016
184	0x3e8f441c	0.2798165
185	0x3e12ef0e	0.14349005
186	0x3ddb58ca	0.107102945
187	0x3e0af711	0.13570811
188	0x3e6dd87c	0.23227113
189	0x3e832256	0.25612134
190	0x3e1bf64f	0.15230678
191	0x3de3236b	0.1109074
192	0x3e45de68	0.19323123
193	0x3e23531e	0.15949675
194	0x3e224362	0.15846017
195	0x3e592c35	0.2120827
196	0x3e808f42	0.25109297
197	0x3e6f8645	0.23391064
198	0x3e5d81e9	0.21631588
199	0x3e6bc53d	0.23024459
200	0x3e674c22	0.22587636
201	0x3e156275	0.1458834
202	0x3e577f79	0.2104472
203	0x3e052040	0.13000584
204	0x3e89ad3c	0.2688998
205	0x3e487583	0.19576077
206	0x3e861227	0.26185724
207	0x3e1962d6	0.14979109
208	0x3e0bc038	0.13647544
209	0x3e0540f7	0.13013063
210	0x3dbaaef0	0.09115398
211	0x3e72a503	0.2369576
212	0x3e770bd1	0.24125601
213	0x3dd1e14d	0.10248051
214	0x3e22ea47	0.15909682
215	0x3e62aba3	0.22135787
216	0x3d975356	0.07388942
217	0x3dabe8e9	0.083940335
218	0x3dc17994	0.09447017
219	0x3e0d6644	0.13808542
220	0x3e353d03	0.17699055
221	0x3e6929c7	0.22769843
222	0x3e687708	0.22701657
223	0x3e58ce90	0.21172547
224	0x3e62eb85	0.22160156
225	0x3e418e6e	0.18901989
226	0x3e7a790b	0.24460237
227	0x3e672aef	0.22574972
228	0x3deff099	0.11715812
229	0x3e7e36c6	0.24825582
230	0x3e8c322e	0.27382034
231	0x3e43f0bc	0.19134802
232	0x3dd84e3a	0.105617955
233	0x3e46d6a5	0.19417818
234	0x3e3a45eb	0.18190734
235	0x3e646290	0.22303224
236	0x3e099a0d	0.13437672
237	0x3e8524fc	0.2600478
238	0x3e88dd30	0.26731253
239	0x3e884c6d	0.26620808
240	0x3e5d8bfc	0.21635431
241	0x3e4ca47e	0.19984624
242	0x3e823865	0.2543365
243	0x3e30d48a	0.17268577
244	0x3e68ac61	0.22722007
245	0x3e489f28	0.19591963
246	0x3e381dce	0.1798012
247	0x3e306080	0.17224312
248	0x3dab9cc5	0.08379511
249	0x3e851618	0.2599342
250	0x3e4150ee	0.18878528
251	0x3dd420b0	0.10357797
252	0x3dcd4263	0.10022428
253	0x3e6fa036	0.2340096
254	0x3e2085b3	0.15676002
255	0x3e7ce3fa	0.24696341

lstm.weight_hh_l0 f4 [396, 99]
0	0x3d964a35	0.073383726
1	0xbdafe950	-0.08589423
2	0x3dac0f47	0.084013514
3	0xbd17eada	-0.037089206
4	0xbd871bb0	-0.06597078
5	0xbd804519	-0.06263179
6	0xbce6e690	-0.028186113
7	0xbd0ffffe	-0.035156243
8	0xbca7540c	-0.020425819
9	0xbd721f0e	-0.059111647
10	0x3d2b3e0e	0.041807227
11	0xbd2b9bec	-0.041896746
12	0x3d97061b	0.073742114
13	0x3cd58f5c	0.026069336
14	0xbc297a78	-0.01034414
15	0xbd3bb193	-0.045823645
16	0xbc6d68a8	-0.014490284
17	0xbd790120	-0.06079209
18	0xbc84a57c	-0.01619219
19	0x3d59a3fa	0.053134896
20	0xbdc6fe8f	-0.09716522
21	0x3d5e4e0a	0.054273643
22	0x3ae0c740	0.0017149225
23	0x3db7a3a9	0.089667626
24	0xbdc63f53	-0.09680047
25	0x3c7703c8	0.015076585
26	0x3dafed53	0.08590188
27	0x3db867e1	0.09004188
28	0x3da15c27	0.07878905
29	0xbda220cd	-0.079164125
30	0x3d497d12	0.049191542
31	0x3d5f7d32	0.054562755
32	0x3d97f4b7	0.074197225
33	0x3c133138	0.008983903
34	0xbc87ff3c	-0.016601197
35	0x3d2706ca	0.04077796
36	0x3d642e1a	0.05570803
37	0x3ca36578	0.019945845
38	0x3d6cb156	0.05778631
39	0xbd888443	-0.06665852
40	0x3c6a61b8	0.0143055245
41	0xbc56b3a8	-0.013104357
42	0xbd85e37c	-0.0653753
43	0x3d95c1c9	0.07312352
44	0x3d4ac612	0.0495053
45	0xbdca269a	-0.09870644
46	0x3c8509d0	0.01624003
47	0x3d62ea42	0.055399187
48	0xbdac7982	-0.08421613
49	0xbd806ab9	-0.06270356
50	0xbd226c26	-0.03965392
51	0xbdbd4fc0	-0.09243727
52	0xbc8885bc	-0.016665332
53	0x3cb63970	0.022244185
54	0x3d8661b7	0.065616064
55	0xbcd27050	-0.02568832
56	0xbc99953c	-0.018747918
57	0x3d4f777e	0.050651066
58	0xbd28d0a7	-0.04121461
59	0x3d88e283	0.06683829
60	0xbd0c7f16	-0.034300886
61	0xbbf2d110	-0.007410176
62	0x3c815e10	0.015791923
63	0xbdca41ed	-0.098758556
64	0xbda1c87a	-0.07899566
65	0x3cafa140	0.021439195
66	0x3dc548c7	0.09633022
67	0xbccd23c4	-0.025041468
68	0xbb17b100	-0.0023146272
69	0xbdc81392	-0.09769358
70	0x3d19fe8a	0.037596263
71	0xbd6cfa88	-0.057856113
72	0xbd5581d6	-0.052125774
73	0xbda5801c	-0.080810755
74	0x3d9f57a9	0.07780392
75	0xbd75dfac	-0.060027763
76	0xbdaa95fb	-0.08329388
77	0xbd56ad7d	-0.052411545
78	0x3dbbf95f	0.09178423
79	0xbccf6b18	-0.025319621
80	0xbd809770	-0.062788844
81	0xbc169178	-0.009189956
82	0x3d76413e	0.060120814
83	0xbdc7a2d6	-0.09747855
84	0xbd8a497d	-0.06752298
85	0xbbb21720	-0.0054348856
86	0xbd1dedf2	-0.038557
87	0x3d419876	0.04726454
88	0xbbbad100	-0.0057011843
89	0x3db474c1	0.088113315
90	0x3ccc3584	0.024927862
91	0xbd2b9709	-0.041892085
92	0xbd7b4535	-0.061345298
93	0xbc8de0f0	-0.017319173
94	0x3d7a86f6	0.061163865
95	0xbd93fc34	-0.07225838
96	0xbdc83f32	-0.097776785
97	0xbb571220	-0.00328172
98	0xbca4bb98	-0.020108983
99	0x3bd031b0	0.0063535795
100	0x3d8eb443	0.06967976
101	0x3d9de60f	0.07709896
102	0xbd4cbc2e	-0.04998415
103	0x3d62d146	0.05537536
104	0xbdb79da3	-0.08965614
105	0x3dbc4d6f	0.09194457
106	0x3cf9df4c	0.030501984
107	0x3c74ea98	0.01494851
108	0xbd08d9c6	-0.03341081
109	0xbd0d4e24	-0.03449835
110	0x3d345282	0.044023998
111	0xbc279460	-0.010228246
112	0xbd57fc04	-0.052730575
113	0x3d22cc02	0.03974534
114	0xbdb3b676	-0.08775036
115	0x3d8a6ec1	0.06759406
116	0x3d2abc42	0.041683443
117	0xbd8e79c5	-0.069568194
118	0xbd1c8546	-0.038213037
119	0xbd23870a	-0.039923705
120	0xbc736d90	-0.014857665
121	0xbcb7092c	-0.02234324
122	0xbd9f0e2c	-0.07766375
123	0xbcce56ec	-0.025187932
124	0x3c176bf8	0.00924205
125	0xbc8dd608	-0.017313972
126	0x3d839993	0.06425776
127	0xbd2edf49	-0.04269341
128	0xbdba2d7e	-0.09090708
129	0xbd95d55e	-0.07316087
130	0x3d002896	0.031288706
131	0x3daadfe7	0.08343487
132	0x3d892e3b	0.06698271
133	0x3d195cba	0.037441947
134	0xbd8ce0bc	-0.06878802
135	0xbdc975f4	-0.09836951
136	0x3cf89adc	0.03034728
137	0x3d8316bd	0.06400821
138	0x3dcae125	0.09906224
139	0xbdbd6154	-0.092470795
140	0x3bb0e200	0.005398035
141	0xbce89644	-0.028391965
142	0xbd7fb02d	-0.062423874
143	0x3d86e4db	0.065866195
144	0xbdc1142b	-0.09427675
145	0x3cb020f0	0.02150008
146	0x3d8905ff	0.06690597
147	0xbda73827	-0.08165007
148	0x3b03f7c0	0.0020136684
149	0xbd0cc796	-0.034370027
150	0xbda4c556	-0.08045451
151	0xbd970fd3	-0.07376065
152	0x3d889663	0.06669309
153	0x3b0d2240	0.0021535307
154	0x3d3f305e	0.046676986
155	0x3da9b6db	0.0828683
156	0x3d85f7b9	0.0654139
157	0x3c751978	0.0149596855
158	0x3a3b6f00	0.0007150024
159	0x3cce7664	0.025202937
160	0xbc2afb28	-0.010435857
161	0x3dba03b1	0.09082735
162	0xbd5f45d8	-0.054509968
163	0xbd779f00	-0.06045437
164	0x3ca74640	0.02041924
165	0x3d70d30a	0.058795013
166	0x3d767082	0.06016589
167	0xbd685424	-0.056720868
168	0x3d66d8d2	0.05635912
169	0x3d877a09	0.06615073
170	0xbd4ea846	-0.050453447
171	0x3d34ecc6	0.044171117
172	0x3d7613b6	0.06007739
173	0xbd0feb9e	-0.03513681
174	0x3d54c7b2	0.051948257
175	0xbc385320	-0.011250287
176	0xbd3583a9	-0.044315014
177	0xbd80e43f	-0.062935345
178	0x3d3f2676	0.04666754
179	0xbbbc1ab0	-0.005740486
180	0xbd4dd882	-0.050255306
181	0x3d37d8ea	0.0448846
182	0x3d04e38e	0.032443576
183	0xbdb333d1	-0.087501176
184	0x3d5346c6	0.051581167
185	0x3d2ac556	0.0416921
186	0x3cd3399c	0.025784306
187	0xbc0302a8	-0.007996239
188	0x3d2168ce	0.03940659
189	0x3db3a90f	0.0877248
190	0x3c98a0dc	0.018631391
191	0xbd7d02d4	-0.061770275
192	0xbcdc551c	-0.026896052
193	0xbbc8fcd0	-0.006133653
194	0xbdaf9c1f	-0.085746996
195	0xbd76ebb4	-0.060283378
196	0xbd4c623e	-0.04989838
197	0xbcf62880	-0.030048609
198	0x3da2ac49	0.07943017
199	0xbd8789b3	-0.06618061
200	0xbcde4560	-0.02713269
201	0x3d0ce73e	0.034400217
202	0x3da92e9d	0.08260844
203	0xbdc163a4	-0.09442833
204	0x3cb9d690	0.02268532
205	0x3d43d612	0.047811575
206	0x3d9eecfb	0.07760044
207	0x3bcb5c40	0.0062060654
208	0xbda85e50	-0.08221114
209	0x3dae8a87	0.08522516
210	0x3da167ed	0.078811504
211	0x3d106d66	0.03526058
212	0xbd4b6a3d	-0.049661864
213	0x3da028d3	0.078202866
214	0xbcf15230	-0.029458135
215	0xbdc20db8	-0.09475273
216	0x3d2420ee	0.040070467
217	0xbd3d88e3	-0.046273123
218	0x3d84854f	0.06470739
219	0xbdab4cbd	-0.08364246
220	0x3db20581	0.08692456
221	0x3db5c44b	0.088753305
222	0x3d87cc35	0.06630746
223	0xbd0faf16	-0.035079084
224	0x3c736168	0.014854766
225	0x3d9e26d3	0.07722249
226	0x3c1366c0	0.0089966655
227	0x3c372748	0.011178799
228	0xbb645b00	-0.003484428
229	0xbd83230a	-0.064031675
230	0xbd33807a	-0.043823697
231	0x3d1f3e66	0.038877867
232	0x3b469be0	0.003030531
233	0x3d21b712	0.03948123
234	0x3d7a1092	0.06105096
235	0x3c239c00	0.009985924
236	0x3cb403cc	0.021974467
237	0xbcfdbaf8	-0.030972943
238	0x3dc1b751	0.09458793
239	0xbcf34458	-0.029695675
240	0xbbce9390	-0.006304212
241	0xbd68baf8	-0.056818932
242	0xbd9e7dfa	-0.07738872
243	0xbc5f9ec0	-0.013648689
244	0x3dcdad41	0.10042811
245	0xbd88c9cc	-0.06679115
246	0x3d9bef4f	0.07614004
247	0xbda172c6	-0.078832194
248	0x3dc80fa3	0.097686075
249	0x3d7be8f6	0.061501466
250	0xbdc32f68	-0.095305264
251	0x3dc7cbe5	0.09755687
252	0x3a3a0b80	0.00070970505
253	0xbd90ab60	-0.07063937
254	0xbda177ae	-0.07884155
255	0x3da7ebc3	0.08199265

lstm.bias_ih_l0 f4 [396]
0	0x3e845bef	0.2585139
1	0x3e2fd684	0.17171675
2	0x3e345b2b	0.17612903
3	0x3e85289c	0.26007545
4	0x3e84cc6f	0.2593722
5	0x3e0146ec	0.12624711
6	0x3e34046c	0.17579812
7	0x3e8545ef	0.26029918
8	0x3e6e74cd	0.23286743
9	0x3e815e0b	0.25267062
10	0x3e1e09fe	0.15433499
11	0x3e0e87c2	0.13918975
12	0x3e01fc50	0.12693906
13	0x3e2df05a	0.16986218
14	0x3e1491f1	0.14508797
15	0x3ddf1db9	0.10894341
16	0x3e0a44dc	0.1350283
17	0x3e3eed85	0.18645294
18	0x3dfbd1df	0.12295889
19	0x3e11f686	0.14254197
20	0x3d94894a	0.07252748
21	0x3dcd4999	0.10023803
22	0x3de487e1	0.11158729
23	0x3e4411ce	0.19147417
24	0x3e5baedf	0.21453427
25	0x3e4cb5cc	0.19991225
26	0x3e24a7e6	0.16079673
27	0x3dffc39b	0.12488481
28	0x3e71a523	0.23598151
29	0x3e821509	0.25406674
30	0x3e0bb58c	0.13643473
31	0x3df45a3c	0.11931273
32	0x3e777162	0.24164346
33	0x3e04ebfb	0.12980644
34	0x3e8ccf25	0.2750179
35	0x3e55f7b0	0.20895267
36	0x3dfc93cf	0.1233288
37	0x3e5f015f	0.21777867
38	0x3e20a558	0.15688074
39	0x3e188d83	0.14897732
40	0x3e5d448c	0.2160818
41	0x3e87ae7d	0.26500311
42	0x3de9c5c1	0.11414672
43	0x3de45154	0.111483246
44	0x3dbd90eb	0.092561565
45	0x3e141d90	0.14464402
46	0x3e300804	0.17190558
47	0x3e27ad3d	0.16374679
48	0x3e73582a	0.237641
49	0x3e54d214	0.20783263
50	0x3e788298	0.24268568
51	0x3e739f9a	0.23791352
52	0x3e78d9ce	0.24301836
53	0x3de0b615	0.109722294
54	0x3e466ca0	0.19377375
55	0x3e1a2c99	0.15056075
56	0x3e5b6cd8	0.2142824
57	0x3e95478d	0.2915615
58	0x3e81726d	0.25282612
59	0x3e42b82f	0.19015573
60	0x3dd80b91	0.10549081
61	0x3e6e3892	0.23263767
62	0x3e927afa	0.2860945
63	0x3e7ddac2	0.2479048
64	0x3e29ae16	0.16570315
65	0x3dcfce96	0.10146825
66	0x3e816189	0.25269726
67	0x3df150a9	0.11782963
68	0x3e591262	0.21198419
69	0x3de60735	0.112318434
70	0x3e03ff0b	0.1289026
71	0x3e24b8e6	0.16086158
72	0x3e32dbf4	0.17466718
73	0x3deb4ee0	0.114896536
74	0x3e6624a0	0.22474909
75	0x3e4a122f	0.19733499
76	0x3e61da73	0.22055988
77	0x3dd40cf1	0.10354031
78	0x3e91cc98	0.28476405
79	0x3e86eb8b	0.2635158
80	0x3deb4da9	0.11489422
81	0x3e735953	0.23764543
82	0x3e05a382	0.13050655
83	0x3e4b09ca	0.19827953
84	0x3e44e466	0.19227752
85	0x3e51c44a	0.20485035
86	0x3e436861	0.19082786
87	0x3e29fcbd	0.16600318
88	0x3e07186c	0.1319291
89	0x3e7acf0e	0.24493048
90	0x3e83c77d	0.25738135
91	0x3e89926e	0.2686953
92	0x3e85e4d3	0.26151142
93	0x3de7309f	0.112885706
94	0x3e31c43e	0.17360017
95	0x3e8ed79c	0.27898872
96	0x3e64a95d	0.22330232
97	0x3e1002b8	0.14063537
98	0x3e467cd9	0.19383563
99	0xbd430132	-0.04760856
100	0x3dc6a565	0.09699515
101	0xbb9bab20	-0.0047506243
102	0xbd530768	-0.051520735
103	0xbdc57f6e	-0.09643446
104	0x3db6c935	0.08925096
105	0xbc37a0c8	-0.011207767
106	0x3c4927b0	0.012277529
107	0xbd9e2031	-0.07720984
108	0xbda57d5f	-0.08080553
109	0xbc55d038	-0.0130501315
110	0xbda4f5b9	-0.080546804
111	0xbcc2fc10	-0.023801833
112	0xbcfd8bd4	-0.030950464
113	0x3c7555e8	0.014974095
114	0xbd1d234e	-0.038363747
115	0x3c3d1b68	0.011542179
116	0x3dc262c1	0.09491492
117	0x3d305302	0.043047912
118	0xbdcc4cb4	-0.099755675
119	0x3b141ea0	0.0022601262
120	0xbd6022fa	-0.054720856
121	0xbd4c2485	-0.049839515
122	0xbd317e97	-0.043333616
123	0x3d83cb8d	0.064353086
124	0x3bb29f00	0.005451083
125	0xbd225c6b	-0.039638918
126	0x3d4d095a	0.050057746
127	0x3d323d32	0.04351539
128	0x3ba72bf0	0.0051016733
129	0x3bd9f490	0.0066514686
130	0x37b1d000	2.1196902e-05
131	0xbdca8f74	-0.09890643
132	0xbd845698	-0.06461829
133	0xbd76399f	-0.060113546
134	0xbd98eaed	-0.074666835
135	0x3cb1c6a8	0.021701172
136	0x3c0f3f68	0.008743145
137	0xbd545f78	-0.05184886
138	0xbca57448	-0.020197049
139	0x3da8f183	0.0824919
140	0x3bf2d0e0	0.0074101537
141	0xbbee0f30	-0.007264994
142	0xbdb56e7f	-0.08858966
143	0x3c678850	0.0141316205
144	0xbd0e02f2	-0.034670778
145	0xbc354568	-0.011063911
146	0x3dbab84f	0.09117185
147	0x3db5f133	0.08883896
148	0x3bace0a0	0.005275801
149	0x3dcc0edd	0.099637724
150	0xbca03de0	-0.019560754
151	0x3d9827e7	0.07429486
152	0x3d7764fa	0.060399033
153	0x3b8dd390	0.0043281987
154	0x3d9fd6fb	0.07804676
155	0x3d1266be	0.035742514
156	0xbd744dff	-0.059644695
157	0x3db979d9	0.09056444
158	0x3d5f6a22	0.054544576
159	0x3c818738	0.015811548
160	0x3ca51bd0	0.020154864
161	0xbd80de47	-0.06292396
162	0x3cc84258	0.024445698
163	0xbc78a008	-0.015174873
164	0xbd4144a7	-0.047184613
165	0x3d3342ce	0.04376488
166	0x3cd65e24	0.026167937
167	0x3d89b605	0.067241706
168	0x3d8946ad	0.067029335
169	0x3b0c26a0	0.0021385327
170	0xbd64331b	-0.0557128
171	0xbdb1a3e6	-0.08673839
172	0xbc1ca668	-0.009561159
173	0xbb855410	-0.004068859
174	0xbd0cf6ba	-0.034414984
175	0xba8c1a80	-0.001068905
176	0x3d96f241	0.07370425
177	0xbdc19677	-0.09452527
178	0xbd913af8	-0.070913255
179	0xbca882c8	-0.020570174
180	0x3d8aa3b5	0.06769506
181	0x3d9ef087	0.07760721
182	0xbdb008bd	-0.08595417
183	0x3dc69c31	0.0969776
184	0xbda152f0	-0.07877147
185	0xbd0cf8e8	-0.034417063
186	0xbd942875	-0.07234279
187	0x3d8dd56b	0.06925472
188	0x3d94510f	0.07242023
189	0x3d9e968b	0.077435575
190	0x3d998767	0.07496529
191	0xbd10054c	-0.0351613
192	0x3ca61560	0.020273864
193	0xbcc09534	-0.023508646
194	0x3cae429c	0.021271996
195	0xbd4a3fae	-0.049377136
196	0xbd68c852	-0.056831665
197	0x3c87ac34	0.016561605
198	0xbe3e1a8c	-0.18564814
199	0xbe38a8ae	-0.18033096
200	0xbe5c5519	-0.21516837
201	0xbe7cec3c	-0.24699491
202	0xbe59771e	-0.21236846
203	0xbdba312f	-0.09091412
204	0x3da17d56	0.07885234
205	0xbdbcce75	-0.09219066
206	0x3e48102e	0.19537422
207	0xbe88e9ce	-0.2674088
208	0x3dfadcfa	0.12249179
209	0xbe4cd020	-0.20001268
210	0x3de39a01	0.11113358
211	0x3e2e4dcf	0.17021869
212	0xbdfc3a90	-0.123158574
213	0xbe33ef21	-0.17571689
214	0x3e66eadd	0.2255053
215	0xbe0e93c0	-0.1392355
216	0xbe3b0c9e	-0.18266532
217	0xbe5442aa	-0.20728555
218	0x3e1c5c93	0.1526969
219	0x3e2be5e6	0.16786918
220	0xbe482774	-0.195463
221	0x3e83afc5	0.2572004
222	0xbe26f47a	-0.16304198
223	0xbe4d3f49	-0.20043673
224	0x3e3581f4	0.17725354
225	0xbe78b850	-0.2428906
226	0xbdd4e87a	-0.10395904
227	0xbe45307e	-0.1925678
228	0x3e6a720d	0.2289507
229	0x3e81bc46	0.25338954
230	0xbe5a19b7	-0.21298872
231	0xbe8a7341	-0.27041057
232	0xbe541dbc	-0.20714468
233	0xbe763fb4	-0.24047738
234	0xbe8c4402	-0.27395636
235	0x3e7e1d70	0.24815917
236	0x3e777a8c	0.24167842
237	0x3e72b5f7	0.23702227
238	0x3e856304	0.26052105
239	0xbe4b9bfa	-0.19883719
240	0x3e0eae52	0.13933685
241	0x3e62a527	0.22133313
242	0xbe8b385a	-0.2719143
243	0x3dd2ed60	0.10299182
244	0xbdf61402	-0.12015535
245	0xbe3bc468	-0.18336642
246	0xbe3a1d99	-0.18175353
247	0x3e865c17	0.26242134
248	0x3e1b874f	0.15188335
249	0xbe1a512e	-0.1507003
250	0xbe5bdca6	-0.2147089
251	0x3e923d61	0.28562453
252	0xbe36645c	-0.17811722
253	0x3e73462d	0.23757239
254	0x3e7166fc	0.23574442
255	0xbe2e6b67	-0.17033158

lstm.bias_hh_l0 f4 [396]
0	0x3dfe7c00	0.12425995
1	0x3e6b231a	0.22962609
2	0x3e8b1ff3	0.27172813
3	0x3e561ad8	0.20908678
4	0x3e3d276d	0.18472071
5	0x3d9ba691	0.076001294
6	0x3dcfbdc8	0.1014362
7	0x3e35757b	0.17720596
8	0x3e0258a4	0.12729126
9	0x3ddc60e9	0.10760672
10	0x3e35ca6a	0.17752996
11	0x3db07f26	0.08618002
12	0x3e6d352d	0.23164816
13	0x3dad72e4	0.08469179
14	0x3e31fd68	0.17381823
15	0x3e4c9f40	0.19982624
16	0x3dfcf660	0.1235168
17	0x3e349434	0.1763466
18	0x3e155683	0.14583783
19	0x3e4b02f4	0.19825345
20	0x3e2722a7	0.16321813
21	0x3e2da384	0.16956908
22	0x3dc89bbe	0.097953305
23	0x3e42161e	0.1895375
24	0x3d8e7434	0.06955758
25	0x3e261cca	0.1622192
26	0x3e16baff	0.14719771
27	0x3dc770ff	0.09738349
28	0x3e7ff944	0.24997431
29	0x3e5b4228	0.21411955
30	0x3dcde3e9	0.10053236
31	0x3e7f876d	0.24954005
32	0x3e688dfe	0.22710416
33	0x3e6e6308	0.23279965
34	0x3db7ed6f	0.08980834
35	0x3e402535	0.18764193
36	0x3e8a649c	0.27029884
37	0x3e5dcd1d	0.21660276
38	0x3dfc48ab	0.12318548
39	0x3e3296bf	0.17440318
40	0x3e744672	0.23854998
41	0x3e002e10	0.12517571
42	0x3dc53fbd	0.09631298
43	0x3e803850	0.25042963
44	0x3e3a882a	0.18216005
45	0x3e323f3b	0.17406933
46	0x3e513450	0.20430112
47	0x3e65227d	0.22376437
48	0x3e44ddc2	0.19225219
49	0x3dcc1e6d	0.09966741
50	0x3e20f51e	0.15718505
51	0x3e5496c9	0.20760645
52	0x3e622a2a	0.22086397
53	0x3e68e85c	0.22744888
54	0x3dde5c24	0.10857418
55	0x3e4280db	0.18994467
56	0x3e42b5a5	0.19014604
57	0x3e00a52c	0.12563008
58	0x3e3c7aef	0.1840627
59	0x3e7108a7	0.23538457
60	0x3e317109	0.17328276
61	0x3e018d7e	0.12651631
62	0x3e220df5	0.15825637
63	0x3e30a4c9	0.1725036
64	0x3e5973a5	0.21235521
65	0x3e1dfea6	0.15429172
66	0x3e87415e	0.2641706
67	0x3e63867e	0.22219273
68	0x3eb27618	0.34855723
69	0x3e648937	0.22317968
70	0x3e77b68c	0.2419073
71	0x3e7f7650	0.24947476
72	0x3e87a399	0.26492003
73	0x3db82995	0.08992306
74	0x3e155b9b	0.14585726
75	0x3e107c0c	0.1410982
76	0x3e2f3e1d	0.17113538
77	0x3e84db59	0.259486
78	0x3e787e41	0.24266912
79	0x3e85a70e	0.26104015
80	0x3dda5a6f	0.1066178
81	0x3d8b2695	0.06794468
82	0x3e5e7360	0.217237
83	0x3e79e5e6	0.24404106
84	0x3e6dc934	0.23221284
85	0x3e6778d1	0.22604682
86	0x3e86dbcb	0.26339564
87	0x3daaaeb6	0.08334105
88	0x3e8073ed	0.25088444
89	0x3e045fbe	0.12927148
90	0x3e83116b	0.25599226
91	0x3e45f25f	0.19330738
92	0x3e68ebc1	0.22746183
93	0x3e399ade	0.18125483
94	0x3e00bce2	0.12572053
95	0x3e4f8ce6	0.20268592
96	0x3de2a611	0.11066831
97	0x3dca0829	0.09864838
98	0x3e3e070b	0.18557374
99	0x3d5a60fe	0.053315155
100	0x3c4f0f50	0.012637928
101	0x3d768f82	0.060195453
102	0xbdc5e2a4	-0.09662369
103	0xbdc857d0	-0.09782374
104	0xbc00d998	-0.007864378
105	0x3a770600	0.00094231963
106	0x3dc96007	0.09832769
107	0x3cd03954	0.025417961
108	0xbd224635	-0.039617736
109	0x3d08cd5a	0.033398964
110	0x3d8b9f85	0.06817535
111	0x3c375960	0.011190742
112	0x3db3283f	0.08747911
113	0x3dca605d	0.09881661
114	0xbc7af548	-0.015317269
115	0xbd9ca385	-0.076483764
116	0x3d5787f6	0.052619897
117	0x3c8c303c	0.017112844
118	0xbdb595ce	-0.088664636
119	0x3b302e20	0.0026882961
120	0xbd9f4a89	-0.07777888
121	0x3ca264bc	0.019823425
122	0xbce7e998	-0.028309628
123	0xbdb84d5e	-0.089991316
124	0x3d7c665e	0.061621062
125	0xbcdb0adc	-0.026738577
126	0x3dcccbcb	0.09999808
127	0xbd6da462	-0.058018096
128	0x3d337b2e	0.043818645
129	0x3b047a60	0.0020214543
130	0x3daed375	0.08536426
131	0x3dcb3337	0.09921878
132	0xbd466921	-0.048440102
133	0xbca2430c	-0.019807361
134	0x3c80619c	0.015671544
135	0x3d1acfb6	0.037795745
136	0xbc021e48	-0.00794179
137	0xbdb4443c	-0.08802077
138	0x3d4d74d6	0.05016025
139	0x3d8f357f	0.069926254
140	0xbda5a70e	-0.08088504
141	0x3a697300	0.0008905381
142	0xbd02980e	-0.031883292
143	0xbdb83c33	-0.08995857
144	0xbdc2812e	-0.09497295
145	0x3cdad014	0.026710548
146	0xbd28ffe3	-0.041259658
147	0x3d3a0c62	0.045421965
148	0x3cd49954	0.025952019
149	0x3d9b21e9	0.07574827
150	0x3dc472e7	0.095922284
151	0x3da89ad7	0.08232658
152	0xbb26f5e0	-0.0025476143
153	0x3d9f1e29	0.077694245
154	0x3dacd7b3	0.08439579
155	0xbd4e5d25	-0.0503818
156	0x3cf24f74	0.029578902
157	0x3a08b680	0.0005215183
158	0x3d8ceb03	0.068807624
159	0xbc666230	-0.014061496
160	0x3c157db0	0.0091242045
161	0xbdbf1633	-0.09330406
162	0x3d7bfba6	0.061519288
163	0xbd555b0e	-0.05208879
164	0x3c0c7e88	0.008575089
165	0x3c8f82e0	0.01751846
166	0x3d45307e	0.04814195
167	0xbd9adf27	-0.07562094
168	0xbd87a8be	-0.06623982
169	0xbdc45281	-0.09586049
170	0xbc3d2a98	-0.0115458
171	0xbd06d350	-0.032916367
172	0xbcaa9428	-0.0208226
173	0x3d59259e	0.05301439
174	0x3dcbc6b1	0.09950007
175	0xbd0f7f8e	-0.035033755
176	0x3dc029cb	0.093829714
177	0xbd4ac732	-0.049506374
178	0x3dae80bf	0.0852065
179	0xbd8efd7e	-0.069819435
180	0x3c9f9abc	0.019482963
181	0xbd32b9a1	-0.04363406
182	0x3cce330c	0.025170825
183	0x3dcc326b	0.09970554
184	0xbcc1e820	-0.023670256
185	0xbc87c18c	-0.016571783
186	0xbd3b0593	-0.045659613
187	0xbaefc600	-0.0018293262
188	0x3b612860	0.003435634
189	0xbd973925	-0.07383946
190	0x3c8a222c	0.016861998
191	0xbda8bbee	-0.0823897
192	0x3d55ff2e	0.05224531
193	0x3d707c02	0.058712013
194	0xbd5cab8e	-0.053874545
195	0xbda236fa	-0.07920642
196	0xbd700bfe	-0.058605187
197	0x3da7961f	0.0818293
198	0xbe8ad464	-0.27115166
199	0xbe3e1cba	-0.18565646
200	0xbe07f5e0	-0.13277388
201	0xbddee961	-0.10884357
202	0xbe6bbe05	-0.23021705
203	0xbe441c1d	-0.1915135
204	0x3e6ca286	0.23108873
205	0xbe88b1a2	-0.26698023
206	0x3dcda9fa	0.10042186
207	0xbe5f74b7	-0.21821867
208	0x3e8e7247	0.27821562
209	0xbe1a3a1a	-0.15061226
210	0x3dea5f6f	0.11443984
211	0x3e01455b	0.12624113
212	0xbe354c47	-0.17704879
213	0xbe88b1e9	-0.26698235
214	0x3e1526a6	0.14565524
215	0xbe564946	-0.20926389
216	0xbe39301b	-0.18084757
217	0xbe7c2cd1	-0.24626471
218	0x3e06eec1	0.13177015
219	0x3e388d41	0.18022634
220	0xbe8f87bc	-0.28033245
221	0x3e852d68	0.26011205
222	0xbddde93c	-0.108355016
223	0xbe828aed	-0.25496617
224	0x3e4ece03	0.20195775
225	0xbe5c21d8	-0.21497285
226	0xbe87a900	-0.26496124
227	0xbe8db066	-0.27673644
228	0x3e39c3ed	0.18141146
229	0x3e73e2cd	0.23816986
230	0xbe8c2f39	-0.27379778
231	0xbe348018	-0.17626989
232	0xbe746192	-0.23865345
233	0xbe0e325f	-0.13886403
234	0xbe3c48db	-0.18387167
235	0x3e7085ed	0.23488589
236	0x3e77df1d	0.24206205
237	0x3e3d155c	0.18465179
238	0x3e6cde02	0.23131564
239	0xbe447bc2	-0.19187835
240	0x3e6bf483	0.23042493
241	0x3e7bfa6f	0.24607252
242	0xbe8e5818	-0.27801585
243	0x3e770422	0.2412267
244	0xbdf0e338	-0.117620885
245	0xbe8558c4	-0.26044285
246	0xbd8dbee2	-0.06921174
247	0x3e85deff	0.26146695
248	0x3e01d33e	0.12678239
249	0xbe60591b	-0.21908991
250	0xbe70432f	-0.23463129
251	0x3e1ce3fd	0.15321346
252	0xbe73f4fe	-0.23823926
253	0x3dbe5477	0.09293454
254	0x3e70275c	0.23452514
255	0xbe2ace62	-0.16680291

lstm.weight_ih_l1 f4 [396, 99]
0	0xbe2eee38	-0.1708306
1	0xbda5e65d	-0.08100579
2	0xbe435868	-0.19076693
3	0xbe2463a3	-0.16053633
4	0xbe4102a1	-0.18848659
5	0xbdde2761	-0.10847355
6	0x3e9c2f6c	0.3050493
7	0xbe4d09a0	-0.20023203
8	0x3e1f6e48	0.15569413
9	0xbe155ea2	-0.14586881
10	0x3e70bf7e	0.23510548
11	0xbe733fab	-0.23754756
12	0x3e47f583	0.19527249
13	0x3e6a39f4	0.2287367
14	0xbe2b13aa	-0.1670672
15	0xbe80c9c1	-0.25153926
16	0x3d961adb	0.07329341
17	0xbe0d01fe	-0.13770291
18	0xbe5ed698	-0.21761549
19	0xbe8565dc	-0.26054275
20	0x3e7df735	0.24801333
21	0x3e930e57	0.28721878
22	0xbe91b9a7	-0.28461954
23	0x3e55c01d	0.20874067
24	0xbdb4d15b	-0.08828994
25	0xbe814bb1	-0.2525306
26	0x3e60a67b	0.21938507
27	0xbdb51832	-0.088425055
28	0xbe95406b	-0.2915071
29	0xbe0a7c41	-0.13523962
30	0x3de56a2c	0.11201891
31	0x3e1efb6d	0.15525599
32	0xbe6de74d	-0.23232765
33	0xbe43f3fb	-0.1913604
34	0xbe84bb5f	-0.25924203
35	0xbde09957	-0.10966747
36	0xbe6dc61f	-0.23220108
37	0x3e10f910	0.1415751
38	0x3e1c3412	0.15254238
39	0x3e2814fb	0.16414253
40	0x3e11b867	0.142305
41	0xbe190154	-0.14941913
42	0x3eab3f1c	0.33446586
43	0x3e333bb1	0.17503239
44	0xbe0c4c38	-0.1370095
45	0x3ddb1c0b	0.10698708
46	0xbe938d02	-0.28818518
47	0xbdb4a69b	-0.0882084
48	0xbe6d31fc	-0.23163599
49	0x3dd3c294	0.10339847
50	0x3d961d92	0.07329859
51	0xbe9c9e06	-0.30589312
52	0xbe2613a8	-0.16218436
53	0x3e759687	0.23983203
54	0xbde75a30	-0.11296499
55	0x3e5b829a	0.2143654
56	0x3dd530fb	0.10409733
57	0xbda3b2b6	-0.07993071
58	0xbde6c531	-0.1126808
59	0x3e7c91ad	0.24664946
60	0x3e4caf3d	0.19988723
61	0xbdc9801d	-0.09838889
62	0x3e63da8d	0.2225134
63	0x3e19804d	0.14990349
64	0xbe43b3ee	-0.19111606
65	0x3e1907bc	0.14944357
66	0xbd9b6eb3	-0.075894736
67	0x3e694f36	0.22784123
68	0x3ea45577	0.32096455
69	0xbe7d1fbb	-0.24719135
70	0xbe6f23f2	-0.23353556
71	0xbe7cca9b	-0.24686663
72	0x3e75c0d3	0.23999338
73	0x3def0c18	0.116722286
74	0xbe871b53	-0.26388034
75	0xbe746d88	-0.23869908
76	0x3db52757	0.08845394
77	0xbe704d9d	-0.23467107
78	0x3e43e69c	0.19130939
79	0xbd912a8f	-0.070881955
80	0x3e5e6ba0	0.21720743
81	0xbe58473a	-0.21120921
82	0x3e7a4f7d	0.24444385
83	0xbde2ae90	-0.110684514
84	0xbe30e97f	-0.17276572
85	0x3e2bb99b	0.16770022
86	0x3e5c9f60	0.21545172
87	0xbdc404f9	-0.09571261
88	0x3e107874	0.14108449
89	0xbe557c7f	-0.20848273
90	0xbe0ea51d	-0.13930173
91	0xbe10ee17	-0.14153324
92	0xbe3e01c7	-0.18555366
93	0xbdd70e2a	-0.105007485
94	0xbe3b0b2f	-0.18265985
95	0x3e3c4312	0.1838496
96	0xbe2ad09e	-0.16681144
97	0xbe6470fd	-0.22308727
98	0x3dbe0c42	0.09279682
99	0xbe841ce5	-0.25803295
100	0xbe678065	-0.22607572
101	0xbe57cf0b	-0.21075074
102	0xbe15ed9b	-0.1464142
103	0xbe1846e5	-0.14870794
104	0xbe183bd1	-0.14866568
105	0x3e09962d	0.13436194
106	0xbc887c38	-0.016660795
107	0x3e7b537f	0.2454357
108	0xbe048c14	-0.1294406
109	0x3e8660a7	0.26245615
110	0xbe500534	-0.20314485
111	0x3e23a891	0.15982272
112	0x3e173c7b	0.14769165
113	0xbe05d20d	-0.1306841
114	0xbdec4949	-0.115374155
115	0x3e302a4e	0.17203638
116	0xbe88696d	-0.26642933
117	0xbe3841a8	-0.17993796
118	0xbdb0ee94	-0.08639255
119	0x3e359fb4	0.17736703
120	0x3e1f28d4	0.15542918
121	0xbd96008e	-0.073243245
122	0x3e508eab	0.20366924
123	0xbe80ea04	-0.2517854
124	0xbe191966	-0.14951095
125	0x3e5aa2b3	0.21351127
126	0xbd7ffe75	-0.06249853
127	0xbe3a889e	-0.18216178
128	0xbddaceda	-0.10683985
129	0x3dbb4ed5	0.091458954
130	0x3e87afc2	0.2650128
131	0xbe622664	-0.22084957
132	0xbe3fa709	-0.18716063
133	0xbe69575d	-0.22787233
134	0xbe04864a	-0.12941852
135	0xbe162cb4	-0.1466549
136	0x3e4255eb	0.18978088
137	0x3e81dd4d	0.25364152
138	0x3e351a0c	0.17685717
139	0x3e1a139a	0.1504654
140	0xbe31c6c9	-0.17360987
141	0x3e1619b9	0.1465825
142	0x3e635a6b	0.2220246
143	0xbe81aeb9	-0.25328615
144	0x3e21764f	0.15767787
145	0xbe00f6b3	-0.12594108
146	0xbe293760	-0.1652503
147	0xbdd835ed	-0.105571605
148	0x3e5b99b2	0.21445349
149	0x3e4a8b6e	0.1977975
150	0xbe69eafa	-0.22843543
151	0xbdc73afc	-0.09728047
152	0x3e54590c	0.20737094
153	0xbe8463ec	-0.25857484
154	0x3e03d782	0.12875178
155	0x3e61e63b	0.22060482
156	0xbde67f43	-0.11254742
157	0xbdfdbb57	-0.12389248
158	0x3e14311c	0.14471859
159	0x3e4cbd20	0.1999402
160	0xbe3e02ac	-0.18555707
161	0x3e5afe65	0.21386106
162	0x3e18917b	0.14899246
163	0xbe891868	-0.26776433
164	0x3e48dafc	0.19614786
165	0xbe1486de	-0.14504573
166	0x3e316d04	0.17326742
167	0xbc7f39a8	-0.015577711
168	0xbe22c7db	-0.15896551
169	0xbe02b210	-0.12763238
170	0xbe44cd73	-0.19218998
171	0x3e862e95	0.26207414
172	0x3e5286a6	0.20559177
173	0xbda2c7e6	-0.07948284
174	0xbdc004c7	-0.09375911
175	0x3e10e078	0.14148128
176	0xbde47153	-0.111544274
177	0x3e20791e	0.15671203
178	0xbe022a71	-0.12711503
179	0x3e6e0e7c	0.23247713
180	0xbda61aed	-0.081106044
181	0x3dfb86ba	0.122815564
182	0xbe077e84	-0.13231856
183	0xbe82f7a5	-0.25579563
184	0x3e228675	0.15871604
185	0x3e890b99	0.2676666
186	0xbd5d2ad4	-0.053995922
187	0x3e4a3e96	0.19750437
188	0xbe735fda	-0.23767033
189	0xbd962a62	-0.07332303
190	0xbe5e4856	-0.21707281
191	0xbde3625d	-0.11102746
192	0xbe816c74	-0.25278056
193	0xbe212052	-0.15734985
194	0x3db0d751	0.08634818
195	0xbe30501f	-0.17218064
196	0xbe6b4520	-0.22975588
197	0x3e3bc098	0.18335187
198	0xbe6e72d7	-0.23285995
199	0xbe58756f	-0.21138547
200	0xbe8c20c8	-0.2736876
201	0xbe87618f	-0.2644162
202	0xbe378f30	-0.17925715
203	0xbe3ced31	-0.18449856
204	0x3e2fa792	0.17153767
205	0xbe6dc985	-0.23221405
206	0x3e04d7b9	0.12972917
207	0xbe65bed7	-0.22436081
208	0x3e7577fa	0.23971549
209	0xbe7ff9fa	-0.24997702
210	0x3dc2bdbc	0.09508845
211	0x3e3abb30	0.18235469
212	0xbe8528fd	-0.26007834
213	0xbe51e1c9	-0.20496286
214	0x3dc5d5d4	0.09659925
215	0xbe4747b3	-0.19460945
216	0xbe7475bc	-0.23873037
217	0xbe8cf2d5	-0.27529016
218	0x3e92518f	0.2857785
219	0x3ea8300c	0.32849157
220	0xbe897e1b	-0.26854023
221	0x3e5a700c	0.21331805
222	0xbe1efda2	-0.1552644
223	0xbe12003b	-0.142579
224	0x3e7fd575	0.24983771
225	0xbe63e388	-0.22254765
226	0xbde16678	-0.110058725
227	0xbe5d28b4	-0.21597558
228	0x3e45d367	0.19318925
229	0x3e4dc5fc	0.20095056
230	0xbe005fa1	-0.1253648
231	0xbe2d014e	-0.16895029
232	0xbdc06aaf	-0.09395348
233	0xbe209ee1	-0.15685607
234	0xbe4cc500	-0.19997025
235	0x3e11c3c5	0.14234836
236	0x3e02eb57	0.12785088
237	0x3e1680b0	0.14697528
238	0x3dd550fd	0.10415838
239	0xbe722ba5	-0.23649462
240	0x3e8b687f	0.27228162
241	0x3e94f986	0.2909662
242	0xbe0c6dc7	-0.13713752
243	0x3df2beb0	0.11852777
244	0xbe719d6f	-0.23595212
245	0xbdcdfef7	-0.10058396
246	0xbe7f4c9e	-0.24931571
247	0x3e80f7f9	0.25189188
248	0x3dd6f738	0.10496372
249	0xbe6c69b1	-0.23087193
250	0xbe2e5da6	-0.17027912
251	0x3e00eab0	0.12589526
252	0xbdb26e18	-0.08712405
253	0x3e0ef7fb	0.13961785
254	0x3e6734d0	0.2257874
255	0xbe0c7931	-0.13718106

lstm.weight_hh_l1 f4 [396, 99]
0	0x3d9e87a1	0.07740713
1	0x3d3adc86	0.045620464
2	0xbda3a74f	-0.07990896
3	0xbd6bfa15	-0.057611544
4	0x3d780c6e	0.06055873
5	0x3c0f6318	0.008751653
6	0xbd93f84f	-0.072250955
7	0x3d5bb90e	0.05364328
8	0xbd57910e	-0.05262857
9	0xbd8fc3b1	-0.07019747
10	0x3c36cc60	0.011157125
11	0x3c5b2298	0.013374947
12	0xbd586c21	-0.052837495
13	0xbc01e708	-0.007928617
14	0xbc50a498	-0.012734555
15	0xbd834436	-0.064094946
16	0x3d009bea	0.03139869
17	0x3d6dde96	0.058073603
18	0x3ca31a40	0.019909978
19	0x3ce0862c	0.027407728
20	0xbda4924c	-0.080357164
21	0xbd1c3f3c	-0.038146242
22	0x3cf39154	0.029732384
23	0x3cb2cb0c	0.021825336
24	0x3d0e9172	0.034806676
25	0x3cd7c6a4	0.026339836
26	0x3d561c46	0.052273057
27	0xbd7474aa	-0.059681572
28	0x3d9c21cd	0.076236345
29	0xbdb3dd8e	-0.087824926
30	0xbd0fc590	-0.03510052
31	0x3d25e9b2	0.040506072
32	0x3cb3aa74	0.021931864
33	0xbb8ea1c0	-0.004352778
34	0xbd71b8d8	-0.05901417
35	0xbcf06954	-0.0293471
36	0x3d985b3f	0.07439279
37	0x3d9c38c7	0.07628017
38	0xbd3a9de8	-0.045560747
39	0xbda67c11	-0.081291325
40	0x3c7df5a0	0.015500456
41	0x3d860fd3	0.06545987
42	0x3d69933e	0.057025187
43	0x3d153956	0.036431633
44	0x3cdee31c	0.027207904
45	0x3cb054c0	0.021524787
46	0x3bc4cd40	0.006005913
47	0xbd635f1a	-0.055510618
48	0xbd2bc8cc	-0.04193954
49	0xbdc053a5	-0.09390954
50	0x3d13eaca	0.036112584
51	0x3d0fb5c2	0.035085447
52	0xbd03ff92	-0.032226153
53	0xbd71a4ae	-0.05899494
54	0xbd1c8db7	-0.038221087
55	0xbd52cc60	-0.05146444
56	0x3dbdcee9	0.092679806
57	0xbd3a4982	-0.04548026
58	0xbdac0e74	-0.08401194
59	0x3dc4cd31	0.0960945
60	0x3d304ea2	0.04304374
61	0x3d0116d6	0.03151592
62	0x3d32330e	0.04350572
63	0x3d61645e	0.05502736
64	0x3dc0b8cd	0.09410248
65	0x3d7a97c2	0.061179884
66	0x3ba205d0	0.0049445406
67	0x3cbc4208	0.022980705
68	0xbd807c50	-0.06273711
69	0x3dc48fad	0.095977165
70	0xbb12d0c0	-0.0022402257
71	0xbd68fdd1	-0.056882683
72	0xbdc87a4d	-0.09788952
73	0xbd3921b0	-0.045198143
74	0x3d993f81	0.074828155
75	0xbd9411e1	-0.07229973
76	0xbd402b5b	-0.046916347
77	0xbbe4a360	-0.0069774836
78	0x3d92f409	0.07175452
79	0x3dc773b9	0.09738869
80	0xbbd42990	-0.006474681
81	0x39f10d00	0.00045976788
82	0x3d3bf9e2	0.045892604
83	0x3d45d096	0.048294626
84	0x3c610710	0.013734594
85	0x3d3df88a	0.046379603
86	0xbd3e69c1	-0.046487574
87	0xbdc8e53f	-0.0980935
88	0xbd2e4ef6	-0.04255577
89	0x3d1e8e0a	0.038709678
90	0xbd8c7438	-0.068581045
91	0x3d8a1fbb	0.06744333
92	0xbd6fcb62	-0.05854357
93	0x3d8a86e9	0.06764013
94	0xbd86b660	-0.06577754
95	0x3b6b4ec0	0.0035905093
96	0xbce806fc	-0.028323643
97	0x3dae2753	0.08503594
98	0x3d169976	0.036767446
99	0x3c88f770	0.01671955
100	0x3c9c20a0	0.019058526
101	0x3c9ad7c0	0.018901706
102	0xbca7b520	-0.02047211
103	0x3d473752	0.048636742
104	0xbcd5c994	-0.026097097
105	0x3d57dbb6	0.052699767
106	0x3d121856	0.03566774
107	0x3d298736	0.041388713
108	0xbdbbf9aa	-0.09178479
109	0x3db1929b	0.08670541
110	0xbb55f7a0	-0.0032648817
111	0x3d2c0602	0.041997917
112	0x3dba9cd7	0.09111946
113	0xbd0739f0	-0.033014238
114	0xbd33473a	-0.0437691
115	0x3da22fcf	0.07919275
116	0x3d0a3682	0.03374339
117	0x3d156a2e	0.036478214
118	0xbd9c25e8	-0.076244175
119	0xbd8492d4	-0.06473318
120	0xbcbad634	-0.022807218
121	0xbda90d06	-0.08254437
122	0xbd90746a	-0.07053454
123	0x3ce56d44	0.028006203
124	0x3b9702c0	0.004608482
125	0xbd9b45db	-0.07581683
126	0x3dc9f443	0.09861042
127	0xbb1cbbe0	-0.0023915693
128	0x3d1e642e	0.038669758
129	0xbd2258d3	-0.03963549
130	0x3d2c54b6	0.042072974
131	0xbd96722c	-0.07345995
132	0xbd548b30	-0.051890552
133	0x3cd5cb14	0.026097812
134	0xbd94686a	-0.07246478
135	0x3ced433c	0.028962724
136	0x3ce2a25c	0.02766531
137	0xbd4dc2c9	-0.05023459
138	0x3d4e846e	0.050419264
139	0xbd08cf0e	-0.033400588
140	0x3c925f38	0.01786767
141	0xbca72ee8	-0.020408109
142	0xbdbfd906	-0.09367566
143	0xbda9a7ba	-0.082839444
144	0x3da8947b	0.082314454
145	0xbd8ca48a	-0.06867321
146	0x3cf538dc	0.02993434
147	0x3cfde9dc	0.030995302
148	0xbd13608a	-0.03598074
149	0xbd30f60b	-0.043203395
150	0x3d6dd6d6	0.05806621
151	0xbda3af70	-0.079924464
152	0x3d72926e	0.059221677
153	0xbd64dd92	-0.05587537
154	0x3dac7569	0.08420832
155	0xbdb8a550	-0.09015906
156	0x3d9463df	0.072456114
157	0x3d5ea9e2	0.05436123
158	0x3dc06501	0.09394265
159	0xbb9d4780	-0.004799783
160	0xbd7d5028	-0.06184402
161	0xbd51fc92	-0.05126626
162	0xbdb10c04	-0.0864487
163	0xbd174e4e	-0.03693991
164	0x3dcaaebd	0.0989661
165	0xbd0af4c6	-0.03392484
166	0x39011200	0.00012309104
167	0xbd1d6495	-0.038426
168	0x3dc3eb6d	0.09566388
169	0x3d964773	0.073378466
170	0xbd4d20d3	-0.05008013
171	0xbda983f6	-0.08277123
172	0xbd346c38	-0.044048518
173	0xbd808d38	-0.06276935
174	0x3db41fb1	0.08795107
175	0x3d7512a2	0.059832223
176	0x3b0ac000	0.002117157
177	0x3d508e1a	0.05091677
178	0x3d613a12	0.05498702
179	0xba95be80	-0.0011424571
180	0xbd9d04bd	-0.076669194
181	0xbd9ef081	-0.07760716
182	0x3dc51ebd	0.096250035
183	0x3d4c9bd2	0.04995329
184	0x3b6ae340	0.0035841018
185	0xbd9ded26	-0.07711248
186	0x3db4fb69	0.08837015
187	0xbdb6d826	-0.08927946
188	0x3da25bb7	0.079276495
189	0x3d5de32e	0.054171734
190	0xbd6ea2e2	-0.058260806
191	0xbd64ea56	-0.055887543
192	0xbdb52ecd	-0.08846817
193	0x3d9595c3	0.073039554
194	0x3d8e4661	0.069470175
195	0xbda4a0fa	-0.08038516
196	0x3d887d8d	0.06664572
197	0x3d4b7576	0.049672566
198	0xbd493507	-0.049122836
199	0x3c6ed028	0.0145759955
200	0xbd560b0d	-0.052256633
201	0x3cee097c	0.029057257
202	0x3d687796	0.05675467
203	0xbd85c200	-0.06531143
204	0xbdccf495	-0.10007588
205	0xbceef014	-0.029167213
206	0xbd299f29	-0.041411553
207	0xbd967ff4	-0.07348624
208	0xbce82808	-0.0283394
209	0x3bc8ccc0	0.0061279237
210	0x3a615280	0.00085953623
211	0xbc87ea90	-0.01659134
212	0xbd5b3811	-0.053520266
213	0xbbf7db60	-0.0075639933
214	0xbdb3b9ab	-0.08775648
215	0x3db0d1e3	0.08633783
216	0x3d0d7c66	0.034542464
217	0xbdb3903d	-0.08767746
218	0x3da2f3db	0.07956668
219	0x3d4fba3e	0.050714724
220	0xbd9a8332	-0.07544555
221	0x3d8c88e1	0.06862045
222	0xbda6ec7c	-0.081505746
223	0xbd4188c2	-0.047249563
224	0x3b2e2440	0.00265719
225	0x3c9e5b08	0.019330516
226	0xbd21766e	-0.039419584
227	0x3c9cc6cc	0.019137762
228	0x3d9422bb	0.07233187
229	0x3d4f3e66	0.050596617
230	0x3da760f5	0.0817279
231	0x3dbe06f7	0.09278672
232	0xbc02f640	-0.007993281
233	0xbd85a0a6	-0.06524782
234	0x3c6af668	0.014340974
235	0xbc085a10	-0.008322254
236	0x3da1f695	0.0790836
237	0x3cc5bacc	0.024136923
238	0x3a526380	0.0008025691
239	0x3d2600be	0.04052805
240	0xbdb5b184	-0.08871749
241	0x3d80c997	0.0628845
242	0xbdb93c8e	-0.09044753
243	0x3ad67200	0.0016360879
244	0xbdbdad02	-0.09261514
245	0x3dc3d6c3	0.09562447
246	0x3cefa9b4	0.029255725
247	0x3cb87768	0.022517875
248	0xbc174390	-0.009232417
249	0xbcd0de6c	-0.025496684
250	0xbcdad20c	-0.026711486
251	0x3ca982f8	0.020692334
252	0xbd7e46b1	-0.062079135
253	0x3d7a59e6	0.06112089
254	0xbd829b25	-0.06377248
255	0x3d3737ae	0.044730835

lstm.bias_ih_l1 f4 [396]
0	0x3dafeac6	0.08589701
1	0x3e4386ea	0.19094434
2	0x3e21d0a3	0.15802245
3	0x3dbce093	0.09222522
4	0x3e06d343	0.13166527
5	0x3db1a289	0.08673579
6	0x3e6713d8	0.22566164
7	0x3dcd6165	0.10028342
8	0x3e58c6bb	0.2116956
9	0x3e67b89b	0.22629015
10	0x3dfe5da1	0.12420202
11	0x3e8b8a08	0.27253747
12	0x3e86a481	0.26297382
13	0x3e87d6db	0.2653111
14	0x3e386742	0.1800814
15	0x3e7422f7	0.23841463
16	0x3d8dde8d	0.06927214
17	0x3e7ddb2b	0.24790637
18	0x3e3516fa	0.17684546
19	0x3e188f91	0.14898516
20	0x3db9f01b	0.090789996
21	0x3ddfb40b	0.10923012
22	0x3e5c3f1f	0.21508454
23	0x3e69a3ec	0.22816437
24	0x3e46e2b1	0.19422413
25	0x3e3b8bf1	0.18315102
26	0x3e1d72dd	0.15375848
27	0x3dc1992a	0.09453042
28	0x3e2b6cbc	0.16740698
29	0x3e4d0ff2	0.20025614
30	0x3e8542e2	0.2602759
31	0x3e868fd8	0.2628162
32	0x3e5e51a8	0.21710837
33	0x3d8bcf56	0.068266556
34	0x3e56e713	0.20986585
35	0x3e285196	0.16437373
36	0x3dc42901	0.095781334
37	0x3ddaca07	0.10683065
38	0x3e7a90c9	0.24469294
39	0x3dba9c6f	0.091118686
40	0x3e7ce370	0.24696136
41	0x3d94ea22	0.0727122
42	0x3e585c84	0.21129042
43	0x3e2d59b6	0.16928753
44	0x3e7852e5	0.24250372
45	0x3e16df68	0.1473366
46	0x3e24f746	0.16109952
47	0x3e482f95	0.19549401
48	0x3e2921f3	0.16516857
49	0x3dc89d44	0.09795621
50	0x3e0c311a	0.13690606
51	0x3e40211f	0.18762635
52	0x3df65b6f	0.12029158
53	0x3df71594	0.120646626
54	0x3e5b62d1	0.21424414
55	0x3dba872b	0.091078125
56	0x3e5285bc	0.20558828
57	0x3e49b698	0.1969856
58	0x3e96cddd	0.29453936
59	0x3e500858	0.20315683
60	0x3e6a6e84	0.22893721
61	0x3e1d4fc2	0.15362456
62	0x3e61ec6a	0.22062841
63	0x3e57f3a1	0.21089031
64	0x3e70b9de	0.23508403
65	0x3e30b4e1	0.172565
66	0x3e5e09b6	0.21683392
67	0x3da39f95	0.07989422
68	0x3e2e05e8	0.1699444
69	0x3e8dd9fb	0.27705368
70	0x3e30ab98	0.17252958
71	0x3e25c67e	0.16189
72	0x3e5c72b7	0.21528135
73	0x3dc0944c	0.094032854
74	0x3df58afb	0.11989399
75	0x3e73a91b	0.23794977
76	0x3e827ae3	0.2548438
77	0xbdb207c4	-0.086928874
78	0x3df6b3a6	0.12045984
79	0x3e382934	0.17984468
80	0x3e4c4bf4	0.19950849
81	0x3e8c298b	0.27375445
82	0x3dbba8e4	0.09163073
83	0x3e413218	0.18866765
84	0x3dd76340	0.10516977
85	0x3e34c31c	0.17652553
86	0x3e29e77a	0.16592208
87	0x3e1ec797	0.15505825
88	0x3e0bd960	0.1365714
89	0x3e6375bb	0.2221288
90	0x3e4a4adc	0.19755119
91	0x3e645fe5	0.22302206
92	0x3e06144e	0.13093683
93	0x3da5d318	0.080969036
94	0x3e1567d2	0.14590386
95	0x3e632442	0.221818
96	0x3e6fb7c1	0.2340994
97	0x3e435906	0.19076928
98	0x3e38a699	0.18032302
99	0x3c7e1c98	0.015509747
100	0x3dc36ced	0.0954226
101	0x3d6a4882	0.057198055
102	0x3dba0181	0.09082318
103	0x3c639df8	0.013892643
104	0x3da8ddc3	0.08245423
105	0xbd9c5c56	-0.07634799
106	0x3d966547	0.07343536
107	0x3d5bfbd2	0.05370695
108	0xbc6f10d0	-0.014591411
109	0xbd5fbce7	-0.05462351
110	0x3d7943f2	0.060855813
111	0x3db17d41	0.086664684
112	0x3d953285	0.072850265
113	0x3d702ab2	0.058634467
114	0x3d4611a6	0.048356675
115	0xbd5c841b	-0.053836923
116	0x3dafeda1	0.08590246
117	0x3d2bd8a2	0.041954644
118	0x3d05fc1e	0.03271114
119	0x3db2b139	0.08725209
120	0xbdb2fdd1	-0.08739818
121	0x3c5aca28	0.013353862
122	0xbd42073b	-0.047370177
123	0x3dc704af	0.0971769
124	0x3d942ab1	0.07234705
125	0x3d2731ba	0.040818907
126	0x3d432076	0.04763838
127	0xbd4a0c5f	-0.049328204
128	0x3cca17d4	0.024669565
129	0xbda88453	-0.08228364
130	0xbb95a870	-0.0045671985
131	0x3d9f5d21	0.07781435
132	0xbcbf84e8	-0.023378804
133	0xbd082b68	-0.03324452
134	0x3d6ae44e	0.057346635
135	0xbd21df57	-0.039519634
136	0xbbf756e0	-0.007548198
137	0xbdaf9c28	-0.08574706
138	0x3d477dce	0.04870396
139	0xbdad4c6a	-0.084618405
140	0x3d4951b2	0.049150176
141	0x3d61cef6	0.055129014
142	0x3cc4f234	0.024041273
143	0xbbc13ec0	-0.005897373
144	0xbb31f520	-0.0027154163
145	0x3ce11abc	0.027478568
146	0xbc41fd38	-0.011840157
147	0xbdc0ee99	-0.09420509
148	0xbdc2f06b	-0.09518512
149	0xbd0ad7e0	-0.03389728
150	0x3d2a89ca	0.041635312
151	0x3cea7bdc	0.028623514
152	0xbdc035fe	-0.09385298
153	0xbd7fc81c	-0.0624467
154	0x3d737f96	0.059447847
155	0xbd9b83aa	-0.07593472
156	0x3c9e92d4	0.019357122
157	0xbd33535a	-0.043780662
158	0x3c49aa48	0.012308665
159	0x3d3ac1ee	0.045595102
160	0xbd005c64	-0.03133811
161	0xbdc91e08	-0.09820181
162	0x3c8ed774	0.01743672
163	0x3d9c778b	0.076399885
164	0x3d0ac37e	0.033877842
165	0x3dcbbcb1	0.099480994
166	0x3d354aae	0.044260673
167	0x3d10284e	0.035194688
168	0xbbdd8ed0	-0.0067614093
169	0x3da40cff	0.08010291
170	0xbdcab0e7	-0.09897023
171	0xbd978978	-0.07399267
172	0x3dc00e2f	0.09377705
173	0xbdc034d4	-0.09385076
174	0x3db8755b	0.09006759
175	0x3d8ba3a1	0.06818319
176	0xbb2b5480	-0.0026142895
177	0xbd378cf9	-0.044812176
178	0x3d671666	0.056417845
179	0x3db4df55	0.0883166
180	0xbd3ceeaa	-0.046126045
181	0x3da6f70d	0.0815259
182	0x3d65ac66	0.056072615
183	0xbcaf2094	-0.02137784
184	0xbd8da0aa	-0.0691541
185	0xbdc2577e	-0.09489344
186	0xbdbc5eb0	-0.09197748
187	0xbd2034fe	-0.039113037
188	0x3d676402	0.05649186
189	0xbc4ea718	-0.01261308
190	0x3dbf2295	0.09332768
191	0x3cffb984	0.03121639
192	0x3ce3448c	0.027742647
193	0xbcb700c8	-0.02233924
194	0xbcb82358	-0.02247779
195	0x3d81116b	0.0630215
196	0x3ca87854	0.02056519
197	0xbd873188	-0.06601244
198	0xbdb745b8	-0.08948845
199	0xbe85a121	-0.26099494
200	0x3e2698cb	0.16269223
201	0xbe780798	-0.24221647
202	0x3e5c8224	0.2153402
203	0xbe5d9d87	-0.21642123
204	0xbe316750	-0.17324567
205	0xbe21925b	-0.15778486
206	0x3dca82d3	0.09888234
207	0x3da48988	0.080340445
208	0xbdf85384	-0.12125304
209	0x3e773dfd	0.2414474
210	0x3e8381bb	0.25684914
211	0xbe825269	-0.254535
212	0xbe7a4be4	-0.24443012
213	0x3e410701	0.18850328
214	0x3d8a823c	0.067631215
215	0xbe45e3f6	-0.19325241
216	0x3e770aef	0.24125265
217	0x3e37f7b1	0.1796558
218	0x3e040309	0.12891783
219	0x3e6f50db	0.23370688
220	0x3e750be4	0.23930317
221	0x3e583b36	0.21116337
222	0xbe541907	-0.20712672
223	0xbdde8c42	-0.10866596
224	0xbe83a544	-0.25712025
225	0x3e52faaf	0.2060344
226	0xbe4a7be1	-0.19773819
227	0xbe73091d	-0.23733945
228	0x3e29bf9d	0.16577001
229	0xbe838498	-0.25687099
230	0x3e69364e	0.22774622
231	0x3e81b7a5	0.25335422
232	0xbe15f9e0	-0.14646101
233	0x3e544e9d	0.20733114
234	0xbe4f7a69	-0.2026154
235	0xbe80cd8e	-0.25156826
236	0x3e5f5489	0.21809591
237	0xbde5d1b4	-0.11221638
238	0xbe126b28	-0.1429869
239	0x3e54a8d8	0.20767534
240	0x3e38a662	0.1803222
241	0xbe428f3c	-0.18999952
242	0x3e842610	0.2581029
243	0xbe83e4c0	-0.2576046
244	0xbe6e8f38	-0.23296821
245	0xbe3518ce	-0.17685243
246	0xbe40c4e2	-0.18825105
247	0x3df1a931	0.11799849
248	0xbe7fd3d7	-0.24983154
249	0xbe075a01	-0.13217928
250	0x3e40f669	0.18843998
251	0xbdc33261	-0.095310934
252	0x3def985f	0.11698984
253	0x3e047698	0.12935865
254	0x3e6ffb3b	0.2343568
255	0x3e84ee9a	0.2596329
