save/model_20240611_155724.pth (torch, 62844 bytes, 9 tensors)

lstm.weight_ih_l0 f4 [128, 15]
00000000: a03f 0dbf 1e9b cabd 115d 5cbe b2b2 503e
00000010: cd90 a63e e758 e63e c4ac 3a3e 87f4 ce3c
00000020: 4b69 97be 5c4f eb3d 6ec0 a23e 9140 943e
00000030: a119 df3d eb08 413e f8db 243f c28b 1b3f
00000040: 9bde 4cbf dd8f b83e 665c 0e3f f113 29be
00000050: 2e14 7cbd b27f 2a3e 5a97 883e 82cf 0ebf
00000060: ac5d 7dbd f810 bebe 6ee9 bf3d b5a7 f9be
00000070: 1f8e 843e 0e14 38be 1097 33be 88d1 6b3e
00000080: f359 a8bd 00d6 293f 61b8 fcbe 9fcc 853e
00000090: 03c1 c93c 3f2d 81be e433 3e3e f82e 8b3e
000000a0: 4d65 03bf 5b48 613e f331 563d c921 853f
000000b0: e51f 493e 141e 74bf 688a 49bf 60e1 f43e
000000c0: 7f87 b83d 7d48 18bf b45c f03d b3ec d5be
000000d0: 8134 ddbd 715d b3be 6de1 fc3d f674 4e3d
000000e0: 7e1d 76bf 6f74 9f3f d10c 4d3e 4cb1 fa3e
000000f0: eeaf c03e 4e1d 2bbd 1b94 a43d 391e 503b
00000100: 521b b43b ad4a f6bb 7647 2d3e e2f4 8f3e
00000110: 3a6a 34bf 2a6a 97be 70bc 1e3f 48e9 763d
00000120: 311d c4bd d4f4 a33d 03be ae3e 4a89 503f
00000130: 5cd7 373e 6e00 83be 39c5 413f ec5d 3b3f
00000140: 3a8c 933f d221 3b3f c103 043e a8e0 67bf
00000150: bffe 5ebe 950f 85bf edd1 023f fa69 5cbe
00000160: 2889 543f d804 133f a923 c03e 81e5 283f
00000170: 8619 f8be 8c14 7f3f b6fa bd3e 7701 523e
00000180: 4699 253f bc90 ab3f 62c2 83bf 21e1 9cbf
00000190: 8df2 353e 294f 173e ca45 093f 50f0 0f3f
000001a0: 4d33 3abe 2463 6a3f 8fce 0cbe 9ccd 55bd
000001b0: f710 1a3f 9bce 6b3e 906e 4b3f a6ef 153f
000001c0: a373 94bf c56d 06be 4bf0 c2be 756d 36bf
000001d0: f43d 1d3e 586f adbe 0edb c03f 94d9 8ebe
000001e0: f4a2 3a3e 4fa5 11bf 4471 a43e 0e02 123e
000001f0: bd28 febe f97f a23e 821b 383f 1b15 98bd
00000200: 6eef 12bf ac34 e9be 48a6 10bd 3059 0c3f
00000210: bc8f d3bd ef0f 5b3f 17af b03f 0c9a 423e
00000220: abc7 a93e fa27 723f 525f 4c3e bee1 36bf
00000230: 35d2 ea3e 772a 543d 4068 1ebf efa8 5e3f
00000240: ed6c a83f c8a0 77bd 6962 a2bf 6506 11bf
00000250: c9e5 df3e 1e37 d13e 731f 9e3e 30dd 18bd
00000260: 87b7 843e f5a7 5abe bcff 083f 3e45 9b3e
00000270: 708b 3dbf a966 823e 3cc1 3f3f 06f7 99be
00000280: b0a6 14bf 7189 eb3e ec78 a3bf 0d29 dabe
00000290: e725 9e3e 57d1 843e 051c 223f c7e3 5bbe
000002a0: b692 12be 6324 5e3d 7b1b b6bc 2cf2 5cbe
000002b0: 0ef4 a83f a51e 2cbe f947 0dbf 6752 8ebd
000002c0: 66fb ee3e b364 98be bada 1c3f 2602 00bf
000002d0: cf32 3fbb ca12 53be 88da a83d beaf 8a3f
000002e0: a134 e03e 3e59 133f 45f0 af3e 7ae1 33bd
000002f0: d33d 44bf b5b1 9c3c 3606 2abf 8082 0f3f
00000300: 5d64 9b3d 2aba 683f 3aed 2cbe 5aae 4d3f
00000310: 09f2 9abe b402 163e 8488 403f 5607 1d3e
00000320: 7871 843e 0106 403f f73e f6be 1c56 45bf
00000330: 0e97 78be ef9b 2abf 7e1c b7bd 13dd b6be
00000340: 01bd bf3f 7980 323f ed48 023f 609f ccbe
00000350: 9a34 ac3e dd9f 563f f333 d1be 5c28 ca3d
00000360: d790 573e 83b0 d1be e555 e2bc 6fab b8be
00000370: b92b 4dbf ad80 083f 4821 6ebe 39c1 1d3f
00000380: 26f7 ab3d 2824 98be c5f5 003f d95a 3dbf
00000390: bb68 353d e4a9 bf3d d382 10be 7db5 9cbd
000003a0: f8e7 3f3f 9df0 66be e4d4 3fbf f737 333f
000003b0: 5b65 ea3e 3d6f db3e 9a77 37bf bedd e63e
000003c0: db2d d33e f2f0 33bf 8432 8abf 9837 113f
000003d0: 41cf 6dbf ee9b db3e 7ee8 d6be 6ef4 463f
000003e0: 3c97 6ebf dfa7 88bd 71c6 823e 9b21 073f
000003f0: c73f c4bd 998b 72bd 0513 2a3e e9e4 11bc
-0.5517521 -0.098928675 -0.21519877 0.20380667 0.3253235 0.44989702 0.18229967 0.025263084
-0.2957252 0.11489746 0.31787437 0.2895551 0.1089356 0.18851058 0.64398146 0.6076013
-0.8002717 0.3604726 0.5560974 -0.16511513 -0.061542682 0.16650274 0.26677972 -0.5578538
-0.06185691 -0.3712232 0.09370695 -0.48760763 0.2588968 -0.179764 -0.17538095 0.23029149
-0.082202815 0.66342163 -0.4935942 0.26132676 0.024628168 -0.25229833 0.18574482 0.27184272
-0.5132645 0.22000258 0.05229373 1.0400935 0.19641073 -0.95358396 -0.78726816 0.47828197
0.09010219 -0.5948561 0.11736432 -0.4178215 -0.1080103 -0.35032228 0.12347684 0.05040451
-0.9613875 1.2457408 0.2002442 0.48963392 0.37634224 -0.041775994 0.080360614 0.0031756295
0.005496421 -0.0075162263 0.16921791 0.28116518 -0.7047459 -0.29573184 0.6200628 0.060281068
-0.0957588 0.08005682 0.34129342 0.81459486 0.17953247 -0.25586265 0.7569156 0.7319019
1.1527169 0.7309848 0.12892057 -0.90577173 -0.21776865 -1.039538 0.5110157 -0.21524802
0.83021784 0.57429266 0.37527207 0.65975195 -0.48456973 0.9964073 0.3710534 0.20508371
0.64687 1.3403544 -1.0293696 -1.2256204 0.17768307 0.14776291 0.53622115 0.5622606
-0.18183632 0.91557527 -0.13750671 -0.052198038 0.60182136 0.23028032 0.7946558 0.585688
-1.159779 -0.13127811 -0.38073954 -0.7126077 0.15355664 -0.3387401 1.506685 -0.27900374
0.18226224 -0.56892866 0.32117665 0.14258596 -0.49640456 0.3173826 0.71916974 -0.074259005
-0.5739659 -0.45547998 -0.03531483 0.5482359 -0.103301495 0.8557119 1.3803433 0.19004077
0.33160147 0.9459225 0.19958237 -0.71438205 0.458635 0.05179831 -0.6187782 0.8697652
1.3158242 -0.060456067 -1.2686282 -0.5665038 0.4373 0.40862364 0.3088337 -0.037320316
0.2592127 -0.21353133 0.5351522 0.30326265 -0.7404089 0.25468948 0.7490423 -0.30071276
-0.58066845 0.46003297 -1.2771277 -0.42609444 0.30888292 0.25940964 0.63324004 -0.21473609
-0.14313778 0.05423392 -0.0222299 -0.21576756 1.319948 -0.16808565 -0.55187947 -0.06949311
0.46676177 -0.29764327 0.6127125 -0.5000328 -0.0029174571 -0.20612636 0.082448065 1.0834882
0.43790153 0.5755805 0.34363 -0.043916203 -0.76656836 0.019127706 -0.6641573 0.560585
0.07587502 0.90909064 -0.1688737 0.80344164 -0.30262783 0.14649469 0.75208306 0.1533483
0.2586782 0.7500916 -0.48094913 -0.7708452 -0.24276373 -0.66644186 -0.08940981 -0.3571554
1.4979554 0.69727284 0.50892526 -0.39965343 0.33633882 0.8383768 -0.40859947 0.09870979
0.21051346 -0.4095498 -0.027628848 -0.36068293 -0.8014484 0.53321344 -0.23254883 0.6162296
0.08396749 -0.29715085 0.50375015 -0.7396675 0.044289332 0.09358576 -0.14112405 -0.07651804
0.7496333 -0.22552724 -0.7493422 0.7000727 0.45780453 0.42858306 -0.7166687 0.4509105
0.41245922 -0.7028953 -1.0796666 0.56725454 -0.9289437 0.42892402 -0.41974252 0.7771672
-0.93199515 -0.06672644 0.25542024 0.5278565 -0.09582477 -0.059215162 0.16608818 -0.008904674

lstm.weight_hh_l0 f4 [128, 32]
00000000: 2b77 213e b413 093d 9479 d9bd fad0 963d
00000010: 2b76 b6bd ce45 a43d 0002 2dbc ac9a 603d
00000020: 93cd b8bd 664a 94bd 82f6 c7bd 41dd 27be
00000030: 0e87 e93d 9f9f edbd a8e0 4c3d 4594 d3bd
00000040: 563d d23d b3df 083e 5b35 303e a7ae 32be
00000050: a30a 213e fc9d 2fbd 00ff 13ba 0761 0a3e
00000060: a042 b53b b913 0c3e 236c 1b3e 601b ff3b
00000070: 17b6 1c3e 70bc 66bc d8cc d03c aa15 973d
00000080: 80a1 caba 404d 17bb 2270 28be 3118 a5bd
00000090: fd6d 0abe 082d 74bd 6ec7 dd3d f29a 23be
000000a0: 1852 87bc 78e9 b7bc c3d6 063e ba87 f5bd
000000b0: f048 7fbc 628f 31be 60f8 e9bc a412 a4bd
000000c0: 9a84 eabd 2945 313e d366 fbbd 0c0d 413d
000000d0: a259 11be c0e2 e53b a4b4 1b3d 5863 ad3c
000000e0: c2d0 e0bd a760 8dbd 09c2 bbbd 5861 0fbe
000000f0: 6837 e6bc 5e74 ce3d f02c aa3c de9c 70bd
00000100: d1fc 1f3e 0583 e8bd e08b a3bc 70d6 45bd
00000110: 90a4 063d 08c0 2abd 9e84 c93d 2960 023e
00000120: 7b2b 9fbd c82b a5bd 9a2c e43d f2be a43d
00000130: c354 273e 89cb dfbd 82c5 b73d a111 f5bd
00000140: bbe7 123e 3013 093d 4466 0abe 4824 d73c
00000150: bc4a a4bd b1e3 0c3e 68f1 4e3d dbfa 85bd
00000160: e071 c2bc 86a2 a73d 87d9 febd 2ab7 853d
00000170: c867 573d 7ce0 633d 3e0d ee3d ba72 d13d
00000180: 7c73 07bd 5ba7 9fbd 0000 413d 7cb1 883d
00000190: 78d2 15bd e81b 2abe f7fa 0b3e 71fa dcbd
000001a0: 8fe3 123e c801 443d 4ef1 78bd fc99 6e3d
000001b0: c0d3 be3c 3b07 193e b48c 5dbd 8e8d e1bd
000001c0: fa5f 8d3d 73c9 133e 98fb 92bd 184e b0bc
000001d0: 1ebf d9bd 6750 25be 980d 983c 821b f7bd
000001e0: be3c eebd 8687 fd3d c8c8 bb3c 08e5 a7bd
000001f0: f083 d03c 90fd ebbc 08f8 b5bc 6441 0fbd
00000200: 982e 0ebd 0e07 db3d 7f4c 01be 863c b5bd
00000210: 78e5 823d 34b4 0fbe 11cb 0abe 76f6 f43d
00000220: 306d f53c c1af 23be e821 0dbd b6f0 e83d
00000230: 4e0a a53d 5a28 e53d 41fa e9bd dde2 31be
00000240: 8009 523b acd3 23bd 5f5c 9bbd 8b2b cabd
00000250: 3861 323d 59f6 08be 806a 70bb 71fb 023e
00000260: 387f b93c 6c84 03bd 60b7 9cbc 3446 bbbd
00000270: 10aa f2bc 3441 26bd 5c14 0abe ed5d a8bd
00000280: 009e dcbc b8e3 adbd eb7d abbd b099 103c
00000290: ea1a b13d e45d 0ebe cb1f 163e 7130 2ebe
000002a0: 661f f0bd 0028 4f39 5edb 16be bad6 9b3d
000002b0: 4014 283b 00b8 0e39 e1e7 2e3e 141d 07be
000002c0: cc4e 1cbe ab37 11be e65f f33d 9639 bd3d
000002d0: 71f3 043e 7da5 e7bd a3f9 023e 28b1 8f3d
000002e0: f3eb 24be 5914 a9bd d2ca 9dbd c7df 1d3e
000002f0: fae2 c63d 6f7c 163e 9843 b3bd 082f 1e3d
00000300: 703b 633c 5861 f13c 901a 433c 3289 81bd
00000310: 8fe9 103e 207a d23c 9e47 9d3d cca4 d3bd
00000320: e0a2 d03c b8c9 13be 9266 973d 3bc9 333e
00000330: 389f 753d b014 31bc 9896 4ebd d7c2 333e
00000340: 58e6 53bd 100c cfbc da91 c23d 8da3 26be
00000350: 16b9 a93d 3ab2 9e3d 82bc 75bd 0118 2b3e
00000360: 4611 a03d 781d 873c 84c4 2b3d 2282 be3d
00000370: 13e3 a5bd 8d8c 93bd 8095 11be 6e85 da3d
00000380: c00a a1bc 469a d2bd 39d1 19be bd43 1fbe
00000390: f559 cabd 72ea cc3d 200f 66bc 9ad6 6cbd
000003a0: d795 0f3e b41a 583d 9013 30bd a9b9 023e
000003b0: 37c9 23be 2c31 27be 00a5 e83b 18e9 ea3c
000003c0: 8fca 183e 1ab9 e0bd ceb1 8f3d 08e5 18bd
000003d0: 7688 823d e0af 483d 78b6 0ebe a0a5 743c
000003e0: bcdc 0d3d 2788 2f3e 7a25 d43d 1e46 aabd
000003f0: 1a15 a2bd 092a fbbd 7790 c3bd f2f1 f43d
0.15768115 0.033466056 -0.10618892 0.07364078 -0.089092575 0.08021127 -0.010559559 0.054835007
-0.09023585 -0.07240753 -0.097638145 -0.16392995 0.11402713 -0.11602711 0.050018936 -0.103310145
0.10265605 0.13366584 0.17207853 -0.17449437 0.15726714 -0.042875275 -0.0005645603 0.13513575
0.005531624 0.13679399 0.1517797 0.007785246 0.15303837 -0.014083013 0.025488302 0.07377179
-0.0015459508 -0.0023086816 -0.16449025 -0.08061255 -0.1351852 -0.059613258 0.10829054 -0.15977076
-0.016518638 -0.022450194 0.13167863 -0.119887784 -0.0155813545 -0.17339852 -0.028560817 -0.08011368
-0.11451073 0.17311539 -0.122754715 0.047131583 -0.14194348 0.007015556 0.03801407 0.021165535
-0.109773174 -0.069032006 -0.09167869 -0.14001977 -0.028102592 0.10080789 0.020773381 -0.05874335
0.15623786 -0.11353115 -0.019964159 -0.048300207 0.032871783 -0.04168704 0.09839748 0.12731995
-0.07771965 -0.08064991 0.111413196 0.080442324 0.16340928 -0.10927493 0.089732185 -0.11966253
0.1434621 0.033465564 -0.13515574 0.026262417 -0.08022067 0.13758732 0.05052319 -0.065419875
-0.02373594 0.08185296 -0.12443834 0.065290764 0.052589208 0.055634007 0.116236195 0.102269605
-0.03306912 -0.077955924 0.04711914 0.066744775 -0.03657767 -0.16612208 0.13669954 -0.107899554
0.14344619 0.04785326 -0.060777 0.05825232 0.02329433 0.14944164 -0.054089263 -0.110133275
0.06903072 0.14432316 -0.07176894 -0.021521613 -0.10632156 -0.16143952 0.01856117 -0.120657936
-0.116326794 0.12379365 0.022922888 -0.08197981 0.025453538 -0.028807431 -0.022212997 -0.03497447
-0.034712404 0.10694705 -0.12626837 -0.088494346 0.06391424 -0.14033586 -0.13554026 0.11961071
0.029959291 -0.15985014 -0.034456164 0.11374037 0.08058606 0.11189337 -0.11424685 -0.17371698
0.003204912 -0.039996788 -0.07585978 -0.098715864 0.043549746 -0.13375224 -0.0036684573 0.1279123
0.02264367 -0.03210871 -0.019130409 -0.091442496 -0.029622108 -0.040589526 -0.13484329 -0.0822104
-0.026930809 -0.084906995 -0.08373626 0.008825704 0.086477116 -0.13903004 0.14660566 -0.17010666
-0.11724739 0.0001975596 -0.1473212 0.07609315 0.0025646836 0.0001361072 0.17080642 -0.13194686
-0.15264434 -0.14181392 0.118835256 0.09239499 0.1298349 -0.11310861 0.12790541 0.07016212
-0.16105632 -0.08255834 -0.077047005 0.15417396 0.09711261 0.14695905 -0.08753127 0.03861907
0.0138691515 0.029465362 0.011908188 -0.06324996 0.14151596 0.025693 0.076796755 -0.10334167
0.02546829 -0.14432418 0.073926106 0.17557232 0.059966296 -0.010808155 -0.050436586 0.17554794
-0.051733345 -0.025274307 0.09500475 -0.16273327 0.082872555 0.07748838 -0.05999423 0.16708376
0.07815795 0.016493544 0.04193546 0.093021646 -0.080999516 -0.07204542 -0.14217186 0.10669981
-0.019658446 -0.102833316 -0.15021218 -0.15553184 -0.09880439 0.100056544 -0.014041692 -0.057821847
0.14022003 0.05275984 -0.042987406 0.12766136 -0.15994726 -0.16327351 0.0070997477 0.0286756
0.1492102 -0.10972805 0.070163354 -0.037327796 0.06373684 0.048995852 -0.13936794 0.014932066
0.034634337 0.17141782 0.103587106 -0.08314155 -0.07914181 -0.12263877 -0.09549039 0.1196021

lstm.bias_ih_l0 f4 [128]
00000000: 950e 96bf f348 68bf 4e0a 79bf e618 8d3f
00000010: 22d0 6cbf bc87 9bbf d400 5cbd 3ada 4bbf
00000020: 7226 94bf a13b ab3f ea7e 24bf dfed dcbe
00000030: f913 b9bf 5a3a 95bf 16d9 66bf 8876 7dbf
00000040: cbe8 4abe b91a 54bc c32a 5e3f 46b3 ce3c
00000050: 51a6 2dbf 6e12 693f 8b7a 863e 5c2a a9bf
00000060: 3631 c4bf ac50 5e3e 5674 3abf 7785 5bbe
00000070: 0d54 1abf 612d 9abf 0c56 983f 1300 4ebf
00000080: fe11 833d d06a 003d 402f 6f3b b006 03be
00000090: ef66 073e cbde 0c3e d885 aa3c 7d0a c3bd
000000a0: 604e 70bd 6af7 9f3d cf7b 133e ac8d 25be
000000b0: d5f4 18be 068d f93d ef4c 333e 437c b1bd
000000c0: 90e5 6e3c d40c 20be 1add 983d 4593 253e
000000d0: 8ab8 b8bd 96ff 72bd 75a1 1bbe b0ca 813c
000000e0: 7474 e7bd f7fa babd 1aea dc3d 7aea 67bd
000000f0: d5e3 c6bd f3ad ddbd 40a5 483d 4ee7 d53d
00000100: 1cd4 f03e 5108 00be 6a54 233e 58a0 ba3f
00000110: 795c 63bd 38d2 48be f1f5 813f 7a25 913f
00000120: 45e1 26bf 70d3 a13f c5fb 143e 4883 25bf
00000130: 88f6 13bc 5a4e 023e a263 b33e 09b0 703e
00000140: b191 57bf db64 663e 6550 9cbf 8829 6bbf
00000150: 67b7 9e3d e3f9 813f 5514 823f b575 b63e
00000160: 6de1 083f e7cf 26bf 415e 823c 470f 29bf
00000170: 1181 453f f9e9 ad3c 9704 a2bf 0e61 13bf
00000180: 44c6 95bf 571e 8abf b605 74bf 5f93 a33f
00000190: 7cc9 88bf 9ff1 57bf e6f7 4cbe 136a f8be
000001a0: ec90 87bf f345 b83f 3d8b d0be f0f7 f6be
000001b0: d627 cdbf d2a5 99bf f217 45bf 42da 84bf
000001c0: 4215 c7be 8483 0d3e f23f 743f d8ef 493d
000001d0: eb0b 4cbf e665 783f 37cd be3e 1554 a8bf
000001e0: dabc 92bf 36af bb3e 54a7 98bf 760a 9f3d
000001f0: 05e5 10bf 0de0 63bf 5dd5 823f f158 6abf
-1.17232 -0.9073631 -0.9728135 1.1023223 -0.92505085 -1.2150798 -0.053711727 -0.7962986
-1.1574233 1.3377572 -0.64256155 -0.4315023 -1.445922 -1.1658432 -0.90174997 -0.9900899
-0.19815366 -0.012945824 0.86784 0.025231969 -0.67831904 0.91043746 0.26265368 -1.3216052
-1.5327518 0.21710461 -0.72833765 -0.21437632 -0.602845 -1.2045099 1.190126 -0.80468863
0.06399916 0.031351864 0.003649667 -0.1279552 0.1322286 0.13756864 0.020815775 -0.09523485
-0.058668494 0.07810862 0.14402698 -0.16167325 -0.14937146 0.12185101 0.17509817 -0.08666279
0.014581099 -0.15629894 0.07464047 0.1616946 -0.09019573 -0.059325777 -0.1519831 0.01584372
-0.113015085 -0.09129899 0.10786839 -0.0566201 -0.09711424 -0.10824194 0.04898572 0.104445085
0.47036827 -0.12503172 0.1595017 1.4580183 -0.05550811 -0.19611442 1.015318 1.1339562
-0.65187484 1.2642651 0.14549167 -0.64653444 -0.009030946 0.12725201 0.3503695 0.23504652
-0.8420668 0.22499411 -1.2212034 -0.91860247 0.07749825 1.0154384 1.0162455 0.35636678
0.5346897 -0.65160984 0.015914084 -0.66038936 0.77150065 0.02122973 -1.2657651 -0.5756997
-1.1701131 -1.0790509 -0.95321214 1.2779349 -1.0686488 -0.8435306 -0.20016441 -0.48518428
-1.0591102 1.4396347 -0.4073123 -0.48236036 -1.6027782 -1.2003729 -0.7698966 -1.0379107
-0.38883406 0.138197 0.9541007 0.049301 -0.79705685 0.97030485 0.37265942 -1.315066
-1.1463883 0.36657113 -1.1926064 0.07765667 -0.56599456 -0.8901375 1.0221363 -0.91541964

lstm.bias_hh_l0 f4 [128]
00000000: 4de0 a3bf e59f 36bf d416 88bf 7c4f a63f
00000010: 3c9d 8abf 1dd8 91bf 5944 ec3b 48b4 5cbf
00000020: 8e4e 8cbf ff62 943f 121c 07bf 2c2d 0abf
00000030: fc40 d1bf eeb5 9ebf abe1 16bf 4e27 7bbf
00000040: 2ec8 adbe 8ca0 073e f086 8d3f f5c9 7fbd
00000050: 5907 5abf d265 363f 7130 bc3e d181 b7bf
00000060: 6a68 c5bf 125f a73d ea67 2ebf 540c 89bc
00000070: 037f 0cbf 51d9 7abf 554b 8b3f 7fd1 6abf
00000080: 4055 4ebb a8ce 913c d7bb 013e 64d9 363d
00000090: f0cc 59bc c811 ef3c c078 32be c904 e9bd
000000a0: e076 993b 31cb 1abe 5146 2d3e 3264 1abe
000000b0: 90c1 6c3d e024 903d 6c90 353d 9019 eebc
000000c0: 0054 daba 70e2 79bc 3c14 31bd c7c8 88bd
000000d0: e5da b5bd 72c2 11be 2afe 983d 1802 873c
000000e0: 5279 a63d 043d 41bd d7eb 133e ffb9 183e
000000f0: 843d 27be 1ae8 00be e9cb 153e df22 033e
00000100: c8a3 053f feff fa3d 6e84 f6bd 8694 a13f
00000110: b6a6 2abe f146 c8be 974a 873f 2be3 6e3f
00000120: b600 b9be 743e aa3f cb4f 9ebd 916b 48bf
00000130: ac1a 38be fcba 843d b742 863e 6c22 d13e
00000140: a700 6dbf 6155 943e 215b 77bf 60ab 3abf
00000150: 9880 913e c95c 8c3f 31f6 5b3f 0c85 143f
00000160: 3630 df3e 7284 53bf 9bfb 613e 3b41 03bf
00000170: bfc5 1c3f 240a 8ebe ddb7 b0bf a9d1 e4be
00000180: 9505 8fbf 5f2d 87bf 925c 92bf aad5 a33f
00000190: a8da 74bf d6a6 55bf 8a4f 24be 8dba ebbe
000001a0: 95db 7abf dc83 ae3f 3477 7abe 0469 53be
000001b0: b404 c2bf ec09 93bf 7203 21bf aa81 91bf
000001c0: 0a7e a4be 7b6d ed3d adb6 8b3f 3e3d 3fbd
000001d0: 45a5 4fbf e450 593f 51c1 4d3e 6d4a c5bf
000001e0: 2279 b0bf 79c2 073f 0693 8abf f9d0 5bbe
000001f0: 1450 0bbf 64db 98bf e96d 913f 8cc2 73bf
-1.2802826 -0.7133773 -1.0631967 1.2993007 -1.0829234 -1.1394078 0.007210296 -0.8621259
-1.0961473 1.1592711 -0.52777207 -0.53975177 -1.6347957 -1.239927 -0.5893809 -0.9810685
-0.33941787 0.13244838 1.1056805 -0.06244846 -0.8516746 0.71249115 0.36755708 -1.4336492
-1.542249 0.0817243 -0.6812731 -0.016729511 -0.54881305 -0.9798785 1.0882365 -0.91725916
-0.0031483918 0.017798737 0.12669311 0.044640914 -0.01329349 0.029183283 -0.17428875 -0.11377866
0.0046833605 -0.15116574 0.16921355 -0.15077284 0.057801783 0.07038283 0.044327185 -0.029064924
-0.0016657114 -0.015251741 -0.043232188 -0.0667892 -0.088796414 -0.14234331 0.07470353 0.01648049
0.08128609 -0.04717733 0.14445435 0.14914702 -0.1633206 -0.1258854 0.14628567 0.12806271
0.52203035 0.12255858 -0.12036978 1.2623451 -0.16665158 -0.39116624 1.0569638 0.9331538
-0.36133355 1.3300309 -0.07730063 -0.78289133 -0.17978925 0.06480977 0.26222774 0.40846574
-0.9257912 0.2897139 -0.96623427 -0.7291775 0.28418422 1.0965816 0.85922533 0.58015513
0.4359147 -0.8262397 0.22068636 -0.5127141 0.61239237 -0.27742112 -1.3806111 -0.44691208
-1.1173579 -1.0560721 -1.14345 1.279958 -0.9564614 -0.83457696 -0.16045967 -0.46040764
-0.97991306 1.363399 -0.24459535 -0.20645529 -1.5157685 -1.1487403 -0.6289588 -1.1367695
-0.3212741 0.11593147 1.0915123 -0.046689264 -0.81111556 0.84889054 0.20093276 -1.5413338
-1.3786967 0.53031117 -1.0826118 -0.21466435 -0.54419065 -1.1941953 1.1361667 -0.9521873

lstm.weight_ih_l1 f4 [128, 32]
00000000: 0940 0c3e 71c2 cbbe 2ff2 06be eedd 9dbf
00000010: 2293 143f 244d bf3e 3517 ebbe 4dbc 90bf
00000020: 409b 5e3e 17eb ccbf 6c80 403d 2c5d 563f
00000030: 7a91 c0be c4ee c33e 69e9 43bf c433 0c3d
00000040: 497b 313e bdf3 09bf c289 963f 1a33 2f3f
00000050: 0485 60bf 33c7 f4bf 5732 57bf e82c eabd
00000060: 6d49 e8bd 9c1a e63f 36d5 5f3d 8ed9 df3e
00000070: 488c 093f 1087 c2be 1518 c53f ea0a 613e
00000080: 8dea c0bd 74ed e0bd a768 31be fd29 a7bf
00000090: fe56 013e f4b6 b43e 1db3 d4be 0e90 61bf
000000a0: 0add 133f 902e acbf 4f68 be3b 31cf c73e
000000b0: 91a8 c8be 05e2 f63e 1b10 a5be 6386 603e
000000c0: bad1 f13e bd9f 3abf bf82 6f3f 0521 6a3f
000000d0: 5c14 4fbd 1442 a5bf c8ee 78bf a42a 2bbd
000000e0: 21ad 99be f66e a13f c251 be3d 588d 953e
000000f0: 420d d43e e7d3 d9be 8eb7 ab3f e3e4 d03e
00000100: 64aa 0e3e a4d7 273f f86a 1abe f4a0 0bc0
00000110: 1962 4cbe ccfc e23e bf6b aabf 552d 72bf
00000120: 149c 3a3f b415 08c0 16cd 6a3c 8dfe 883f
00000130: 4565 6dbf 24d2 e63e 5a4f 0cbe 29a2 cdbe
00000140: 14aa 043f 3606 37bf e847 c13f 9808 a23f
00000150: 0b07 073e 1267 89bf 60f2 89bf 92bf 64be
00000160: b2f5 a43e 4dc0 7c3f ebde e7be 4495 23be
00000170: 8134 febd 7450 d3bd fef8 dc3f c01a bf3e
00000180: 7fa1 fb3e c6c5 15bf abbe 0bbe 302a 96bf
00000190: 610d 183f b0bf 553e d5ba 2bbf 384e cabf
000001a0: bbd3 1cbe 9d2c 94bf c13c 783e ccc6 643f
000001b0: 166e 33bf ce34 143f 69fc 9abf 511f 29be
000001c0: 1785 603e 3842 81bf 40ee a93f 3870 163f
000001d0: f22b 59bf 9197 01c0 99d6 3fbf c24b e2bd
000001e0: ae7b 15bf 4497 ca3f e5b2 f33e 5137 b43e
000001f0: 7af8 273f ba24 c6be 45ca d83f f0fa dd3d
00000200: d9e9 16be 514b 79be db69 97ba 24b4 9dbf
00000210: 5994 78be 1483 71be d99c fdbe e0e4 d1be
00000220: e540 9c3e 212d a6bf b3a2 d63c 0130 023f
00000230: 03a5 c03e 8c3e 543d b730 5d3c 3898 d13e
00000240: 4198 b13d 4dae 7abf 41ed 853f f3e8 c03e
00000250: 59d5 1ebf ead6 42bf 811d 1ebf 5fa9 14bf
00000260: 84c9 3d3d 5f3b 803f 2aa5 c5be 479b da3e
00000270: 76a0 f0bd 5a7f 4f3e 1697 b23f c518 203f
00000280: f0f3 8e3e 5169 a1bd 014c e0be 6448 d9bf
00000290: bd10 993e 4497 4a3e 56ef 38be 5901 3dbf
000002a0: 0115 323f 01aa e5bf 2f3d d43d b221 df3d
000002b0: 556f a3be 7e61 083f ead4 cbbe 23a4 3bbe
000002c0: 8f3b 37be 7ec0 2bbf 6687 9c3f 90a2 df3e
000002d0: 8ded a6be 824a 8cbf 60d5 7bbf 5dc4 a93d
000002e0: c994 a7bd ae54 6d3f 3d25 d13c f84d 8f3e
000002f0: af8d 863e 14e4 18bf c1ac cb3f 49b3 b13e
00000300: 4390 b3bd d2a5 0a3d 2d38 92be 9952 c6bf
00000310: c533 043e 36db 5cbe 9191 b5be 8286 99bd
00000320: 7596 583e c579 b1bf ab8a c33e e82b 013f
00000330: 9a3b 133e b08c 6e3e 7c05 36bd b280 34be
00000340: 3382 333e 4418 58bf b270 843f 3ea8 c43e
00000350: 520e b4be 7617 b0bf f4f3 3ebf b1b9 1bbf
00000360: ce3d eebd 37c2 8f3f 5426 053e 195f 313f
00000370: f32d 62be 9352 883e 98bc 9c3f 35f3 113f
00000380: c561 083d 602b c8bd dfc0 95bd 0b51 70bf
00000390: a924 b33e 3171 133f 2cf5 54bf 4fbf 1fbf
000003a0: 7acd 023f 2a06 39bf 6066 d4be e010 e73e
000003b0: e9ad a3be 47a5 d63e 13aa 2fbf 5efc 5d3e
000003c0: b7a0 343f 9802 d6be 229a 3f3f fd35 633f
000003d0: 587a eabe ee5e 84bf c530 3fbf 932b 323e
000003e0: 640a 09bf 7e33 433f f600 1abf 55f6 503f
000003f0: dcde 913e 503e 04be 4c09 493f 24ce a8bc
0.13696302 -0.39796785 -0.13178323 -1.2333353 0.58037007 0.3736354 -0.45916143 -1.1307465
0.2173891 -1.6009244 0.046997473 0.8373592 -0.3761099 0.382681 -0.7652803 0.034229055
0.17332186 -0.5388754 1.176079 0.6843735 -0.87702966 -1.9123291 -0.8406119 -0.114343464
-0.1134213 1.797687 0.054646693 0.4372067 0.5372968 -0.3799367 1.5397974 0.2197682
-0.09419737 -0.109827906 -0.17325078 -1.3059689 0.12630841 0.35295832 -0.41542903 -0.88110435
0.57759154 -1.345171 0.0058107744 0.39025262 -0.39191106 0.48219314 -0.3223885 0.21926264
0.4723032 -0.7289999 0.9355888 0.91456634 -0.050556526 -1.291079 -0.9723935 -0.041788712
-0.300149 1.2611988 0.09292938 0.292094 0.41416365 -0.4254448 1.3415391 0.40799627
0.13932186 0.65563416 -0.15079868 -2.1816988 -0.19959296 0.44333494 -1.3314131 -0.9460042
0.72894406 -2.1263247 0.014331123 1.0702683 -0.9273265 0.450822 -0.13702145 -0.4016278
0.5182202 -0.7149385 1.5100069 1.2658873 0.1318628 -1.073458 -1.0777092 -0.22338703
0.322187 0.9873093 -0.4528726 -0.15974909 -0.12412358 -0.103180796 1.7263486 0.37325096
0.4914665 -0.58504903 -0.13646953 -1.1731625 0.59395415 0.20873904 -0.6708196 -1.580512
-0.15315144 -1.1576115 0.24241926 0.8936584 -0.7008985 0.57893074 -1.210828 -0.16515853
0.2192577 -1.0098333 1.3275833 0.5876498 -0.8483268 -2.0248759 -0.74936825 -0.11049606
-0.58391845 1.5827413 0.47597423 0.35198453 0.6561352 -0.38699895 1.6936728 0.10838878
-0.14737643 -0.24345137 -0.0011551933 -1.23206 -0.2427534 -0.23585159 -0.49533728 -0.4099493
0.3051826 -1.2982522 0.026200628 0.508545 0.37625894 0.05181746 0.013500384 0.40936446
0.08671618 -0.9792221 1.0463029 0.37677726 -0.6204429 -0.7610918 -0.6176377 -0.5807094
0.04633476 1.0018119 -0.38602573 0.42696592 -0.117493555 0.20263425 1.3952358 0.62537795
0.27920485 -0.07881416 -0.43807986 -1.6975217 0.29895583 0.19784266 -0.1806005 -0.7383018
0.695633 -1.7942506 0.10363232 0.10895099 -0.31920877 0.5327376 -0.39810878 -0.18324332
-0.17893814 -0.67090595 1.222882 0.43678713 -0.32603112 -1.0960238 -0.9837246 0.082894064
-0.081826754 0.92707336 0.025530452 0.27989173 0.2627997 -0.5972302 1.5912095 0.34707096
-0.0876775 0.033849545 -0.28558484 -1.5493957 0.12910374 -0.21567997 -0.3546262 -0.074963585
0.21151145 -1.3865286 0.38191733 0.5045762 0.14378205 0.23295856 -0.044438824 -0.17627218
0.17530136 -0.84412026 1.0346892 0.3840961 -0.35167176 -1.375716 -0.7459099 -0.6083022
-0.11632882 1.1231145 0.13002902 0.6928573 -0.2208784 0.266255 1.2245054 0.5701173
0.033296365 -0.09773898 -0.07312178 -0.9387366 0.34988907 0.5759459 -0.831866 -0.6240129
0.5109478 -0.7227503 -0.41484356 0.45130062 -0.3196862 0.41922972 -0.6861889 0.21678302
0.7055773 -0.41798854 0.74844563 0.88754255 -0.45796466 -1.034147 -0.7468379 0.17399435
-0.5353148 0.76250446 -0.60157716 0.8162587 0.2849034 -0.12914395 0.7852981 -0.020606108

lstm.weight_hh_l1 f4 [128, 32]
00000000: 6e07 9e3d 982d 833d b009 94bc b66f d63d
00000010: 7d9e 0c3e e94b 263e 9b36 bdbd 6eb9 843d
00000020: 1e48 bc3d 0a9b 20be 66f3 943d bc79 4b3d
00000030: 7aea a73d 00d6 66bc 1805 36bd 6c34 6abd
00000040: 544b 103d 84a0 e3bd 003f ab3a 688f 893d
00000050: f774 efbd 00ef 6bbc 2c92 91bd 4c65 0bbd
00000060: b828 31be 7837 f1bd 360c 06be 23a4 21be
00000070: 487f aebc 4c0c 01be 6366 2a3e 0e8b a0bd
00000080: f82c 383d c211 cd3d 9059 413c d8f8 22bd
00000090: ec0c 393d f686 20be eb61 c7bd 4464 4bbd
000000a0: 124f 0dbe c655 ba3d 00f0 8ebd c886 30bd
000000b0: 3a74 f93d 1ef2 c63d 906e 043c 0c78 acbd
000000c0: 1a75 e83d 8920 123e da85 e03d c240 efbd
000000d0: 20fe 663d 4889 0cbe 326e 09be 5843 37bd
000000e0: 5ed1 96bd a231 7cbd f43e 1dbd fac4 f63d
000000f0: 60be 3c3d 0fc7 243e 2a66 b83d 4f83 06be
00000100: e2bb 9f3d 3b20 313e 768b e33d 7cf2 583d
00000110: 3245 893d 961e 22be a326 11be e1e2 eabd
00000120: 6506 313e da5d e13d f795 c9bd 000b 703b
00000130: 9e31 bebd 7642 f03d 5c7d 5ebd 289d 423d
00000140: f42d 3f3d 7c9f a4bd 7889 0a3d 165c da3d
00000150: d956 0a3e 1e56 ed3d af47 2bbe 508c 51bc
00000160: 6073 f6bb c74f 0f3e d7c3 b4bd be30 f7bd
00000170: c062 513c 67c0 2e3e 8aa7 de3d 28f4 f13c
00000180: 833c 143e 4189 1ebe 00c8 9539 ee67 e63d
00000190: 4c8f 27be 0018 0dbc 2027 edbc b09e 8a3c
000001a0: 806c 8c3d b163 2c3e a18d 203e da2f c8bd
000001b0: 5070 703d 9211 9dbd 7c54 11bd 7111 19be
000001c0: 5def 1e3e a6c7 963d 0ee1 9b3d ed22 fabd
000001d0: 6de2 afbd 1081 073c cb8f 2fbe 2fe5 cbbd
000001e0: 56e5 c23d 8767 8abd eaf9 f43d 011e 2bbe
000001f0: e07c a5bd 8d14 033e 1717 22be 844e 3b3d
00000200: 7799 a4bd b4eb 31be 8968 053e da14 963d
00000210: 33cd e2bd ebaa 31be c468 353d 0230 fe3d
00000220: 5e0c c5bd 18a2 febc 567d f73d 51a9 163e
00000230: d228 29be f016 4d3c 9679 fa3d a42d f2bd
00000240: d835 9ebc 2a2a febd 9995 c6bd 0214 b03d
00000250: 3bef 1c3e 083d 4fbd d0e1 39bd 0013 b03b
00000260: f262 cb3d 4008 303d f42d 1abd cba0 bdbd
00000270: d448 02be 16ca e53d e64d 7bbd 3395 0fbe
00000280: b5d8 e1bd 26ff f33d 00e8 be3c d4c7 11be
00000290: 122b 8f3d 5ea1 88bd e083 ee3b 602a 473c
000002a0: 759c 093e 40c9 233b 22b7 f3bd e916 0dbe
000002b0: 6be8 24be de07 febd a040 483c 4644 9f3d
000002c0: c114 c5bd d1a3 11be 067a f43d ceea 0bbe
000002d0: 4259 be3d ddf2 32be b035 103c 6021 29be
000002e0: fbb6 0f3e 2b1d 30be 0bff 2ebe 3a40 7ebd
000002f0: f7ec 1c3e fca8 4c3d 77b9 2fbe d0f9 5a3c
00000300: a36d b9bd b828 a13c 9059 10bc f4e7 3c3d
00000310: a624 823d 6068 68bc 7f48 1d3e d8b5 a23c
00000320: de02 02be 8812 50bd 7aaf 5ebd d0b2 4b3c
00000330: b1c6 183e d08e c1bc cc60 15be 6838 593d
00000340: 610c dabd cc83 87bd 8534 173e fb62 c0bd
00000350: 326b e83d 488f 09bd 006e 71bc 4577 063e
00000360: bd4b 2f3e 0419 8d3d 7c34 23be f948 e4bd
00000370: 5caa 16bd c056 e6bd 40b5 ea3c 7f52 0a3e
00000380: 4a97 ec3d f065 5a3d f821 13be 529d de3d
00000390: 7387 123e c3b7 bbbd f279 0abe 6881 a0bc
000003a0: a4aa 37bd 54fb 37bd 10c5 9bbc 608a 903c
000003b0: c048 2a3c fa1c aa3d 0fc7 d9bd c02d 0dbd
000003c0: 3daa 243e eff2 053e b82b a9bc ce6f df3d
000003d0: 50fe 473d b83f 19bd 9bb8 2f3e 094f 9dbd
000003e0: 56be fabd 0084 7e3c 8885 103d bc6d 31be
000003f0: 60b3 623c 90c4 90bc 0b79 1fbe a8f1 cebd
0.07716261 0.06405181 -0.018071026 0.10470526 0.13732333 0.16239895 -0.09238931 0.064806804
0.09193443 -0.15684143 0.07272987 0.04967664 0.0819902 -0.0140891075 -0.04443845 -0.0571789
0.03522809 -0.111146 0.001306504 0.06716806 -0.11692231 -0.014400244 -0.07107958 -0.03403215
-0.17300689 -0.11778158 -0.13090596 -0.1578527 -0.021300927 -0.12602347 0.1664062 -0.078390226
0.04496476 0.10013153 0.0118011385 -0.039788097 0.04517834 -0.15676484 -0.09735473 -0.049656168
-0.13799694 0.09098391 -0.0697937 -0.043097287 0.121803716 0.09714149 0.008083001 -0.084213346
0.1135046 0.14270224 0.1096303 -0.116822734 0.056394696 -0.13724244 -0.13420942 -0.04474196
-0.07364152 -0.06157077 -0.038390115 0.12049289 0.046079993 0.1609156 0.09003861 -0.13136028
0.07799508 0.17297451 0.111105844 0.052965626 0.06702651 -0.1583198 -0.14174895 -0.11469055
0.17287596 0.11004229 -0.09843057 0.003662765 -0.092868075 0.117314264 -0.05431877 0.047513157
0.046674684 -0.08038232 0.033822507 0.10662095 0.13509692 0.11588691 -0.16726564 -0.012789801
-0.007521078 0.13995276 -0.08826416 -0.12069844 0.0127798915 0.17065583 0.10871799 0.029535368
0.14476208 -0.15482046 0.00028568506 0.11250292 -0.16363257 -0.008611679 -0.02894932 0.016921371
0.06856632 0.16834904 0.15679027 -0.09774752 0.05870086 -0.07669367 -0.03548096 -0.1494806
0.15520997 0.07362299 0.07611285 -0.12213693 -0.08588109 0.008270517 -0.17144696 -0.09955823
0.095163986 -0.067580275 0.1196173 -0.16710664 -0.08080459 0.12800808 -0.1582912 0.045729175
-0.080370836 -0.1737507 0.13028158 0.07328196 -0.11074295 -0.17350356 0.044289365 0.124115005
-0.096214995 -0.031083152 0.12084453 0.14713027 -0.16519478 0.012517676 0.12230222 -0.118251115
-0.019312784 -0.12410386 -0.09696502 0.08597566 0.15325634 -0.050595313 -0.045381367 0.0053733587
0.09930982 0.042976618 -0.03764148 -0.092591844 -0.12723094 0.112201855 -0.061353587 -0.14021759
-0.11027662 0.119139 0.023303986 -0.14236385 0.06990637 -0.06671403 0.0072789043 0.012156099
0.1343859 0.002499178 -0.11900164 -0.13778271 -0.16104285 -0.12403844 0.012222439 0.07776694
-0.09623099 -0.14222647 0.119373366 -0.1366379 0.09294368 -0.17475457 0.008801863 -0.16516638
0.14034645 -0.17198627 -0.17089479 -0.06207297 0.1532477 0.049965844 -0.17160593 0.013365224
-0.09054115 0.019672737 -0.008810416 0.046119645 0.063546464 -0.014185041 0.15359686 0.0198621
-0.12696406 -0.050798923 -0.054366566 0.012432769 0.14919545 -0.023627669 -0.14587706 0.05303231
-0.10646892 -0.06616935 0.14766128 -0.09393879 0.11348571 -0.03358391 -0.014735699 0.13131435
0.17118736 0.06889537 -0.1593799 -0.11146731 -0.03678356 -0.11247015 0.02865088 0.13508032
0.115522936 0.05331987 -0.14368427 0.1086985 0.14309482 -0.09165909 -0.13523081 -0.019592956
-0.04484047 -0.04491742 -0.019014865 0.017644107 0.0103933215 0.08306308 -0.106336705 -0.03446746
0.16080566 0.13080953 -0.02065073 0.10909997 0.048826516 -0.037414283 0.17160265 -0.076810904
-0.12243335 0.015534401 0.035283595 -0.17327017 0.013836712 -0.017671853 -0.15573518 -0.10104686

lstm.bias_ih_l1 f4 [128]
00000000: 1bd8 c7bf da6f 87bf 3fd3 99bf 73d6 a5bf
00000010: 4ff7 95bf 4979 bebf 19d6 7fbf 1bcc 84bf
00000020: 47cf e8bf 4352 cebf 9252 84bf f076 87bf
00000030: 021e a3bf 1c64 8ebf d3b0 91bf d750 bfbf
00000040: 1893 b9bf d339 d0bf ae71 a1bf cbd9 c2bf
00000050: 6630 a7bf 2aff cdbf d185 86bf d518 79bf
00000060: 043f 44bf c9a6 babf 1cb3 80bf 80f6 87bf
00000070: 4af5 bebf a3e0 c7bf d160 babf bcc1 5ebf
00000080: 20ca 55bc 1ce2 aabd 0c82 813d 1ec3 b93d
00000090: 5688 ec3d 9238 d93d 40d4 383d 79cf 0abe
000000a0: 90e0 09bd c426 943d 80cb c2bb 2a33 873d
000000b0: 001b eaba 9c49 77bd e056 1cbe 1971 b4bd
000000c0: 52a0 da3d 1e92 01be c7b8 333e 512c 1c3e
000000d0: 2610 e93d d007 0e3d fe88 7ebd 70e8 ccbc
000000e0: 96e5 e6bd bf1e eebd d4ee 1ebd 2eba b7bd
000000f0: 30d3 943c 0288 2abe c0e4 ecbc 46d2 34be
00000100: a242 86be 3e68 3e3e c8cc 94be 017f c8be
00000110: 532c 353e 7266 133d f9ff eebd 08e3 12be
00000120: 3f38 623e a3cd 333e 6bf0 033e dbb0 6a3e
00000130: f8ad f73d 045a 143e 0afc 803c fa72 5d3e
00000140: 6da0 edba a88e cebd 4698 3abe 6b0f 2f3e
00000150: 1bcb ec3d 2355 19bd 6ffb 053e 7f6d e23c
00000160: e3e8 4fbe b966 a1be 4438 393e 38f9 c5bd
00000170: 52a4 543e 703c 3b3c d8d3 30be 7e1a cfbb
00000180: a9f4 d5bf 11d6 9cbf 1a92 9dbf f3f2 adbf
00000190: cad9 aabf 2bbe bdbf 40aa 98bf bae4 6fbf
000001a0: f2ea d5bf ad71 ccbf b29a 83bf c99f 80bf
000001b0: fee7 bdbf c023 88bf 4bbe 6cbf 5c71 cbbf
000001c0: b8ac adbf 889b d4bf e2cc 88bf 7e58 dbbf
000001d0: 676c 88bf 931c e0bf 6a25 6ebf 062b 99bf
000001e0: 2a6c 2fbf 088e d1bf 72a5 78bf b453 78bf
000001f0: b77a c4bf a2aa b7bf c5f5 c7bf 7d71 6ebf
-1.5612825 -1.0581009 -1.2017592 -1.295607 -1.1716098 -1.4880763 -0.9993606 -1.0374788
-1.8188256 -1.6118854 -1.0337698 -1.0583172 -1.2743533 -1.1124301 -1.1382087 -1.4946545
-1.4498014 -1.6267647 -1.2612817 -1.5222715 -1.3061645 -1.6093495 -1.0509588 -0.97303516
-0.76658654 -1.4582149 -1.005466 -1.0622101 -1.4918606 -1.5615429 -1.4560796 -0.87014365
-0.013048679 -0.08343908 0.063236326 0.09070419 0.115494415 0.10606493 0.045124292 -0.13555707
-0.033661425 0.072339565 -0.0059446692 0.06601556 -0.001786083 -0.060372934 -0.15267515 -0.08810634
0.1067511 -0.12653396 0.17550956 0.1525128 0.11380033 0.03467542 -0.062142365 -0.025013179
-0.11274259 -0.11626958 -0.038801983 -0.08971058 0.018167108 -0.16653445 -0.02891767 -0.17658338
-0.26222712 0.18594453 -0.29062486 -0.39159396 0.1769269 0.03598637 -0.11669917 -0.14344418
0.22091769 0.17558913 0.12884681 0.22919028 0.12093729 0.14487463 0.015745182 0.21625891
-0.0018129476 -0.10085803 -0.1822215 0.17095725 0.11562177 -0.03743471 0.13084196 0.027640102
-0.20303683 -0.31523684 0.1808787 -0.09666675 0.20765808 0.011427984 -0.17268312 -0.006320297
-1.6715289 -1.2252828 -1.2310212 -1.3589767 -1.3347714 -1.482366 -1.1926956 -0.93708384
-1.6712325 -1.5972191 -1.0281584 -1.0048763 -1.4836423 -1.063591 -0.92477864 -1.589397
-1.3568335 -1.6609964 -1.0687525 -1.7136381 -1.0658082 -1.750872 -0.9302584 -1.1966255
-0.6852442 -1.637147 -0.9712745 -0.9700272 -1.534995 -1.4348948 -1.5621878 -0.9314192

lstm.bias_hh_l1 f4 [128]
00000000: 4bc9 c9bf de95 a6bf 57f3 a2bf 8ac9 b9bf
00000010: c0fb adbf e5ce a1bf 092d 8bbf 0ee5 5fbf
00000020: ccbf bfbf 21c8 bdbf 70f1 84bf c59b 91bf
00000030: 3a39 b6bf 13b5 94bf 74a4 6bbf 6503 d1bf
00000040: 3a58 a2bf 3477 c5bf 5b62 97bf c7d7 d6bf
00000050: 7106 8fbf 19e6 e3bf 574c 98bf 495e 8cbf
00000060: a458 2bbf c9db d4bf 9485 84bf c495 9cbf
00000070: 99de d6bf 18fd d2bf bb5b cabf 05b4 87bf
00000080: 7b76 1b3e 5d13 01be 920f ea3d 77df 223e
00000090: 405f ec3c 93f4 08be 6f05 0e3e d7a5 183e
000000a0: f5c9 2e3e 2a06 bd3d 7e92 cf3d af81 0c3e
000000b0: 2f23 1cbe 83c2 e7bd 8ce3 16bd 2cf1 7bbd
000000c0: 5053 733d 23b2 02be 4036 7abc 821f 85bd
000000d0: b597 283e 58eb 813c 280a e7bc 526d b13d
000000e0: e6e9 57bd f0f3 36bc 178b 0cbe 3a75 a93d
000000f0: 1861 2cbd 5fab 243e 6b01 f1bd 40cc 353c
00000100: b0cc 50be 3dc5 fe3d 0684 6cbd 51cf 67be
00000110: 0419 5c3d 00af 50be e923 9bbc 10f3 cebe
00000120: 9dab c43e e53e 003e 640d ed3d 65dd 963d
00000130: d72d 223e 5e61 f53d 7ae8 3c3e 3dbb 8c3d
00000140: aaf5 253c 9905 0fbe 823d 77be 2c10 fc3d
00000150: e696 a03e ca34 00be 0a23 a33d 3112 babd
00000160: 4b6b a13d b1f4 41bc 804b 1a3c 5014 2bbe
00000170: b81b 583e 7b1d 2b3e 74c8 81be b99e bdbd
00000180: b57c aebf ecd1 91bf 6f4b bcbf 7b5e ccbf
00000190: 0854 8abf 9da3 a9bf 9304 6dbf be0d 8bbf
000001a0: f461 c1bf dd3d abbf 1275 9ebf b5a2 8bbf
000001b0: 128e b1bf 1896 9abf b41a 96bf b567 abbf
000001c0: acbf a7bf 60b3 cbbf 6807 96bf 8cab cdbf
000001d0: 8f4a 8abf af37 e0bf c3ec 96bf ea3d 9abf
000001e0: 5fbc 55bf 775a dbbf 278c 80bf 70ce 97bf
000001f0: dbd3 bcbf 285e cbbf b5aa b6bf b594 95bf
-1.5764555 -1.3014486 -1.2730511 -1.451463 -1.3592453 -1.2641264 -1.0873119 -0.87458885
-1.4980407 -1.48267 -1.0386181 -1.1375662 -1.4236214 -1.161776 -0.9204781 -1.6329161
-1.2683175 -1.5427003 -1.1826891 -1.67846 -1.1173841 -1.7804595 -1.1898297 -1.0966274
-0.6693213 -1.6629573 -1.0353265 -1.2233205 -1.6786681 -1.6483488 -1.5809244 -1.0601813
0.15181915 -0.12605043 0.11428751 0.15905558 0.028854012 -0.13374548 0.1386926 0.14907013
0.17069228 0.09229691 0.10135363 0.13721345 -0.15247796 -0.11316397 -0.0368381 -0.061509296
0.059405625 -0.12763266 -0.015271723 -0.0650015 0.16464122 0.015859291 -0.028203085 0.08663429
-0.052713297 -0.011166558 -0.13724934 0.08274312 -0.042084783 0.16080998 -0.117678486 0.01109606
-0.20390582 0.12439964 -0.057743095 -0.22637679 0.053734794 -0.20379257 -0.018938022 -0.40419817
0.3841218 0.12523992 0.1157482 0.073664464 0.15837799 0.11981462 0.18448058 0.0687165
0.010129372 -0.13966979 -0.24144557 0.12307772 0.31365126 -0.12520137 0.079656675 -0.09085501
0.07881793 -0.011838124 0.009417415 -0.16706967 0.21104324 0.16710465 -0.25348246 -0.092587896
-1.3631808 -1.1392188 -1.471052 -1.5966333 -1.0806894 -1.3253056 -0.92585105 -1.0863569
-1.5108018 -1.3378254 -1.2379477 -1.0909029 -1.3871481 -1.2077055 -1.1726899 -1.3391024
-1.3105369 -1.5914116 -1.172101 -1.6067977 -1.0804003 -1.7516993 -1.1791004 -1.2050145
-0.83490556 -1.7136983 -1.0042771 -1.1859875 -1.4752153 -1.5888109 -1.4270846 -1.1686007

fc.weight f4 [1, 32]
00000000: d38b 4b3e 939e 273d e513 94bd 384d 353d
00000010: 3e9d fdbb 914c 4cbc 2e82 9abd 1b45 a7bb
00000020: f0f0 7a3d c0ca 88bc 3879 c53c 6c15 b33c
00000030: 520e 963c fa1c 993c d860 113b e522 d33c
00000040: b872 603d 0d7f 6dbc 1db7 8cbd e86c 99bc
00000050: eb18 7f3d 8cda 103d 9791 053b 372b 73bc
00000060: 5259 89bc 594a 20bd dbc2 8e3b b2f3 25bd
00000070: 3919 adbd 8834 a5bd 4c57 13bc 528d 4dbd
0.19877557 0.040922713 -0.07230357 0.044263095 -0.007739692 -0.012469427 -0.07544361 -0.0051046736
0.061264932 -0.016698241 0.024105653 0.0218608 0.018317375 0.018690575 0.0022182968 0.025773475
0.054796904 -0.014495623 -0.068708636 -0.018728688 0.062279623 0.035364673 0.0020380968 -0.014841846
-0.016766224 -0.039133403 0.0043567247 -0.04051561 -0.084520765 -0.0806666 -0.008992981 -0.0501836
