save/model_20240611_190925.pth (torch, 139068 bytes, 9 tensors)

lstm.weight_ih_l0 f4 [200, 15]
0.50804573 0.5689054 0.63882446 0.53794736 0.6158126 0.3045999 0.21543664 0.4461917
0.441594 0.41598833 0.5984912 0.49297446 0.2958757 0.54380345 0.39621627 0.39937475
0.36528993 0.4874644 0.36612803 0.4564145 0.18288651 0.16294007 0.35949066 0.35396445
0.39247137 0.5088234 0.53134626 0.280284 0.51605123 0.335379 0.42727128 0.38394243
0.51729774 0.4966276 0.5251977 0.17509001 0.37485552 0.31843042 0.33828375 0.29372725
0.4663768 0.3117775 0.2958683 0.33593726 0.34287682 0.4364688 0.3422009 0.540419
0.5231254 0.3346851 0.4420131 0.34930444 0.33351618 0.51861185 0.4203328 0.55973154
0.47180474 0.36333066 0.27590498 0.32788318 0.28663138 0.42963532 0.3404023 0.39543524
0.50802165 0.44205123 0.27177823 0.3421304 0.4878387 0.3332008 0.3988896 0.54857004
0.23918457 0.55678886 0.3230301 0.53282446 0.49804032 0.47358584 0.46286154 0.5208727
0.39339694 0.45685825 0.32427466 0.456471 0.36450016 0.5187488 0.36513582 0.31766096
0.4426676 0.32752258 0.48734853 0.36111525 0.5525371 0.50784916 0.4608885 0.44519958
0.29077676 0.37031364 0.47725004 0.34279683 0.30111924 0.3351597 0.27665195 0.44402573
0.29748562 0.34053007 0.4626202 0.34439638 0.4326155 0.42243665 0.44584545 0.30352145
0.28688428 0.5005836 0.46578494 0.5025924 0.3082559 0.4370673 0.45971012 0.4087787
0.3142112 0.43549475 0.2921296 0.45742318 0.45569158 0.18246856 0.39321017 0.4990037
0.41364625 0.5334824 0.545781 0.28849834 0.2738756 0.39290336 0.3103104 0.36564422
0.39910328 0.53534544 0.4119627 0.30683717 0.28362927 0.39974934 0.4868495 0.33645937
0.46595967 0.36528006 0.40253267 0.23021452 0.3814128 0.41491145 0.29392728 0.5112767
0.46320626 0.39331055 0.331508 0.3544399 0.39501634 0.36294597 0.47402164 0.32018155
0.31821623 0.5431472 0.35688794 0.35892326 0.52101266 0.33025616 0.476614 0.3848603
0.47584108 0.42696697 0.21667576 0.38766125 0.48155367 0.27299342 0.3777584 0.30841488
0.35574302 0.24841844 0.5391382 0.40342787 0.35039127 0.4701293 0.34637043 0.49647465
0.5231282 0.35474294 0.38834184 0.416572 0.3764298 0.52016854 0.36453733 0.545417
0.3564988 0.2998048 0.39185968 0.34513202 0.36442927 0.30721858 0.336139 0.41060877
0.19095749 0.3138917 0.50601614 0.49115896 0.36314312 0.47647473 0.5241375 0.3626173
0.31809917 0.39381993 0.54094124 0.5014498 0.51552314 0.5343826 0.43294048 0.33465162
0.31393728 0.4479185 0.57624805 0.48957705 0.4297027 0.59296006 0.49487445 0.54156435
0.5523882 0.3165981 0.36612356 0.3109859 0.38365752 0.49381962 0.28039944 0.40603852
0.35189083 0.46326083 0.40391624 0.33352146 0.46250844 0.3002305 0.4593981 0.43932384
0.47601324 0.5353405 0.49767634 0.3859214 0.48464394 0.42424658 0.17730957 0.54976207
0.35564414 0.44882652 0.6115481 0.42397803 0.3583022 0.45050097 0.4302155 0.39446732
00000000: 490f 023f c9a3 113f 008a 233f ebb6 093f
00000010: e5a5 1d3f 85f4 9b3e 6c9b 5c3e 3d73 e43e
00000020: 9c18 e23e 6cfc d43e b836 193f 2667 fc3e
00000030: 057d 973e b436 0b3f dcdc ca3e d97a cc3e
00000040: 4807 bb3e ef94 f93e 2275 bb3e 29af e93e
00000050: 9a46 3b3e c3d9 263e 290f b83e d43a b53e
00000060: 02f2 c83e 4042 023f 4f06 083f 6281 8f3e
00000070: ef1b 043f ccb6 ab3e 4dc3 da3e 1a94 c43e
00000080: a06d 043f f945 fe3e 5b73 063f cc4a 333e
00000090: 10ed bf3e 5009 a33e 8733 ad3e 6b63 963e
000000a0: f1c8 ee3e 4da1 9f3e 0d7c 973e f8ff ab3e
000000b0: 8d8d af3e d778 df3e f534 af3e e658 0a3f
000000c0: 8ceb 053f d85b ab3e 8b4f e23e 08d8 b23e
000000d0: a2c2 aa3e bfc3 043f dc35 d73e 914a 0f3f
000000e0: 6490 f13e 7a06 ba3e 6b43 8d3e 4ee0 a73e
000000f0: 59c1 923e 29f9 db3e 3649 ae3e 7d76 ca3e
00000100: b50d 023f 8a54 e23e 8426 8b3e b72b af3e
00000110: fec5 f93e 4c99 aa3e 423b cc3e 166f 0c3f
00000120: cdec 743e b789 0e3f 3464 a53e 2f67 083f
00000130: 24ff fe3e d879 f23e 30fc ec3e ea57 053f
00000140: 536b c93e 53e9 e93e 5407 a63e 91b6 e93e
00000150: c49f ba3e b9cc 043f 15f3 ba3e 75a4 a23e
00000160: 54a5 e23e 0ab1 a73e bf85 f93e 19e4 b83e
00000170: 1273 0d3f 6702 023f 94f9 eb3e 33f1 e33e
00000180: b1e0 943e c099 bd3e 1e5a f43e 1183 af3e
00000190: 4d2c 9a3e 0d9a ab3e 53a5 8d3e 5757 e33e
000001a0: 0950 983e f559 ae3e 8edc ec3e b954 b03e
000001b0: c77f dd3e 9e49 d83e db45 e43e 2a67 9b3e
000001c0: 7fe2 923e 3f26 003f 5d7b ee3e e5a9 003f
000001d0: b8d3 9d3e 49c7 df3e 205f eb3e 714b d13e
000001e0: 4ae0 a03e 2bf9 de3e 0392 953e 5f33 ea3e
000001f0: 6850 e93e 0ad9 3a3e d852 c93e 6a7d ff3e
00000200: 71c9 d33e 4d92 083f 4eb8 0b3f 0eb6 933e
00000210: 6c39 8c3e a12a c93e 01e1 9e3e b835 bb3e
00000220: 4457 cc3e 660c 093f c6ec d23e c319 9d3e
00000230: db37 913e f2ab cc3e 5644 f93e 6744 ac3e
00000240: 4492 ee3e fd05 bb3e c318 ce3e 5bbd 6b3e
00000250: 8a48 c33e 466f d43e a37d 963e 08e3 023f
00000260: 5f29 ed3e 0060 c93e 6bbb a93e 2679 b53e
00000270: 953f ca3e 0ed4 b93e f7b2 f23e d6ee a33e
00000280: 3ded a23e b20b 0b3f 04ba b63e cac4 b73e
00000290: 1661 053f 5617 a93e c006 f43e 690c c53e
000002a0: 71a1 f33e 6a9b da3e 40e0 5d3e 897b c63e
000002b0: 348e f63e cbc5 8b3e 8d69 c13e 8ee8 9d3e
000002c0: f323 b63e 6761 7e3e f604 0a3f 198e ce3e
000002d0: 7c66 b33e cab4 f03e 7757 b13e ed31 fe3e
000002e0: bbeb 053f dea0 b53e bed4 c63e ed48 d53e
000002f0: 68bb c03e c429 053f a3a4 ba3e 73a0 0b3f
00000300: 0387 b63e 0480 993e d5a1 c83e 25b5 b03e
00000310: 7996 ba3e c14b 9d3e 691a ac3e 503b d23e
00000320: 5c8a 433e 6ab6 a03e 468a 013f 3079 fb3e
00000330: e5ed b93e 7ff4 f33e e02d 063f faa8 b93e
00000340: e5dd a23e c4a2 c93e 207b 0a3f 045f 003f
00000350: 53f9 033f 4ccd 083f 60aa dd3e 7557 ab3e
00000360: 63bc a03e 9355 e53e fe84 133f d8a9 fa3e
00000370: fe01 dc3e 3bcc 173f 2f60 fd3e f6a3 0a3f
00000380: 5069 0d3f 2519 a23e 8c74 bb3e 8b39 9f3e
00000390: c26e c43e edd5 fc3e 8490 8f3e 48e4 cf3e
000003a0: 092b b43e 8630 ed3e 1cce ce3e 53c3 aa3e
000003b0: e8cd ec3e d0b7 993e 3a36 eb3e 0eef e03e
000003c0: 02b8 f33e 130c 093f 6fcf fe3e 7d97 c53e
000003d0: 4023 f83e d936 d93e a490 353e 35bd 0c3f
000003e0: fd16 b63e 97cc e53e 6b8e 1c3f a613 d93e
000003f0: 6373 b73e 10a8 e63e 3545 dc3e 9ff7 c93e

lstm.weight_hh_l0 f4 [200, 50]
0.11551057 0.11794107 0.02981089 0.13237499 -0.09183751 0.112527445 -0.07076362 0.046637222
-0.061629266 -0.11205682 -0.060803525 0.101753876 -0.041669495 0.015452161 -0.13843231 -0.07717943
-0.0032880604 -0.10034449 0.124948815 0.124722525 -0.047369502 0.09437652 -0.056192055 0.10374376
-0.07624105 0.1313494 -0.024340197 0.07133961 0.0809872 0.11623146 0.0785349 0.03690256
-0.009139538 -0.1091795 -0.13334766 0.1013004 0.084817916 0.008002564 0.07313934 0.0123732835
0.088336885 -0.0016328841 0.08794643 0.13687967 0.07621014 0.11303271 0.082032576 -0.0033468306
-0.04156322 -0.0019171238 0.021426931 -0.045053788 -0.025074832 -0.073441446 0.1072444 -0.08585969
-0.10146615 0.015688464 -0.024947867 -0.06627383 0.055610254 0.060645953 0.058013335 0.08395076
-0.019944966 0.12723114 0.0658595 0.087485075 -0.0723155 -0.08203099 -0.0032855868 -0.05842565
-0.036138497 0.055432975 0.021277308 -0.12674035 0.0674981 0.11212821 0.096839115 -0.053045303
-0.11908218 -0.029587999 -0.12587298 0.057469428 -0.10713859 -0.025007091 0.01005742 -0.037100457
-0.05235055 0.06603804 0.03537588 0.04441978 0.12803824 -0.044901386 -0.029193722 0.005643457
-0.06521075 -0.010922596 -0.01748307 0.030179262 -0.11920696 0.06686203 0.11215256 0.041882277
-0.098360345 -0.011919439 0.103465185 -0.00030350685 -0.04531213 -0.08055721 0.08042927 -0.050645575
-0.09902467 0.0968539 0.05919704 -0.058244184 0.12178932 -0.1031777 -0.13513921 0.004857868
-0.04192865 0.025605023 -0.03039752 -0.048517987 -0.052142665 -0.010560989 0.04363376 -0.08655533
-0.13066572 -0.09975538 -0.104873605 0.012952581 -0.05925004 0.095592126 0.0651779 0.12398578
-0.03480576 -0.05263137 -0.060191296 -0.11783243 -0.10658544 0.08998473 -0.09739593 0.0402935
-0.0053358823 -0.056562573 -0.14046398 -0.01703807 0.017211884 -0.08292666 -0.06715981 -0.080411874
-0.07525219 -0.014437392 -0.067563005 -0.11623067 -0.09950423 0.1136909 -0.07221359 0.06881447
-0.004715234 -0.13583267 -0.10242084 0.043447405 0.12280922 -0.046428196 -0.035550736 0.06848355
0.023718134 0.026656926 -0.1360544 -0.046980843 0.1397125 -0.013703957 0.09507239 -0.13767835
-0.090777874 0.09541874 -0.06300076 0.04751879 0.012785405 -0.06570261 -0.11546116 -0.051095404
0.06335904 0.10461071 -0.07078124 0.0758958 -0.04594799 -0.02094715 0.116124645 -0.119966745
-0.115556315 -0.047762565 -0.020681493 -0.083300725 -0.09829765 -0.039828777 -0.06552566 0.0037952214
0.07644485 -0.038757116 0.14009036 0.012912869 -0.11502531 0.06244521 -0.017689541 -0.06243977
0.13571315 0.1385995 0.043781623 0.04991211 -0.1378352 0.1046263 0.017422035 0.12854798
0.037490502 0.094900414 -0.00857459 -0.07956796 -0.0065453947 -0.03644541 -0.06935979 0.11682515
-0.020740114 0.12628917 -0.09650043 0.020325527 0.111081704 0.07629509 0.047758296 -0.062223792
-0.12743227 -0.07931574 0.03271167 -0.07842518 -0.045020863 -0.012923509 -0.07816497 -0.043971896
-0.040606804 -0.068506554 0.02429457 -0.07104045 0.07137492 -0.012183249 0.0930911 0.03419806
0.12501 0.1276987 0.13274781 -0.11185624 -0.0816593 0.02853182 0.12464453 -0.011179149
00000000: ce90 ec3d 168b f13d f835 f43c 4f8d 073e
00000010: 4e15 bcbd ca74 e63d 84ec 90bd ac06 3f3d
00000020: f86e 7cbd 0c7e e5bd 1e0d 79bd 5664 d03d
00000030: a2ad 2abd 102b 7d3c 33c1 0dbe 4010 9ebd
00000040: 807c 57bb 6981 cdbd 2ae5 ff3d 866e ff3d
00000050: 8606 42bd 7a48 c13d a429 66bd 9c77 d43d
00000060: 4524 9cbd 7580 063e 1865 c7bc 801a 923d
00000070: 9edc a53d c20a ee3d e8d6 a03d 2427 173d
00000080: 00be 15bc 8099 dfbd 4a8c 08be 9676 cf3d
00000090: 04b5 ad3d 301d 033c 14ca 953d 50b9 4a3c
000000a0: f8e9 b43d 8006 d6ba 421d b43d 2f2a 0c3e
000000b0: 1014 9c3d b27d e73d b200 a83d 8056 5bbb
000000c0: 323e 2abd 0048 fbba 8887 af3c 528a 38bd
000000d0: bc69 cdbc 7868 96bd f4a2 db3d 35d7 afbd
000000e0: 7ccd cfbd 1885 803c 785f ccbc 93ba 87bd
000000f0: 94c7 633d e467 783d 649f 6d3d 60ee ab3d
00000100: a063 a3bc e148 023e 58e1 863d 602b b33d
00000110: 261a 94bd ddff a7bd 0053 57bb bc4f 6fbd
00000120: f605 14bd b00d 633d c04d ae3c 39c8 01be
00000130: 723c 8a3d 7aa3 e53d 9653 c63d 0846 59bd
00000140: 5ce1 f3bd 8862 f2bc d9e4 00be 1065 6b3d
00000150: 7a6b dbbd acdb ccbc e0c7 243c a6f6 17bd
00000160: 886d 56bd f43e 873d 4ce6 103d 84f1 353d
00000170: 751c 033e 84ea 37bd ac27 efbc c0ec b83b
00000180: 378d 85bd b0f4 32bc a838 8fbc 803a f73c
00000190: c722 f4bd f6ee 883d 3eb0 e53d c08c 2b3d
000001a0: 2671 c9bd c049 43bc 8ee5 d33d 0020 9fb9
000001b0: 3699 39bd 2efb a4bd 1ab8 a43d bc71 4fbd
000001c0: 72cd cabd 565b c63d 9878 723d 7491 6ebd
000001d0: ae6c f93d d44e d3bd ef61 0abe c02e 9f3b
000001e0: 60bd 2bbd a0c1 d13c 3804 f9bc ccba 46bd
000001f0: 8c93 55bd 0008 2dbc 50b9 323d ec43 b1bd
00000200: 3ccd 05be 8c4c ccbd f9c7 d6bd 1037 543c
00000210: 2cb0 72bd cec5 c33d fe7b 853d 42ec fd3d
00000220: 7c90 0ebd fe93 57bd 268b 76bd 2152 f1bd
00000230: 7849 dabd ea49 b83d 8477 c7bd cc0a 253d
00000240: a0d8 aebb 28ae 67bd cad5 0fbe 6c93 8bbc
00000250: f0ff 8c3c 74d5 a9bd 158b 89bd fbae a4bd
00000260: d21d 9abd d08a 6cbc 795e 8abd 580a eebd
00000270: e0c8 cbbd c6d6 e83d b8e4 93bd 9aee 8c3d
00000280: 4082 9abb b817 0bbe 04c2 d1bd e8f5 313d
00000290: 6683 fb3d 7e2b 3ebd a69d 11bd 1a41 8c3d
000002a0: 884c c23c a05f da3c d851 0bbe fc6e 40bd
000002b0: cb10 0f3e 9086 60bc 50b5 c23d 8efb 0cbe
000002c0: c0e9 b9bd e66a c33d 8b06 81bd 10a3 423d
000002d0: e079 513c 178f 86bd e776 ecbd 6a49 51bd
000002e0: 62c2 813d 243e d63d c1f5 90bd 426f 9b3d
000002f0: f633 3cbd 5c99 abbc c2d2 ed3d 20b1 f5bd
00000300: caa8 ecbd aea2 43bd 3c6c a9bc 9299 aabd
00000310: 4750 c9bd 8023 23bd 5132 86bd 40b9 783b
00000320: 1e8f 9c3d c8bf 1ebd d973 0f3e 8090 533c
00000330: 6492 ebbd 8cc6 7f3d a8e9 90bc d8c0 7fbd
00000340: 63f8 0a3e 07ed 0d3e 5c54 333d a470 4c3d
00000350: ac24 0dbe 5046 d63d a8b8 8e3c 15a2 033e
00000360: a48f 193d 265b c23d 707c 0cbc 87f4 a2bd
00000370: c07a d6bb c847 15bd 810c 8ebd 0642 ef3d
00000380: 2ce7 a9bc f351 013e 04a2 c5bd b881 a63c
00000390: ce7e e33d 9a40 9c3d 349e 433d 60de 7ebd
000003a0: 9b7d 02be 4a70 a2bd acfc 053d 619d a0bd
000003b0: cc67 38bd 20bd 53bc f514 a0bd e01b 34bd
000003c0: 5253 26bd 2a4d 8cbd 6805 c73c a87d 91bd
000003d0: 042d 923d 409c 47bc 8ca6 be3d 4413 0c3d
000003e0: 9f02 003e 73c3 023e 0bef 073e e214 e5bd
000003f0: fe3c a7bd 90bb e93c a245 ff3d c028 37bc

lstm.bias_ih_l0 f4 [200]
0.50048023 0.32303935 0.34416556 0.4510165 0.54745257 0.38443798 0.5032661 0.55834365
0.31450927 0.30990288 0.4122883 0.5814146 0.52268434 0.55273175 0.55432266 0.5630901
0.50815386 0.4114936 0.46969378 0.43692714 0.5275088 0.54212534 0.45447806 0.52422965
0.6952176 0.59008855 0.48780748 0.5342456 0.6002856 0.4895443 0.5933601 0.34822816
0.41573843 0.4586657 0.399911 0.54314256 0.46130157 0.52403796 0.89583683 0.53112674
0.35148036 0.5127722 0.42569095 0.37196505 0.593364 0.42163768 0.46216112 0.34271932
0.5569812 0.42249557 -0.11639884 0.061908647 -0.017361686 -0.111240946 0.05045268 0.1292419
0.121503815 0.07944873 -0.04036802 -0.05095072 -0.02231495 0.089677155 -0.0975866 -0.06773518
0.021938398 0.001339063 -0.14070591 0.052458674 0.07499042 -0.053076103 -0.0794224 -0.022546425
0.05242239 -0.111905366 0.11479999 0.1180747 -0.026695497 -0.06548132 -0.023495808 0.133449
-0.13111605 -0.095758855 -0.13983907 0.016906261 0.04959944 -0.036212288 0.08389066 -0.11556198
0.024083152 0.045066282 -0.08684021 0.060944706 0.11276372 -0.042133495 -0.020930685 0.09778106
-0.12779984 0.13836811 0.08820875 -0.014871076 -0.47449324 -0.21411304 -0.23246671 0.29560956
0.44751415 0.38700008 0.44499648 0.38958043 -0.4378594 -0.42482275 0.46175095 -0.48673204
-0.3631021 -0.20946108 -0.5382419 -0.4821457 -0.38086203 0.38998997 0.27816743 -0.43800995
0.2774512 0.27334797 0.28594577 0.27505463 0.38245448 0.46295413 -0.44539583 0.37502927
-0.43855244 0.35411182 -0.32346863 -0.48020998 -0.34746754 -0.44911885 -0.43561074 0.4292985
-0.22721834 0.38413572 0.5174731 -0.4770373 0.32210448 0.4162085 0.2496478 -0.41226575
0.26980475 0.48449412 -0.31910712 -0.45424414 0.405906 -0.3407035 0.5769867 0.4725058
0.627516 0.4488086 0.56016666 0.552768 0.36445183 0.45457655 0.4747736 0.5167123
0.48728502 0.4375194 0.5533158 0.5575076 0.7312594 0.39894772 0.69118303 0.51844877
0.46967086 0.5989187 0.518406 0.48160523 0.5213079 0.645274 0.6804345 0.40485984
0.7242835 0.64246607 0.57029814 0.42871282 0.37313858 0.6149941 0.43279687 0.514785
0.4984005 0.42746884 0.38316634 0.5289389 0.82858074 0.4919669 0.41191715 0.4061489
0.42217004 0.420438 0.55039376 0.5563206 0.55027354 0.5048578 0.5920185 0.39675662
00000000: 791f 003f 6a65 a53e 7836 b03e a2eb e63e
00000010: da25 0c3f 0ed5 c43e 0cd6 003f 9cef 0e3f
00000020: 5c07 a13e 97ab 9e3e 7417 d33e 96d7 143f
00000030: a4ce 053f d47f 0d3f 17e8 0d3f ac26 103f
00000040: 5f16 023f 4aaf d23e b47b f03e eab4 df3e
00000050: d10a 073f bac8 0a3f 59b1 e83e ea33 063f
00000060: c8f9 313f 0b10 173f e7c1 f93e 52c4 083f
00000070: 51ac 193f 8da5 fa3e 73e6 173f f64a b23e
00000080: abdb d43e 3bd6 ea3e 22c1 cc3e 640b 0b3f
00000090: b82f ec3e 5a27 063f 9055 653f ecf7 073f
000000a0: 3cf5 b33e 0a45 033f 2af4 d93e 3472 be3e
000000b0: b4e6 173f e5e0 d73e 62a0 ec3e e878 af3e
000000c0: 5296 0e3f 5751 d83e 8462 eebd ec93 7d3d
000000d0: 183a 8ebc 4bd2 e3bd 78a7 4e3d fd57 043e
000000e0: fed6 f83d 04b6 a23d f058 25bd b4b1 50bd
000000f0: d8cd b6bc a8a8 b73d 7cdb c7bd beb8 8abd
00000100: 28b8 b33c 8083 af3a 3615 10be e8de 563d
00000110: 9494 993d 5466 59bd 36a8 a2bd 48b3 b8bc
00000120: dcb8 563d a42e e5bd 421c eb3d 26d1 f13d
00000130: 84b0 dabc 121b 86bd 487a c0bc dba6 083e
00000140: 4943 06be 381d c4bd f931 0fbe 007f 8a3c
00000150: c828 4b3d 5653 14bd dece ab3d c2ab ecbd
00000160: 084a c53c 6c97 383d 48d9 b1bd 28a1 793d
00000170: aaf0 e63d 2c94 2cbd d476 abbc 7041 c83d
00000180: f6dd 02be 5fb0 0d3e caa6 b43d d0a5 73bc
00000190: c7f0 f2be 7340 5bbe c10b 6ebe 235a 973e
000001a0: 9320 e53e e024 c63e 94d6 e33e 1677 c73e
000001b0: 1b2f e0be 5e82 d9be 9f6a ec3e f134 f9be
000001c0: 85e8 b9be f77c 56be 39ca 09bf cddb f6be
000001d0: 5900 c3be c4ac c73e f66b 8e3e d742 e0be
000001e0: 150e 8e3e 44f4 8b3e 7c67 923e f6d3 8c3e
000001f0: 13d1 c33e 5308 ed3e ec0a e4be d603 c03e
00000200: f289 e0be 254e b53e ae9d a5be 15de f5be
00000210: 44e7 b1be e8f2 e5be 5f08 dfbe 03cd db3e
00000220: edab 68be 70ad c43e 1e79 043f 3c3e f4be
00000230: e1ea a43e 4819 d53e aca3 7f3e 7f14 d3be
00000240: d923 8a3e 9d0f f83e 0262 a3be b092 e8be
00000250: e9d2 cf3e b070 aebe 66b5 133f 48ec f13e
00000260: e3a4 203f 3eca e53e 1567 0f3f 3482 0d3f
00000270: 6e99 ba3e 42be e83e 8615 f33e 4247 043f
00000280: 6c7d f93e 8b02 e03e 1ba6 0d3f d1b8 0e3f
00000290: d133 3b3f e042 cc3e 5ff1 303f 0fb9 043f
000002a0: b378 f03e bc52 193f 41b6 043f f694 f63e
000002b0: 6f74 053f ad30 253f f530 2e3f ca49 cf3e
000002c0: a56a 393f a878 243f 0fff 113f 3f80 db3e
000002d0: 050c bf3e 4170 1d3f 8d97 dd3e f3c8 033f
000002e0: 5a2e ff3e 32dd da3e 612e c43e 8a68 073f
000002f0: de1d 543f 16e3 fb3e cee6 d23e c0f2 cf3e
00000300: ac26 d83e a643 d73e 9be6 0c3f 076b 0e3f
00000310: bade 0c3f 5c3e 013f 868e 173f af23 cb3e

lstm.bias_hh_l0 f4 [200]
0.52605057 0.5215014 0.40096116 0.4802582 0.4092457 0.39958072 0.44649246 0.32960373
0.47632924 0.48154855 0.5589219 0.34457657 0.5303745 0.3282785 0.7388 0.3941281
0.6718807 0.4313982 0.4333454 0.39906523 0.4315091 0.41609636 0.5026697 0.52756125
0.6255123 0.35444498 0.5255344 0.57031435 0.3569405 0.5523761 0.49280423 0.3737991
0.56377065 0.42898175 0.39339265 0.51257974 0.42812338 0.5960447 0.9531154 0.48897597
0.41433203 0.48030356 0.51867026 0.453869 0.47789997 0.43189207 0.46944964 0.40709692
0.5870271 0.6045972 0.0496196 -0.05989003 0.011066601 -0.06606155 0.06936614 -0.05547697
-0.010457411 0.12441279 0.050709024 0.010399416 0.018940762 -0.0127776265 0.05865188 0.086768344
0.13242002 0.08503857 -0.10991973 -0.068274476 0.12169491 0.030248925 0.047413588 -0.06393507
-0.021513537 -0.036184236 0.008715853 0.07320358 0.00021910667 -0.14051066 -0.012768462 -0.09460405
-0.1237575 0.10868566 -0.049595684 -0.06512206 0.13124059 -0.0048422515 0.13485752 0.016519874
-0.0713782 -0.0031274408 -0.09394838 0.038094535 0.1071499 0.12984742 0.09232494 0.003622502
-0.11702505 0.08344154 0.14133944 -0.08379598 -0.42925626 -0.41419858 -0.38626406 0.37106404
0.43428087 0.44973633 0.42843914 0.33795616 -0.28472292 -0.45577064 0.45649493 -0.31938064
-0.464807 -0.3300608 -0.32082105 -0.24417083 -0.33792987 0.34535307 0.50186557 -0.30354476
0.4569831 0.23137632 0.4401958 0.4313779 0.3851641 0.41304287 -0.306142 0.2751764
-0.42214972 0.4782918 -0.32820165 -0.45815805 -0.315855 -0.4383794 -0.40967032 0.2629382
-0.38905066 0.44540295 0.60817844 -0.44795033 0.4839556 0.2472521 0.32583198 -0.27453417
0.4220212 0.24076098 -0.31971145 -0.31721705 0.37056753 -0.2847799 0.6408338 0.40103486
0.41954252 0.5118196 0.6402469 0.43179992 0.59402156 0.3776956 0.3619544 0.5814612
0.35376668 0.53396857 0.49411175 0.51537615 0.5991048 0.43779758 0.67330265 0.6489913
0.54770136 0.516569 0.5363356 0.4735822 0.48577237 0.6659189 0.8487869 0.5565879
0.57797384 0.46311876 0.6190862 0.42266113 0.3903952 0.40318307 0.55304456 0.42969438
0.6571202 0.5105086 0.6502981 0.50663453 0.9262139 0.6586231 0.5533642 0.36973178
0.603428 0.5012394 0.4640273 0.5008518 0.51210356 0.45901296 0.5911701 0.40348002
00000000: 40ab 063f 1e81 053f c84a cd3e 67e4 f53e
00000010: a788 d13e d895 cc3e a99a e43e d2c1 a83e
00000020: 6de1 f33e 888d f63e 8115 0f3f 576c b03e
00000030: a0c6 073f 1f14 a83e ff21 3d3f 29cb c93e
00000040: 6000 2c3f 3ae0 dc3e 73df dd3e 4752 cc3e
00000050: c3ee dc3e 950a d53e f6ae 003f 410e 073f
00000060: 9321 203f d079 b53e 6c89 063f 1f00 123f
00000070: e8c0 b63e 8568 0d3f d650 fc3e 9862 bf3e
00000080: 4653 103f 7fa3 db3e c36a c93e 6d38 033f
00000090: fd32 db3e 6396 183f 5fff 733f 0f5b fa3e
000000a0: 5423 d43e 59ea f53e 93c7 043f 8461 e83e
000000b0: 4eaf f43e f520 dd3e b45b f03e 026f d03e
000000c0: 6847 163f e2c6 1a3f ec3d 4b3d 404f 75bd
000000d0: b050 353c 474b 87bd d60f 8e3d d23b 63bd
000000e0: 9055 2bbc 22cc fe3d 44b4 4f3d 5062 2a3c
000000f0: a829 9b3c 4059 51bc f43c 703d 9ab3 b13d
00000100: 1d99 073e b428 ae3d 981d e1bd 7dd3 8bbd
00000110: 2e3b f93d 98cc f73c c034 423d 64f0 82bd
00000120: 283d b0bc ec35 14bd f0cc 0e3c c2eb 953d
00000130: 00c0 6539 07e2 0fbe d032 51bc c5bf c1bd
00000140: 9274 fdbd 9696 de3d d824 4bbd b75e 85bd
00000150: ef63 063e c0ab 9ebb 1718 0a3e b054 873c
00000160: bc2e 92bd c0f5 4cbb 0268 c0bd 0409 1c3d
00000170: 6871 db3d b9f6 043e dc14 bd3d 8067 6d3b
00000180: d4aa efbd 66e3 aa3d 49bb 103e 3a9d abbd
00000190: 7ac7 dbbe d611 d4be 67c4 c5be 1bfc bd3e
000001a0: 105a de3e d743 e63e 605c db3e 9708 ad3e
000001b0: 34c7 91be c55a e9be b4b9 e93e dc85 a3be
000001c0: 2ffb edbe bbfd a8be a842 a4be eb07 7abe
000001d0: 2505 adbe 1ed2 b03e 437a 003f 386a 9bbe
000001e0: b0f9 e93e eaed 6c3e 5861 e13e 90dd dc3e
000001f0: 3b34 c53e 5b7a d33e a5be 9cbe ece3 8c3e
00000200: 0224 d8be aae2 f43e 0c0a a8be b193 eabe
00000210: bfb7 a1be 4473 e0be 4fc0 d1be d69f 863e
00000220: a631 c7be db0b e43e 95b1 1b3f bf59 e5be
00000230: 07c9 f73e a82f 7d3e 73d3 a63e be8f 8cbe
00000240: 2a13 d83e 0c8a 763e 38b1 a3be 466a a2be
00000250: 07bb bd3e acce 91be af0d 243f 7154 cd3e
00000260: 47ce d63e 9c06 033f 39e7 233f e114 dd3e
00000270: cc11 183f 5161 c13e 1652 b93e a4da 143f
00000280: e820 b53e 2ab2 083f 37fc fc3e b1ef 033f
00000290: ef5e 193f 0127 e03e 905d 2c3f 4b24 263f
000002a0: 2836 0c3f de3d 043f 4a4d 093f 5e79 f23e
000002b0: 28b7 f83e a979 2a3f 194a 593f 8b7c 0e3f
000002c0: 18f6 133f e71d ed3e 6f7c 1e3f 0a67 d83e
000002d0: e1e1 c73e 036e ce3e 5494 0d3f e700 dc3e
000002e0: 0839 283f b1b0 023f f079 263f cdb2 013f
000002f0: 5b1c 6d3f 869b 283f 47a9 0d3f 7c4d bd3e
00000300: 427a 1a3f 3a51 003f fc94 ed3e d337 003f
00000310: 3819 033f bf03 eb3e ec56 173f ef94 ce3e

lstm.weight_ih_l1 f4 [200, 50]
-0.66799355 -0.55570817 -0.4443355 0.4006101 0.61464214 0.3672036 0.49344012 0.39688274
-0.35652268 -0.42188096 0.5315808 -0.58685374 -0.38265714 -0.5776373 -0.9673642 -0.38113502
-0.694628 0.49350426 0.4466193 -0.44202834 0.5777979 0.5461557 0.5256699 0.5693784
1.1599061 0.5051502 -0.77136844 0.514825 -0.4685489 0.39782467 -0.4835188 -0.37319195
-0.36026174 -0.65846413 -0.5350525 0.35910195 -0.36912847 0.52359724 1.8830136 -0.66578114
0.46810147 0.40971655 0.589742 -0.47510594 0.45645148 0.6624402 -0.37871772 -0.47692072
0.3908463 -0.51292175 -0.9082236 -0.5416998 -0.49404114 0.31825954 0.48675132 0.5362897
0.49478152 0.37125674 -0.5627175 -0.5434923 0.44085804 -0.43760654 -0.5427104 -0.44291767
-0.8298834 -0.56610715 -0.6456207 0.4624443 0.63007855 -0.42424825 0.45033723 0.5093258
0.5332089 0.7662906 1.1942431 0.36345795 -0.5148845 0.44208556 -0.63184655 0.4287533
-0.40953594 -0.47270036 -0.32606477 -0.7082297 -0.4475372 0.33000717 -0.5333348 0.47833306
1.9080541 -0.6388951 0.4424482 0.537084 0.39584836 -0.30506003 0.42974305 0.7330528
-0.34147504 -0.4393028 0.38843977 -0.4813303 -0.60961217 -0.58196026 -0.40206438 0.3037358
0.5575953 0.43751535 0.3362749 0.45333093 -0.46567243 -0.52643216 0.32210445 -0.519854
-0.49450836 -0.35547364 -1.056578 -0.5424686 -0.55064493 0.6189378 0.713281 -0.42408007
0.38797957 0.3520066 0.6385655 0.63733685 1.2316062 0.45007426 -0.7559213 0.5606261
-0.43181607 0.33272392 -0.48201022 -0.30968568 -0.46385676 -0.63303393 -0.5974439 0.49419218
-0.43384615 0.48643547 1.5053587 -0.60824096 0.54354846 0.45119444 0.4427088 -0.44004023
0.50540817 0.70209116 -0.52948433 -0.60447603 0.46790314 -0.45570514 -0.8211492 -0.35544226
-0.3091843 0.41709512 0.46806842 0.43514886 0.5163421 0.35203987 -0.31907874 -0.5310532
0.41774705 -0.55018127 -0.43192583 -0.4784024 -0.99436253 -0.5712828 -0.6458658 0.5697258
0.6246415 -0.5297055 0.53211516 0.48976955 0.46803534 0.6890856 1.158181 0.41815138
-0.5776274 0.6306779 -0.4402751 0.27840713 -0.3827257 -0.46130794 -0.49395493 -0.5163315
-0.68909144 0.3352962 -0.49671105 0.5932853 1.8846442 -0.5315461 0.43255535 0.42216
0.61578786 -0.33091724 0.3975062 0.7261536 -0.57680213 -0.6053443 0.2985756 -0.33702597
-0.739048 -0.3240193 -0.3214536 0.5320292 0.6469764 0.43160933 0.486861 0.5471683
-0.54952586 -0.49482477 0.40858164 -0.33186683 -0.50326884 -0.39582735 -1.0323238 -0.51348305
-0.59643066 0.3932451 0.58721095 -0.34695467 0.64530605 0.48135546 0.54726374 0.6519945
1.1224147 0.4782024 -0.5315221 0.40824425 -0.6056589 0.53751993 -0.5846179 -0.5476039
-0.45931402 -0.5648773 -0.48100227 0.48404965 -0.39157617 0.3880318 1.7723031 -0.5224485
0.58454627 0.35286832 0.4134295 -0.4258574 0.5467696 0.7517115 -0.45670578 -0.61043507
0.4826583 -0.4069688 -0.6407315 -0.43292516 -0.5206583 0.5351854 0.4612697 0.57306886
00000000: a001 2bbf e442 0ebf f17f e3be c41c cd3e
00000010: 3059 1d3f 1c02 bc3e 2fa4 fc3e 3734 cb3e
00000020: 248a b6be c800 d8be ae15 083f 0c3c 16bf
00000030: a3eb c3be 0ae0 13bf 2ea5 77bf 2124 c3be
00000040: 24d3 31bf 97ac fc3e 49ab e43e 8a51 e2be
00000050: 90ea 133f dcd0 0b3f 4d92 063f c8c2 113f
00000060: ce77 943f 8651 013f 6778 45bf 92cb 033f
00000070: a4e5 efbe adaf cb3e c78f f7be 0413 bfbe
00000080: 3a74 b8be 1b91 28bf 33f9 08bf 36dc b73e
00000090: 68fe bcbe 780a 063f 9706 f13f a270 2abf
000000a0: ffaa ef3e 5ec6 d13e 55f9 163f 1641 f3be
000000b0: 02b4 e93e ae95 293f 4ae7 c1be f42e f4be
000000c0: 021d c83e d74e 03bf 5881 68bf d7ac 0abf
000000d0: f6f2 fcbe eaf2 a23e 7837 f93e 484a 093f
000000e0: 0154 fd3e 5d15 be3e 410e 10bf 5022 0bbf
000000f0: 25b8 e13e f70d e0be 12ef 0abf 1bc6 e2be
00000100: 3d73 54bf 66ec 10bf 6647 25bf 80c5 ec3e
00000110: d44c 213f 1137 d9be 9a92 e63e 2d63 023f
00000120: 6180 083f 9f2b 443f f5dc 983f 2917 ba3e
00000130: 78cf 03bf 0a59 e23e b2c0 21bf 8d85 db3e
00000140: b2ae d1be c805 f2be f6f1 a6be 8b4e 35bf
00000150: 9923 e5be b3f6 a83e a188 08bf 12e8 f43e
00000160: 1e3b f43f a18e 23bf 9288 e23e 567e 093f
00000170: a3ac ca3e d430 9cbe 4807 dc3e 59a9 3b3f
00000180: d1d5 aebe 4cec e0be 94e1 c63e ed70 f6be
00000190: 8b0f 1cbf 59fb 14bf 62db cdbe 4283 9b3e
000001a0: 91be 0e3f 0302 e03e 392c ac3e fe1a e83e
000001b0: 9e6c eebe 42c4 06bf e0ea a43e 2715 05bf
000001c0: 3330 fdbe a400 b6be f33d 87bf 39df 0abf
000001d0: 11f7 0cbf b572 1e3f 9599 363f 0621 d9be
000001e0: 42a5 c63e 363a b43e 0779 233f 8228 233f
000001f0: 46a5 9d3f 2270 e63e 0f84 41bf 3185 0f3f
00000200: ff16 ddbe ca5a aa3e 0bca f6be 1f8f 9ebe
00000210: a27e edbe 830e 22bf 15f2 18bf c206 fd3e
00000220: 1521 debe 120e f93e 98af c03f aeb5 1bbf
00000230: fe25 0b3f f502 e73e baaa e23e f44c e1be
00000240: 6e62 013f 3fbc 333f 498c 07bf f1be 1abf
00000250: 0091 ef3e 2f52 e9be d536 52bf 87fc b5be
00000260: 684d 9ebe 7e8d d53e aaa6 ef3e d5cb de3e
00000270: ff2e 043f 923e b43e 4a5e a3be 1af3 07bf
00000280: f1e2 d53e aed8 0cbf 6225 ddbe 29f1 f4be
00000290: 8b8e 7ebf 973f 12bf 7657 25bf 8dd9 113f
000002a0: 81e8 1f3f c89a 07bf b338 083f 13c3 fa3e
000002b0: 54a2 ef3e ea67 303f 463f 943f f017 d63e
000002c0: 64df 13bf 1b74 213f bd6b e1be 618b 8e3e
000002d0: 9ff4 c3be 8e30 ecbe a9e7 fcbe 4d2e 04bf
000002e0: 4c68 30bf f2ab ab3e e950 febe 8ce1 173f
000002f0: 053c f13f 6813 08bf e577 dd3e 5b25 d83e
00000300: 46a4 1d3f fc6d a9be ef85 cb3e 34e5 393f
00000310: 4ea9 13bf d8f7 1abf e7de 983e ab8e acbe
00000320: 4032 3dbf dce5 a5be 9195 a4be 1133 083f
00000330: 3fa0 253f e6fb dc3e d845 f93e 3913 0c3f
00000340: baad 0cbf ac59 fdbe 9d31 d13e 73ea a9be
00000350: 3ad6 00bf e2a9 cabe 3023 84bf a073 03bf
00000360: aeaf 18bf 6c57 c93e 7553 163f 0ba4 b1be
00000370: c732 253f 3974 f63e 7a19 0c3f 1de9 263f
00000380: 49ab 8f3f f2d6 f43e d511 08bf 6405 d13e
00000390: 760c 1bbf e89a 093f 85a9 15bf c52f 0cbf
000003a0: 352b ebbe cc9b 10bf ee45 f6be 5bd5 f73e
000003b0: ac7c c8be 1bac c63e d4da e23f 2fbf 05bf
000003c0: d3a4 153f 28ab b43e 08ad d33e fb09 dabe
000003d0: 18f9 0b3f 2a70 403f 57d5 e9be 7945 1cbf
000003e0: fd1e f73e 375e d0be fb06 24bf 5ea8 ddbe
000003f0: dd49 05bf e901 093f 8b2b ec3e a4b4 123f

lstm.weight_hh_l1 f4 [200, 50]
-0.001181528 0.08249937 0.009953335 -0.031934604 0.10524918 -0.04889284 0.03534454 0.06685254
0.09154114 0.07641712 0.06600411 0.0055457503 0.046262383 0.092428446 -0.04694114 -0.05140225
0.114042625 -0.046750247 0.12092544 -0.021848641 -0.061928444 -0.04720872 -0.028689869 0.13407628
0.10008827 -0.091753796 -0.12849377 0.13121594 0.0063656867 0.027201027 0.13494931 -0.114432186
0.08081742 -0.08941031 0.081151694 -0.118003376 0.046229616 -0.111112654 -0.078158066 0.06570242
-0.017676793 -0.020798124 0.11877181 -0.07259441 -0.092889756 0.053114742 -0.051698796 -0.04603736
0.01832208 0.025548533 -0.06717957 -0.034850217 -0.02875892 -0.11238968 -0.122247376 0.11959116
-0.055046752 0.08934024 0.112865254 0.051426724 -0.10165554 0.13576497 0.13914283 0.06059107
0.025881201 0.12532537 -0.1337074 0.13107722 -0.13428539 0.054034725 -0.010715902 0.06952137
0.12952082 0.11819036 -0.101452306 0.0024312437 -0.007992968 -0.00048169494 0.118766025 -0.08064483
0.090413004 -0.06351092 -0.13771498 0.066596135 -0.004339576 -0.074556045 -0.12025392 -0.045664042
-0.012917429 -0.03793446 -0.0035987198 0.10818347 -0.052610025 0.087849036 -0.10853697 0.040660903
-0.13446227 -0.12693927 -0.09740919 -0.08548027 -0.017522685 -0.070611015 0.032604933 -0.032713763
-0.030793466 -0.041352667 -0.016613983 0.07114458 0.00044462085 0.051190615 -0.06405416 0.13786168
-0.014201596 0.09362319 0.014995396 0.06949495 0.085840896 -0.13786153 -0.123337716 -0.12641287
0.032975167 0.015640512 0.013511285 -0.072182246 0.039817795 -0.03226377 -0.0038299412 0.06453122
-0.02703125 -0.058854893 0.067435056 -0.14071165 -0.026045121 -0.0728407 0.027449518 0.11801584
-0.07487708 -0.115862414 0.024646118 0.13110404 0.012811884 0.013213769 -0.048031442 0.027867973
-0.01791878 0.06013912 0.004306555 0.10169324 -0.06670919 -0.110338226 0.028182104 0.041270286
0.01239863 0.1102352 -0.09617369 -0.059220217 0.054571018 0.037250385 0.08263342 -0.058875337
-0.030128308 -0.13660902 -0.10528069 -0.03426183 0.09135735 0.13642018 0.034040228 0.07972236
-0.0056813806 -0.09953653 -0.13918716 0.08053656 0.042036757 0.0057887286 -0.14007784 -0.08326584
-0.058394514 0.10474059 0.035169035 -0.11101981 -0.1000344 -0.012047216 -0.023562178 -0.13086618
-0.06986739 0.09305778 -0.07271931 0.08682875 0.12392603 0.10635328 0.006228432 0.11495121
-0.09514547 0.09140682 0.13128145 0.022082567 -0.13116139 -0.021134086 0.12849458 0.14137064
0.12147282 -0.09308998 0.1022473 0.13368697 -0.11838187 -0.05691039 -0.053699084 0.008222789
-0.09441468 0.12706135 -0.13680999 0.12314327 0.027820244 0.08692609 -0.049929924 -0.13280609
0.124297336 -0.0012168586 0.094126925 -0.0428212 0.12686975 0.11016558 0.08154598 -0.015495673
-0.049795814 -0.092861 0.10874505 0.055497646 -0.13803214 0.019367263 -0.10596849 0.13446377
0.0722245 0.0584206 0.073105276 -0.034500144 0.010712281 -0.022309914 -0.093903154 -0.02246911
-0.089874536 0.08152276 -0.12215034 -0.027658328 0.12553348 0.014583573 0.13272281 0.07800311
-0.05481734 -0.04734 -0.055366397 -0.09677942 -0.06509321 0.012220144 0.01450938 0.06026128
00000000: 80dd 9aba 6ef5 a83d 5013 233c dccd 02bd
00000010: e28c d73d dc43 48bd 70c5 103d fce9 883d
00000020: ec79 bb3d 9480 9c3d 2a2d 873d 20b9 b53b
00000030: a07d 3d3d 204b bd3d 5a45 40bd 2a8b 52bd
00000040: 2e8f e93d 307d 3fbd c2a7 f73d ecfb b2bc
00000050: aea8 7dbd ee5d 41bd 0407 ebbc 4b4b 093e
00000060: 14fb cc3d 6ae9 bbbd df93 03be 795d 063e
00000070: 4097 d03b b0d4 de3c 2730 0a3e 6c5b eabd
00000080: 9a83 a53d c11c b7bd dc32 a63d c1ab f1bd
00000090: 445b 3d3d 088f e3bd 5611 a0bd fe8e 863d
000000a0: ecce 90bc d460 aabc a23e f33d 61ac 94bd
000000b0: fc3c bebd d88e 593d 1ec2 53bd ac91 3cbd
000000c0: 3018 963c 284b d13c 7195 89bd 1abf 0ebd
000000d0: d497 ebbc 902c e6bd d55c fabd 36ec f43d
000000e0: b478 61bd 04f8 b63d e625 e73d d4a4 523d
000000f0: c830 d0bd f905 0b3e 757b 0e3e 582e 783d
00000100: d004 d43c 4b55 003e 98ea 08be 1b39 063e
00000110: 1c82 09be 8453 5d3d c091 2fbc 3861 8e3d
00000120: 1ba1 043e ca0d f23d 3ac6 cfbd 8055 1f3b
00000130: f0f4 02bc 008c fcb9 9a3b f33d 1e29 a5bd
00000140: 742a b93d 0312 82bd 2805 0dbe 8e63 883d
00000150: 0033 8ebb d7b0 98bd b047 f6bd 380a 3bbd
00000160: a0a3 53bc 2a61 1bbd 80d8 6bbb 4c8f dd3d
00000170: 9c7d 57bd 32ea b33d a248 debd 0c8c 263d
00000180: 7ab0 09be 5efc 01be 787e c7bd 4810 afbd
00000190: bc8b 8fbc 829c 90bd c08c 053d defe 05bd
000001a0: 9442 fcbc 6a61 29bd 0c1a 88bc 40b4 913d
000001b0: 001c e939 40ad 513d d42e 83bd 9d2b 0d3e
000001c0: d0ad 68bc 84bd bf3d 40af 753c 5e53 8e3d
000001d0: 5acd af3d 932b 0dbe 7c98 fcbd 6072 01be
000001e0: f810 073d 8820 803c 705e 5d3c 49d4 93bd
000001f0: fc17 233d 0427 04bd c0ff 7abb f228 843d
00000200: a470 ddbc d411 71bd 641b 8a3d b716 10be
00000210: 945c d5bc 812d 95bd d0dd e03c 4ab2 f13d
00000220: 2859 99bd 4649 edbd a8e6 c93c 2340 063e
00000230: f0e8 513c 907e 583c 9ebc 44bd 604b e43c
00000240: 68ca 92bc 7054 763d 001e 8d3b 8c44 d03d
00000250: d49e 88bd 02f9 e1bd 28de e63c 080b 293d
00000260: a023 4b3c fec2 e13d b6f6 c4bd e690 72bd
00000270: dc85 5f3d dc93 183d b63b a93d 4427 71bd
00000280: a4cf f6bc 3ce3 0bbe 679d d7bd 2256 0cbd
00000290: 9019 bb3d bbb1 0b3e c46d 0b3d 7a45 a33d
000002a0: e02a babb cfd9 cbbd 1487 0ebe 5af0 a43d
000002b0: bc2e 2c3d 60af bd3b 9170 0fbe 4887 aabd
000002c0: 162f 6fbd 3c82 d63d 680d 103d 5b5e e3bd
000002d0: d6de ccbd b061 45bc 7805 c1bc c901 06be
000002e0: a216 8fbd 1495 be3d dded 94bd 46d3 b13d
000002f0: eecc fd3d c0cf d93d e017 cc3b 8a6b eb3d
00000300: a1db c2bd 8033 bb3d a56e 063e 80e6 b43c
00000310: 2c4f 06be 6421 adbc 1594 033e 77c3 103e
00000320: bec6 f83d f6a5 bebd 0867 d13d 3de5 083e
00000330: 3272 f2bd de1a 69bd 92f3 5bbd e0b8 063c
00000340: 7c5c c1bd 5f1c 023e eb17 0cbe 8a32 fc3d
00000350: 48e7 e33c 4e06 b23d 5283 4cbd 52fe 07be
00000360: 9a8f fe3d 007f 9fba 9ec5 c03d 4865 2fbd
00000370: 25ea 013e 7e9e e13d 9401 a73d 90e1 7dbc
00000380: b2f6 4bbd e82d bebd bab5 de3d 8051 633d
00000390: 4c58 0dbe 18a8 9e3c 0206 d9bd dfb0 093e
000003a0: 70ea 933d 704a 6f3d 38b8 953d 0650 0dbd
000003b0: 9082 2f3c 48c3 b6bc 4c50 c0bd 2411 b8bc
000003c0: 2410 b8bd 68f5 a63d f529 fabd b893 e2bc
000003d0: d98b 003e f0ef 6e3c 7de8 073e 18c0 9f3d
000003e0: 2688 60bd 96e7 41bd e0c7 62bd 4a34 c6bd
000003f0: 974f 85bd 0037 483c c0b8 6d3c 88d4 763d

lstm.bias_ih_l1 f4 [200]
0.28679276 0.39951533 0.33188373 0.34707525 0.33167312 0.4039097 0.3914153 0.45609963
0.48597276 0.2073566 0.34367105 0.4862746 0.4989824 0.3773063 0.3318035 0.44777912
0.29757813 0.49557638 0.44042727 0.43629858 0.31940633 0.28335387 0.247117 0.31502673
0.40036717 0.47511742 0.38843757 0.4422739 0.37713873 0.35290545 0.4762847 0.493631
0.52057624 0.51393056 0.43304974 0.4887068 0.3709909 0.41080484 0.4084152 0.28627855
0.33469632 0.31464744 0.44402224 0.30849832 0.3482703 0.38576058 0.22848146 0.2995958
0.28395927 0.241571 -0.12091218 -0.04662902 -0.01928515 0.023191512 -0.103089124 0.13547744
-0.13847937 0.11696081 -0.047024556 0.036542296 0.10876186 0.105244905 0.060543552 0.07080299
0.09559919 -0.061397843 -0.006639555 0.07064803 -0.10467531 0.051358253 -0.07109413 -0.018909894
-0.01877153 -0.014615685 0.11172216 0.06680545 -0.061260045 0.06694637 0.06370431 0.049365103
0.050999984 0.12367205 0.056288585 -0.13598284 0.000926882 -0.004450485 0.066535115 -0.049519986
-0.09087011 0.015664414 -0.014279306 -0.003309399 0.06442161 0.13755985 0.057620183 -0.12055233
0.064857215 -0.05117034 0.024399087 0.046631515 0.28159353 0.35493368 -0.072409116 -0.30961525
0.32733822 -0.28630456 0.30418703 -0.3082724 -0.08516123 -0.3017048 -0.16120853 0.27108717
0.12479069 -0.2677922 -0.1954825 0.354979 -0.04943357 -0.081597924 -0.28725907 0.08747683
-0.18036129 0.17357147 -0.32725346 0.0923041 0.06688702 -0.19221133 0.34554124 0.15880069
-0.24215691 0.21730939 -0.13041455 -0.13972208 -0.17666885 0.27084157 -0.11168881 0.15756105
-0.36771342 -0.20264609 0.2701094 -0.24045888 -0.18523836 0.27937004 -0.37246096 -0.24786524
0.34549573 0.093663946 0.31893122 0.21443573 -0.12321007 -0.21481122 0.28391212 0.51095206
0.28590629 0.28577211 0.4899769 0.2477309 0.3865511 0.36019486 0.5092634 0.33530656
0.37168267 0.21530694 0.35685328 0.3640508 0.40828595 0.39487177 0.3281901 0.3385263
0.48084834 0.52077425 0.22463092 0.2695342 0.31777817 0.25164792 0.31695703 0.3865676
0.26934788 0.43269098 0.44172254 0.47343022 0.44449943 0.2513823 0.36633146 0.47343528
0.39202163 0.32762375 0.39568746 0.41254786 0.32738188 0.44407806 0.24576452 0.3904508
0.47200847 0.25968766 0.3993064 0.42418712 0.27554658 0.31169903 0.3176891 0.3388235
00000000: 80d6 923e 468d cc3e aaec a93e d9b3 b13e
00000010: 0fd1 a93e 41cd ce3e 9667 c83e e485 e93e
00000020: 6cd1 f83e 4a55 543e a7f5 af3e fcf8 f83e
00000030: 9f7a ff3e 4b2e c13e 26e2 a93e 4e43 e53e
00000040: 295c 983e 30bc fd3e af7f e13e 8762 df3e
00000050: 3a89 a33e c213 913e 3d0c 7d3e 2f4b a13e
00000060: edfc cc3e 9742 f33e 4ae1 c63e ba71 e23e
00000070: 5418 c13e 06b0 b43e 97db f33e 34bd fc3e
00000080: 7c44 053f f490 033f b2b8 dd3e c737 fa3e
00000090: 85f2 bd3e 0355 d23e cc1b d13e 1a93 923e
000000a0: 515d ab3e 7819 a13e e256 e33e 7ef3 9d3e
000000b0: 7c50 b23e 6982 c53e 0bf7 693e 9f64 993e
000000c0: 1c63 913e 635e 773e cea0 f7bd 12fe 3ebd
000000d0: e4fb 9dbc 20fc bd3c 6420 d3bd 99ba 0a3e
000000e0: 89cd 0dbe 2689 ef3d d29c 40bd 60ad 153d
000000f0: 8abe de3d a48a d73d 84fc 773d 2801 913d
00000100: 82c9 c33d 4e7c 7bbd a090 d9bb eaaf 903d
00000110: 0260 d6bd 085d 523d cd99 91bd ece8 9abc
00000120: c0c6 99bc a076 6fbc 96ce e43d 4cd1 883d
00000130: d0eb 7abd 2e1b 893d 6877 823d 1033 4a3d
00000140: 5ce5 503d c647 fd3d dc8e 663d 163f 0bbe
00000150: 00fa 723a 60d5 91bb 9043 883d 78d5 4abd
00000160: 1c1a babd a852 803c c0f3 69bc 80e2 58bb
00000170: 7aef 833d 7ddc 0c3e 2403 6c3d 24e4 f6bd
00000180: dcd3 843d fe97 51bd 98e0 c73c b000 3f3d
00000190: 072d 903e deb9 b53e 3b4b 94bd e485 9ebe
000001a0: e098 a73e 8396 92be 67be 9b3e e1d5 9dbe
000001b0: 0369 aebd 0d79 9abe d913 25be f0cb 8a3e
000001c0: 4392 ff3d 0f1c 89be 912c 48be cfbf b53e
000001d0: db7a 4abd d01c a7bd 9f13 93be 0d27 b33d
000001e0: a1b0 38be b8bc 313e c48d a7be ef09 bd3d
000001f0: 10fc 883d 0cd3 44be c8ea b03e a69c 223e
00000200: fbf7 77be 5a86 5e3e 648b 05be 4e13 0fbe
00000210: aee8 34be bfab 8a3e 1abd e4bd af57 213e
00000220: ef44 bcbe 7582 4fbe c74b 8a3e da3a 76be
00000230: 20af 3dbe 9709 8f3e 34b3 bebe 63d0 7dbe
00000240: d1e4 b03e e2d2 bf3d f44a a33e 0a95 5b3e
00000250: 9055 fcbd 79f7 5bbe ee5c 913e c1cd 023f
00000260: 4f62 923e b950 923e 41de fa3e 2bad 7d3e
00000270: 07ea c53e 766b b83e 165f 023f 4dad ab3e
00000280: 314d be3e 6c79 5c3e 79b5 b63e de64 ba3e
00000290: db0a d13e a22c ca3e 8808 a83e 5253 ad3e
000002a0: c131 f63e 7651 053f a605 663e 6300 8a3e
000002b0: d2b3 a23e ffd7 803e 3148 a23e 30ec c53e
000002c0: f7e7 893e ac89 dd3e 7529 e23e 7265 f23e
000002d0: 6e95 e33e 2eb5 803e cc8f bb3e 1c66 f23e
000002e0: 0fb7 c83e 4dbe a73e 8c97 ca3e 7939 d33e
000002f0: 999e a73e 335e e33e b2a9 7b3e 2be9 c73e
00000300: 18ab f13e c8f5 843e e371 cc3e 0e2f d93e
00000310: 7114 8d3e 0497 9f3e 25a8 a23e 467a ad3e

lstm.bias_hh_l1 f4 [200]
0.28478584 0.31845525 0.3327824 0.33748248 0.25411862 0.402967 0.40853235 0.27559945
0.4653836 0.45622623 0.34363595 0.4260973 0.34404793 0.45708838 0.46890646 0.27521452
0.2943847 0.40065724 0.30276555 0.46540424 0.2842595 0.4640808 0.3425848 0.3851246
0.36076352 0.36110836 0.34955055 0.24004084 0.4247797 0.26038384 0.47850853 0.48056886
0.4838154 0.24954817 0.26513 0.23498556 0.24402763 0.28756157 0.4154941 0.4090622
0.27806154 0.25123596 0.32396373 0.497934 0.29573512 0.4341577 0.39214882 0.33314645
0.44172218 0.24375199 0.023167089 -0.039883494 0.115738705 0.08401808 0.026344657 0.033127442
-0.019273989 -0.14091198 -0.06863028 -0.12000823 -0.008043498 0.103814274 0.0051590204 0.093123466
-0.10372734 0.094610244 -0.09201799 0.13322274 0.13689075 -0.12887277 0.04416354 0.03125353
0.09501974 -0.075018 0.027836442 -0.10788036 -0.104506955 -0.05484079 -0.12161863 0.12704517
-0.058967926 -0.08913374 -0.123678215 0.121125475 0.087399825 0.08045314 -0.02810996 0.07404068
-0.075061634 -0.088490315 -0.029861502 -0.016294703 0.044106588 0.08445139 0.008996308 0.1413842
0.0990071 0.11180036 -0.14055763 -0.08305615 0.29276147 0.27525204 -0.27597994 -0.1978266
0.10454647 -0.16684932 0.22241035 -0.21965557 -0.08481755 -0.29004163 -0.2126805 0.13962995
0.332238 -0.3377134 -0.2608499 0.08417155 -0.14764184 -0.17269272 -0.31698877 0.005433024
-0.35191935 0.28553608 -0.34511328 0.2626735 0.22773372 -0.07603017 0.17791295 0.3589865
-0.29720965 0.16927217 -0.20862836 -0.3286038 -0.093920186 0.26573 -0.332576 0.22738363
-0.27978876 -0.12977429 0.2801921 -0.25206733 -0.26554623 0.103757136 -0.1185433 -0.23573324
0.24453169 0.26857656 0.29713932 0.24501984 -0.29821098 -0.3093382 0.4796927 0.32784042
0.45098293 0.46792564 0.29391554 0.40698674 0.4346567 0.32956028 0.44522366 0.49795538
0.27665737 0.46199757 0.40679166 0.25344157 0.32463548 0.31259358 0.4271539 0.4251828
0.3464797 0.43953675 0.4796951 0.38091004 0.27358833 0.2731002 0.30467004 0.3272336
0.43393588 0.40323704 0.31913245 0.5052486 0.34043586 0.49816096 0.41627175 0.28089356
0.3565023 0.3568594 0.3091032 0.45465156 0.44721496 0.3212919 0.2386792 0.363051
0.32794905 0.3319391 0.23672223 0.30041325 0.2654682 0.32647386 0.3799024 0.30530745
00000000: 73cf 913e 910c a33e 7462 aa3e 81ca ac3e
00000010: d61b 823e b151 ce3e 272b d13e 5f1b 8d3e
00000020: c246 ee3e 7c96 e93e 0df1 af3e 6d29 da3e
00000030: 0d27 b03e 7d07 ea3e 8214 f03e ebe8 8c3e
00000040: 97b9 963e f222 cd3e 1604 9b3e 7749 ee3e
00000050: 768a 913e 009c ed3e 4667 af3e 0d2f c53e
00000060: ffb5 b83e 32e3 b83e 4af8 b23e 44cd 753e
00000070: ba7c d93e 0851 853e 12ff f43e 1f0d f63e
00000080: a7b6 f73e 8e89 7f3e 1fbf 873e 0ea0 703e
00000090: 61e2 793e 453b 933e a5bb d43e 9a70 d13e
000000a0: 155e 8e3e 00a2 803e 93de a53e 35f1 fe3e
000000b0: 986a 973e eb49 de3e bbc7 c83e 2c92 aa3e
000000c0: 6929 e23e 1f9a 793e e8c8 bd3c e05c 23bd
000000d0: 6a08 ed3d ac11 ac3d c0d0 d73c a4b0 073d
000000e0: 7ce4 9dbc 3b4b 10be 088e 8cbd e0c6 f5bd
000000f0: e0c8 03bc 949c d43d 000d a93b 84b7 be3d
00000100: 006f d4bd 04c3 c13d ee73 bcbd 8b6b 083e
00000110: 172d 0c3e 39f7 03be d4e4 343d b403 003d
00000120: b699 c23d 0aa3 99bd 4009 e43c 61f0 dcbd
00000130: be07 d6bd bca0 60bd 3013 f9bd 2118 023e
00000140: 5a88 71bd c08b b6bd 014b fdbd a210 f83d
00000150: aefe b23d 9ec4 a43d dc46 e6bc a4a2 973d
00000160: eab9 99bd 693a b5bd 1ca0 f4bc 787c 85bc
00000170: 1ca9 343d daf4 ac3d 4065 133c 05c7 103e
00000180: 3cc4 ca3d 96f7 e43d 57ee 0fbe 5819 aabd
00000190: d5e4 953e d6ed 8c3e 3e4d 8dbe 0e93 4abe
000001a0: 761c d63d 8cda 2abe 8abf 633e 64ed 60be
000001b0: d3b4 adbd 5680 94be ebc8 59be 27fb 0e3e
000001c0: 191b aa3e c5e8 acbe 1e8e 85be 2262 ac3d
000001d0: 6c2f 17be 5cd6 30be 5a4c a2be 8207 b23b
000001e0: c62e b4be c931 923e b0b2 b0be 247d 863e
000001f0: 0733 693e b5b5 9bbd d02e 363e 14cd b73e
00000200: dd2b 98be af55 2d3e aca2 55be c23e a8be
00000210: 3a59 c0bd c30d 883e 6747 aabe 41d7 683e
00000220: 7940 8fbe 8de3 04be 5775 8f3e f80e 81be
00000230: adf5 87be 9f7e d43d d4c6 f2bd 0e64 71be
00000240: 8466 7a3e de82 893e a522 983e 7be6 7a3e
00000250: 1caf 98be 9461 9ebe 489a f53e b3da a73e
00000260: 3ce7 e63e f393 ef3e 197c 963e 9160 d03e
00000270: 538b de3e 20bc a83e 5bf4 e33e 02f4 fe3e
00000280: 09a6 8d3e f28a ec3e ff46 d03e 18c3 813e
00000290: 9f36 a63e 440c a03e eab3 da3e 8fb1 d93e
000002a0: ca65 b13e f60a e13e 999a f53e a406 c33e
000002b0: c513 8c3e cad3 8b3e b6fd 9b3e 2a8b a73e
000002c0: d82c de3e 1675 ce3e 5465 a33e f957 013f
000002d0: 9c4d ae3e f40e ff3e 9221 d53e 48d1 8f3e
000002e0: 7887 b63e 46b6 b63e c642 9e3e 17c8 e83e
000002f0: 5cf9 e43e 5f80 a43e 5268 743e d2e1 b93e
00000300: f0e8 a73e ecf3 a93e 5067 723e c4cf 993e
00000310: 73eb 873e 9527 a73e 9182 c23e 4251 9c3e

fc.weight f4 [1, 50]
148.08737 148.05725 -148.11154 -148.0976 148.08246 -148.02744 148.10242 -148.134
-148.1041 -148.065 -148.05411 148.06729 148.05417 -148.1518 -148.1333 148.0969
-148.12125 -148.09439 -148.04391 148.85153 -148.10187 148.03604 -148.0405 148.09851
148.05484 -148.06 148.0386 148.01578 -148.07617 148.01886 -148.0877 -148.09546
-148.2024 148.056 -148.13907 148.12402 -148.04028 -148.11957 148.04391 -148.09586
-148.09094 148.04883 -148.00711 -148.05673 148.08792 148.11728 148.07013 148.12762
-148.1135 -148.0551
00000000: 5e16 1443 a80e 1443 8e1c 14c3 fc18 14c3
00000010: 1c15 1443 0607 14c3 381a 1443 4e22 14c3
00000020: a61a 14c3 a410 14c3 da0d 14c3 3a11 1443
00000030: de0d 1443 dc26 14c3 2022 14c3 ce18 1443
00000040: 0a1f 14c3 2a18 14c3 3e0b 14c3 fed9 1443
00000050: 141a 14c3 3a09 1443 5e0a 14c3 3819 1443
00000060: 0a0e 1443 5c0f 14c3 e209 1443 0a04 1443
00000070: 8013 14c3 d404 1443 7416 14c3 7018 14c3
00000080: d033 14c3 560e 1443 9a23 14c3 c01f 1443
00000090: 500a 14c3 9c1e 14c3 3e0b 1443 8a18 14c3
000000a0: 4817 14c3 800c 1443 d201 14c3 860e 14c3
000000b0: 8216 1443 061e 1443 f411 1443 ac20 1443
000000c0: 0e1d 14c3 1b0e 14c3
