save/model_20240611_170046.pth (torch, 62844 bytes, 9 tensors)

lstm.weight_ih_l0 f4 [128, 15]
0.44652545 0.47111228 0.47410703 0.50675875 0.41185242 0.4685924 0.52832925 0.40153292
0.34270716 0.58256346 0.6279492 0.3819316 0.46823373 0.47232172 0.35914198 0.38701886
0.3736824 0.3630422 0.5601292 0.5225114 0.38485324 0.26114136 0.57787365 0.4780883
0.4038183 0.6419614 0.35901955 0.30493575 0.61894506 0.5976916 0.5970995 0.49149373
0.5726833 0.5498656 0.48645258 0.49038896 0.2500412 0.56861085 0.59433067 0.55269605
0.5724688 0.6160013 0.24875654 0.33857286 0.48583657 0.32579738 0.6062433 0.45269507
0.5049091 0.4879755 0.4599645 0.3291332 0.5151941 0.61230373 0.39162365 0.5561
0.4103826 0.46054053 0.42324808 0.5665528 0.3912816 0.5138658 0.40779412 0.45232624
0.2996019 0.41200975 0.22993176 0.42645612 0.43218973 0.32851982 0.57083374 0.48085123
0.34792808 0.38425794 0.3482967 0.35531768 0.541326 0.40875185 0.6374532 0.44972065
0.39605966 0.30879092 0.29289177 0.47271618 0.62345463 0.37733024 0.3109913 0.42977577
0.48905733 0.32184836 0.49352056 0.53554344 0.3840039 0.4187599 0.4767284 0.47103718
0.2737505 0.60262907 0.47269872 0.35104597 0.56487024 0.5953874 0.58388877 0.34831807
0.33407202 0.38263962 0.6231701 0.5105166 0.52913284 0.32581475 0.40849447 0.34469968
0.503528 0.48020095 0.42481235 0.57390606 0.6166929 0.42251307 0.48341477 0.5173426
0.53006035 0.4724187 0.37364602 0.5366706 0.60742503 0.54610896 0.5513408 0.57997173
0.6724705 0.43422687 0.6477091 0.46547294 0.38331944 0.61549324 0.4777909 0.42287752
0.50250083 0.6061002 0.37061235 0.5364105 0.3820753 0.47907147 0.45922938 0.5590926
0.3853453 0.64136636 0.54599017 0.54448056 0.6130493 0.66560006 0.4954869 0.33179507
0.61287206 0.62315154 0.45663643 0.4998057 0.28504333 0.36152506 0.6371075 0.32268688
0.50663084 0.40640116 0.30987784 0.426443 0.32943878 0.46287668 0.64095914 0.679318
0.6364822 0.44786057 0.5356592 0.30421075 0.5497392 0.5609717 0.5895074 0.57652706
0.35308674 0.47135988 0.49272972 0.55581963 0.3873031 0.53701586 0.32379383 0.31069174
0.29517597 0.29915062 0.36150518 0.5685074 0.4296636 0.45828548 0.5631596 0.29596514
0.23829946 0.60609835 0.47509408 0.6549415 1.2024333 1.0213289 0.78900814 0.8846829
0.37986293 0.5015146 0.7899421 0.8659256 0.9728194 1.0176176 0.8268296 0.7507032
0.94126385 0.93351024 0.49510482 0.71900463 0.6062514 0.40316758 0.5418212 0.40549263
0.5274257 0.501143 0.5497145 0.6283755 0.37281123 0.5887848 0.39558923 0.59228694
0.60889786 0.5850442 0.4200169 0.42861146 0.46539432 0.5032527 0.4947801 0.2688086
0.55393785 0.4803583 0.4607562 0.616806 0.6390363 0.4468581 0.41043663 0.59811246
0.36871678 0.34906483 0.56090796 0.40146598 0.34621033 0.54155856 0.5402438 0.5420711
0.5125193 0.4137041 0.47999573 0.60995036 0.31265575 0.6053322 0.32580963 0.6140906
00000000: fc9e e43e a135 f13e 28be f23e f1ba 013f
00000010: 52de d23e 58eb ef3e 9640 073f b995 cd3e
00000020: 5077 af3e e122 153f 47c1 203f 8a8c c33e
00000030: 55bc ef3e 27d4 f13e 75e1 b73e 5627 c63e
00000040: 4d53 bf3e abe0 b93e a164 0f3f 4fc3 053f
00000050: 7c0b c53e 52b4 853e 87ef 133f fdc7 f43e
00000060: 46c1 ce3e 9557 243f 69d1 b73e 8a20 9c3e
00000070: 2f73 1e3f 5102 193f 83db 183f 11a5 fb3e
00000080: 5f9b 123f fec3 0c3f 5010 f93e 4314 fb3e
00000090: 6605 803e 7b90 113f 0e26 183f 7d7d 0d3f
000000a0: 518d 123f 43b2 1d3f 09ba 7e3e 6c59 ad3e
000000b0: 92bf f83e eace a63e c332 1b3f a6c7 e73e
000000c0: b941 013f edd7 f93e 7880 eb3e 2684 a83e
000000d0: c3e3 033f f0bf 1c3f e582 c83e 925c 0e3f
000000e0: ab1d d23e f8cb eb3e f9b3 d83e 9b09 113f
000000f0: 1056 c83e b68c 033f 64ca d03e 4e97 e73e
00000100: 6c65 993e f1f2 d23e 3b73 6b3e 7558 da3e
00000110: f947 dd3e c033 a83e 2922 123f 2232 f63e
00000120: a123 b23e 75bd c43e f253 b23e 33ec b53e
00000130: 5794 0a3f ec47 d13e 2230 233f c941 e63e
00000140: 55c8 ca3e d819 9e3e e9f5 953e db07 f23e
00000150: b99a 1f3f 6e31 c13e 403a 9f3e 920b dc3e
00000160: b965 fa3e 4fc9 a43e baae fc3e 6019 093f
00000170: 299c c43e b367 d63e bf15 f43e c92b f13e
00000180: 0729 8c3e e645 1a3f 9105 f23e 4cbc b33e
00000190: 569b 103f 4f6b 183f bc79 153f bf56 b23e
000001a0: 7d0b ab3e 57e9 c33e 1388 1f3f 37b1 023f
000001b0: 4075 073f 31d1 a63e 3026 d13e 7a7c b03e
000001c0: 36e7 003f e6dc f53e 0181 d93e 82eb 123f
000001d0: 96df 1d3f a253 d83e 2482 f73e 9170 043f
000001e0: 09b2 073f dde0 f13e 884e bf3e 3f63 093f
000001f0: 3580 1b3f cccd 0b3f ac24 0d3f 0779 143f
00000200: 0727 2c3f fc52 de3e 43d0 253f 7852 ee3e
00000210: 7242 c43e f790 1d3f 02a1 f43e 6783 d83e
00000220: e5a3 003f 6229 1b3f e7c0 bd3e 3352 093f
00000230: 609f c33e db48 f53e 1d20 eb3e b120 0f3f
00000240: fb4b c53e 9630 243f 03c6 0b3f 1463 0b3f
00000250: cdf0 1c3f c464 2a3f 75b0 fd3e 0be1 a93e
00000260: 2fe5 1c3f dc86 1f3f 40cc e93e 88e6 ff3e
00000270: 33f1 913e d019 b93e 7a19 233f 3737 a53e
00000280: 8fb2 013f d013 d03e 4fa8 9e3e bd56 da3e
00000290: 33ac a83e 2cfe ec3e e615 243f c9e7 2d3f
000002a0: 7ff0 223f fb4d e53e f620 093f 83c1 9b3e
000002b0: b5bb 0c3f d79b 0f3f f5e9 163f 4797 133f
000002c0: c9c7 b43e 1556 f13e 1247 fc3e 324a 0e3f
000002d0: 984c c63e df79 093f 4ec8 a53e fd12 9f3e
000002e0: 4e21 973e 452a 993e 3517 b93e b389 113f
000002f0: defc db3e 65a4 ea3e 3a2b 103f be88 973e
00000300: c604 743e 4329 1b3f 883f f33e 3faa 273f
00000310: 56e9 993f e8ba 823f 70fc 493f 947a 623f
00000320: 657d c23e 4363 003f a539 4a3f 4dad 5d3f
00000330: b10a 793f 4b41 823f 1bab 533f 162e 403f
00000340: abf6 703f 87fa 6e3f 617e fd3e b010 383f
00000350: 4b33 1b3f fb6b ce3e cbb4 0a3f bb9c cf3e
00000360: 5f05 073f e84a 003f 17ba 0c3f 37dd 203f
00000370: 1de1 be3e 9aba 163f ac8a ca3e 1ea0 173f
00000380: bbe0 1b3f 75c5 153f 750c d73e f672 db3e
00000390: 2a48 ee3e 2bd5 003f d153 fd3e 48a1 893e
000003a0: dfce 0d3f 86f1 f53e 3de8 eb3e ffe6 1d3f
000003b0: e297 233f 96ca e43e c024 d23e e61d 193f
000003c0: 72c8 bc3e a0b8 b23e aa97 0f3f f38c cd3e
000003d0: 7b42 b13e 95a3 0a3f 6b4d 0a3f 2cc5 0a3f
000003e0: 7734 033f 06d1 d33e 00c2 f53e b525 1c3f
000003f0: 6a14 a03e 0df7 1a3f 85d0 a63e 0b35 1d3f

lstm.weight_hh_l0 f4 [128, 32]
0.11917819 -0.12532192 -0.07862345 -0.07545569 0.046974033 -0.14650573 -0.124261655 -0.11301557
-0.10153393 0.04057078 -0.13642144 0.12426154 0.1408756 -0.15998912 0.102697864 -0.093304396
-0.08710409 0.10547118 -0.14234842 0.057416588 -0.14204922 0.15552352 0.15112902 0.08767934
0.16480763 -0.09826788 -0.030418262 -0.06985254 -0.10811349 0.14243205 0.019088075 -0.07176363
0.15323974 -0.08131438 -0.062238753 0.015075311 0.16442384 -0.16028538 -0.14041382 0.068667606
0.096481815 -0.0052429438 -0.09534017 -0.069973946 0.12340383 -0.02222909 -0.16752122 0.11529888
0.1009313 -0.004586816 -0.13240385 0.06604573 -0.06608592 0.067845926 0.17062832 -0.12860525
-0.08842421 -0.11256696 -0.1524775 0.15227257 -0.12270574 0.10049756 -0.09026026 0.15535443
-0.1269288 -0.04926823 -0.049829096 -0.096283354 0.118416056 0.026816085 -0.11352595 -0.08241601
-0.055524573 -0.10102267 -0.0142030865 0.0098508 0.043150112 -0.15943038 0.09309469 0.13965403
0.16697459 -0.0017148554 0.08883028 0.117510185 -0.06324141 -0.01695247 -0.15018286 -0.08828869
0.08001216 -0.04205118 -0.040627345 0.022814482 0.12593661 -0.038933948 -0.16139553 -0.12974378
-0.037339687 -0.11961509 0.14676891 -0.06436329 -0.058122672 0.1312493 -0.076946385 -0.0796618
0.054007515 -0.07680279 0.043322265 -0.16494717 -0.13533172 0.14538704 -0.08071389 0.10126637
-0.14822623 0.0029648393 -0.13342464 -0.019793615 -0.032015085 -0.1167257 0.12906452 -0.041051954
0.13071875 0.0705819 0.05974868 -0.008877218 0.16206463 -0.16711678 -0.049805775 -0.016281828
-0.031806737 0.02350694 -0.14715707 0.09023912 0.16999511 -0.121810816 -0.123713836 -0.060304277
-0.12780513 0.14446183 0.06455292 0.012635797 0.013540596 0.06084515 0.015715718 -0.1581903
-0.056600958 0.088073745 0.060122415 -0.120714456 -0.05310574 0.02745922 0.0327916 -0.122412995
-0.16716653 -0.058282472 -0.033708602 0.08361526 -0.052233554 0.1506076 0.16959013 0.009080619
0.030615076 0.034464702 0.010345668 -0.14718944 -0.011334285 -0.058435448 -0.117937185 -0.15536106
-0.053976938 -0.116290614 0.14956866 0.10479216 -0.17327505 0.042113557 0.002776429 0.12502651
-0.03298846 0.12294029 -0.07527214 0.14969124 0.13821928 -0.17498022 -0.0269963 0.17023735
0.12679441 -0.17299427 -0.09561364 -0.144039 0.036309198 0.12162192 0.016820177 -0.027747795
-0.06318455 -0.15196444 -0.17300527 -0.030973405 -0.12886287 0.08006589 0.15446834 0.16223125
0.109913215 -0.07315841 0.15518801 0.063903004 -0.03302288 -0.009419203 -0.1560848 0.014731541
0.092257604 -0.074023545 0.023569196 -0.12037296 -0.13851513 0.057564124 -0.07353655 -0.16265082
0.011326939 0.06184025 -0.0690979 -0.11654958 0.07711972 -0.109471336 -0.05344507 -0.013319731
-0.005016133 0.08713363 -0.12780511 0.032325238 -0.045624405 0.014586955 0.099477276 -0.02598323
0.028342932 -0.035926312 -0.09432096 0.09096415 -0.15339236 0.095625475 -0.021667764 0.1140499
0.0753376 0.016487926 -0.16188169 -0.094064176 -0.026707724 0.017598242 -0.16825214 0.1316394
0.16530354 -0.008735105 -0.060378604 -0.17299718 -0.12882416 -0.16336028 -0.11173989 -0.14765237
00000000: b213 f43d 6454 00be 5505 a1bd 8388 9abd
00000010: d867 403d 9905 16be e57c febd b574 e7bd
00000020: 05f1 cfbd 8c2d 263d 10b2 0bbe d67c fe3d
00000030: b141 103e 30d4 23be 4253 d23d 6016 bfbd
00000040: a163 b2bd 4601 d83d c9c3 11be a82d 6b3d
00000050: 5a75 11be 8f41 1f3e 91c1 1a3e 3a91 b33d
00000060: 55c3 283e ac40 c9bd b82f f9bc d90e 8fbd
00000070: 9b6a ddbd b5d9 113e 985e 9c3c cff8 92bd
00000080: e1ea 1c3e 2788 a6bd 10ee 7ebd 70fe 763c
00000090: b95e 283e da21 24be a4c8 0fbe 9aa1 8c3d
000000a0: 4298 c53d 00cd abbb b541 c3bd 804e 8fbd
000000b0: 26bb fc3d c819 b6bc af8a 2bbe d221 ec3d
000000c0: 12b5 ce3d 004d 96bb e094 07be fc42 873d
000000d0: 0e58 87bd cef2 8a3d 31b9 2e3e 18b1 03be
000000e0: c117 b5bd 8289 e6bd 1023 1cbe 57ed 1b3e
000000f0: 264d fbbd aad1 cd3d 5fda b8bd 3b15 1f3e
00000100: a0f9 01be 7ccd 49bd 9819 4cbd 3530 c5bd
00000110: 1e84 f23d 68ad db3c 4b80 e8bd bac9 a8bd
00000120: bc6d 63bd f9e4 cebd 10b4 68bc 4065 213c
00000130: 2cbe 303d b841 23be 6ea8 be3d 7701 0f3e
00000140: 63fb 2a3e 00c5 e0ba a6ec b53d 2ea9 f03d
00000150: b684 81bd e8df 8abc 89c9 19be b3d0 b4bd
00000160: 6add a33d dc3d 2cbd dc68 26bd 70e5 ba3c
00000170: 87f5 003e 3479 1fbd df44 25be 8edb 04be
00000180: 80f1 18bd c2f8 f4bd 974a 163e e7d0 83bd
00000190: 0a12 6ebd 3766 063e 1196 9dbd ba25 a3bd
000001a0: fc36 5d3d c84a 9dbd b072 313d e9e7 28be
000001b0: 6694 0abe 57e0 143e 534d a5bd be64 cf3d
000001c0: 9ec8 17be c04d 423b 78a0 08be 3826 a2bc
000001d0: 4022 03bd e20d efbd 7d29 043e 1826 28bd
000001e0: 23db 053e 3e8d 903d 08bb 743d c071 11bc
000001f0: 45f4 253e a920 2bbe 2401 4cbd 7861 85bc
00000200: c847 02bd a091 c03c 58b0 16be 4acf b83d
00000210: 3313 2e3e f377 f9bd ae5d fdbd 9e01 77bd
00000220: 59df 02be cded 133e 5234 843d 6006 4f3c
00000230: 60d9 5d3c c438 793d 40be 803c a3fc 21be
00000240: 68d6 67bd 0260 b43d ec42 763d 2439 f7bd
00000250: 6885 59bd 28f2 e03c 7c50 063d aab3 fabd
00000260: b42d 2bbe 9ab9 6ebd 0812 0abd 7a3e ab3d
00000270: daf2 55bd e138 1a3e 09a9 2d3e e0c6 143c
00000280: 78cc fa3c dc2a 0d3d e080 293c d4b8 16be
00000290: 70b3 39bc 025a 6fbd 0d89 f1bd f816 1fbe
000002a0: ec16 5dbd c629 eebd 8728 193e 469d d63d
000002b0: 046f 31be 447f 2c3d c0f4 353b f306 003e
000002c0: e81e 07bd 1ec8 fb3d 4828 9abd a948 193e
000002d0: 5b89 0d3e 042e 33be 5827 ddbc b352 2e3e
000002e0: 65d6 013e 6925 31be 16d1 c3bd f67e 13be
000002f0: f4b8 143d ea14 f93d 78ca 893c 584f e3bc
00000300: e766 81bd 919c 1bbe 4b28 31be f0bb fdbc
00000310: a1f4 03be 96f9 a33d f32c 1e3e f31f 263e
00000320: 2e1a e13d 14d4 95bd 9be9 1e3e 94df 823d
00000330: 0043 07bd 0053 1abc b2d4 1fbe 905c 713c
00000340: 8ef1 bc3d a899 97bd 3014 c13c 1986 f6bd
00000350: e9d6 0dbe 5cc8 6b3d 559a 96bd f08d 26be
00000360: a094 393c 344c 7d3d 3383 8dbd 8cb1 eebd
00000370: f2f0 9d3d 8232 e0bd 38e9 5abd 003b 5abc
00000380: 605e a4bb 1e73 b23d 58df 02be 7867 043d
00000390: a8e0 3abd 20fe 6e3c beba cb3d c8da d4bc
000003a0: 702f e83c 7827 13bd 592b c1bd 6a4b ba3d
000003b0: e312 1dbe 4ad7 c33d 9880 b1bc fe92 e93d
000003c0: 9a4a 9a3d b011 873c 50c4 25be b8a4 c0bd
000003d0: 28ca dabc 302a 903c 4a4a 2cbe 7bcc 063e
000003e0: 5545 293e b01d 0fbc 8e4f 77bd 2c26 31be
000003f0: 7bea 03be eb47 27be e2d7 e4bd 2f32 17be

lstm.bias_ih_l0 f4 [128]
0.5300855 0.61271286 0.6468498 0.6746695 0.45258614 0.59457594 0.689132 0.6640632
0.44643664 0.6875519 0.47053358 0.57130694 0.5834534 1.2252973 0.5469285 0.42351332
0.48905256 0.49205846 0.6209585 0.8078083 0.5677402 0.6196262 0.6805326 0.57677674
0.54023266 0.5004962 0.6062383 0.39302167 0.50764817 0.44743928 0.6793784 0.45821527
0.10659625 -0.109820165 -0.028480694 0.08289008 -0.0893038 -0.037741885 -0.026179701 0.058313563
-0.09669199 0.028036699 0.12395878 0.0067362934 0.067390114 -0.04706545 0.15340455 -0.009073958
0.12752865 0.11627783 -0.16899835 0.09395449 0.032073796 0.15861182 -0.10422561 -0.15772267
0.13241382 -0.04852408 0.005710438 -0.04986137 -0.0037849993 -0.117951326 -0.019074947 0.033806935
0.4971808 -0.37501168 -0.45910713 -0.45669633 -0.532666 0.43893605 -0.5477851 -0.39733726
0.41358566 0.40503305 0.25257084 -0.28230906 -0.5113798 -0.7733118 -0.48497728 -0.5963637
0.4604123 -0.56801885 0.5354814 0.55456036 -0.40575972 0.599248 0.30668488 0.40572742
-0.49815556 0.55674845 -0.27297327 -0.4779687 -0.5187486 -0.5584708 -0.3841832 -0.5658636
0.4359195 0.66037595 0.48820448 0.522936 0.6389052 0.45548707 0.45049196 0.7120893
0.78140527 0.71631676 0.66478616 0.6132049 0.40360945 1.284188 0.4640188 0.6616328
0.68011224 0.72263134 0.7154848 0.7103745 0.6285101 0.66746104 0.68879336 0.5494848
0.4507311 0.5202118 0.68457997 0.71133333 0.5825258 0.711956 0.47760868 0.7510479
00000000: afb3 073f c0da 1c3f f397 253f 24b7 2c3f
00000010: 5fb9 e73e 2136 183f f46a 303f 0c00 2a3f
00000020: 5893 e43e 6703 303f c7e9 f03e 2c41 123f
00000030: 345d 153f 8bd6 9c3f 8203 0c3f bdd6 d83e
00000040: 1965 fa3e 16ef fb3e 23f7 1e3f 86cc 4e3f
00000050: 6c57 113f d39f 1e3f 6237 2e3f a4a7 133f
00000060: b04c 0a3f 8520 003f 6f32 1b3f 233a c93e
00000070: 3bf5 013f c316 e53e beeb 2d3f 319b ea3e
00000080: 224f da3d 65e9 e0bd 5850 e9bc 46c2 a93d
00000090: e9e4 b6bd 3c97 1abd d076 d6bc 34da 6e3d
000000a0: 7306 c6bd 38ad e53c 1ade fd3d 20bc dc3b
000000b0: d403 8a3d b4c7 40bd 1516 1d3e f0aa 14bc
000000c0: df96 023e 1223 ee3d e70d 2dbe 366b c03d
000000d0: d05f 033d 236b 223e 3d74 d5bd 0d82 21be
000000e0: 7d97 073e 30c1 46bd a01e bb3b 703b 4cbd
000000f0: c00d 78bb 7790 f1bd 1043 9cbc 2479 0a3d
00000100: 7b8e fe3e 8801 c0be 1710 ebbe 1ad4 e9be
00000110: cd5c 08bf 3abc e03e a53b 0cbf ca6f cbbe
00000120: 80c1 d33e 7e60 cf3e f750 813e d08a 90be
00000130: c9e9 02bf c3f7 45bf f14e f8be 4bab 18bf
00000140: 29bb eb3e af69 11bf 4f15 093f abf7 0d3f
00000150: bdbf cfbe 5168 193f cd05 9d3e 81bb cf3e
00000160: 3f0e ffbe 1187 0e3f 27c3 8bbe 50b8 f4be
00000170: b5cc 04bf f1f7 0ebf a9b3 c4be 70dc 10bf
00000180: d730 df3e 660e 293f f0f5 f93e 22df 053f
00000190: 4b8f 233f 9a35 e93e e2a6 e63e 7c4b 363f
000001a0: 2d0a 483f 8960 373f 6d2f 2a3f fffa 1c3f
000001b0: e6a5 ce3e 4660 a43f df93 ed3e c460 293f
000001c0: d61b 2e3f 5efe 383f 032a 373f 1adb 353f
000001d0: 0ae6 203f bade 2a3f c354 303f 09ab 0c3f
000001e0: 3ac6 e63e 9a2c 053f a240 2f3f f119 363f
000001f0: 6920 153f c042 363f 2089 f43e ad44 403f

lstm.bias_hh_l0 f4 [128]
0.59515303 0.46174005 0.6791254 0.37495926 0.51487887 0.43868196 0.71380484 0.5520776
0.5856533 0.5824176 0.66413736 0.44855922 0.63670284 1.145206 0.5504925 0.73824
0.6222627 0.63408685 0.6933509 0.7060239 0.5524654 0.72884095 0.52472395 0.5554593
0.50215006 0.6797628 0.5375069 0.5797518 0.5234866 0.6760222 0.548457 0.45235085
0.05272977 0.14177309 -0.15116665 0.08288811 -0.12014064 -0.123057015 0.09264012 0.06152433
-0.07604581 -0.14061326 -0.10846708 -0.051915728 0.1540776 -0.023512974 0.0011836737 -0.12996519
-0.013969347 -0.0059361756 0.14835997 -0.08619005 0.14721595 0.1737551 -0.020977855 -0.06005515
-0.09302684 -0.12037144 -0.045982316 0.07152486 0.021659687 0.060910136 -0.12849723 0.1432892
0.4406335 -0.40969118 -0.52408403 -0.46181607 -0.4707327 0.47255045 -0.29739317 -0.41305304
0.40449077 0.4427343 0.56642777 -0.54285794 -0.50884694 -0.6932054 -0.4526792 -0.4000806
0.49017677 -0.5107395 0.6049206 0.5560382 -0.4305549 0.45951614 0.5622188 0.572881
-0.5280308 0.30978394 -0.29082292 -0.36009207 -0.37821645 -0.44070718 -0.5393625 -0.44628322
0.6404372 0.6980413 0.54620403 0.54523146 0.6219619 0.52050567 0.49674147 0.6659014
0.77874416 0.65355676 0.4974498 0.4787043 0.6301177 1.2273818 0.6210027 0.6167087
0.41332507 0.44037846 0.7047182 0.7240548 0.55105144 0.65357226 0.65155786 0.67767906
0.4819242 0.6636614 0.6981441 0.6837038 0.75151736 0.5033204 0.54411983 0.5114268
00000000: f35b 183f 3169 ec3e 2adb 2d3f a9fa bf3e
00000010: 1acf 033f ec9a e03e eabb 363f f554 0d3f
00000020: 60ed 153f 5219 153f e804 2a3f 8ea9 e53e
00000030: f5fe 223f 1c96 923f 14ed 0c3f 4cfd 3c3f
00000040: 9c4c 1f3f 8453 223f 727f 313f fbbd 343f
00000050: 5f6e 0d3f 5295 3a3f 4f54 063f 9532 0e3f
00000060: e88c 003f ef04 2e3f 0d9a 093f 9d6a 143f
00000070: 3803 063f ca0f 2d3f ae67 0c3f 889a e73e
00000080: 2cfb 573d f72c 113e 6ecb 1abe 3ec1 a93d
00000090: 4c0c f6bd 5105 fcbd 1aba bd3d f000 7c3d
000000a0: e8bd 9bbd ecfc 0fbe fd23 debd 96a5 54bd
000000b0: 85c6 1d3e 489e c0bc 8025 9b3a 9815 05be
000000c0: b0df 64bc 4084 c2bb adeb 173e 6984 b0bd
000000d0: c7bf 163e dbec 313e c0d9 abbc 64fc 75bd
000000e0: db84 bebd 4d85 f6bd f457 3cbd a07b 923d
000000f0: a86f b13c e87c 793d c794 03be 67ba 123e
00000100: b79a e13e 0bc3 d1be 5f2a 06bf 2873 ecbe
00000110: e003 f1be 22f2 f13e eb43 98be b07b d3be
00000120: 6a19 cf3e 12ae e23e 6901 113f bdf8 0abf
00000130: cb43 02bf e975 31bf 91c5 e7be 5dd7 ccbe
00000140: 73f8 fa3e d3bf 02bf 14dc 1a3f 8558 0e3f
00000150: b171 dcbe b345 eb3e 92ed 0f3f 54a8 123f
00000160: 072d 07bf 009c 9e3e bee6 94be fd5d b8be
00000170: 96a5 c1be 5fa4 e1be a913 0abf 3c7f e4be
00000180: b1f3 233f d6b2 323f 07d4 0b3f 4a94 0b3f
00000190: e538 1f3f dc3f 053f e654 fe3e 8478 2a3f
000001a0: c75b 473f 7f4f 273f bdb1 fe3e bb18 f53e
000001b0: 654f 213f d91a 9d3f 08fa 1e3f 9fe0 1d3f
000001c0: 589f d33e 4979 e13e 6968 343f a85b 393f
000001d0: b511 0d3f 8350 273f 7fcc 263f 607c 2d3f
000001e0: c5be f63e b7e5 293f 92b9 323f 3607 2f3f
000001f0: 7163 403f 9bd9 003f 704b 0b3f deec 023f

lstm.weight_ih_l1 f4 [128, 32]
0.50996774 -0.6473285 -0.505622 -0.6218844 -0.91225237 0.59291655 -0.8043401 -0.852959
0.7676756 0.7448244 0.5222548 -0.5282006 -0.797547 -2.420156 -0.8053316 -0.9956694
0.8217451 -0.93726087 1.1146562 0.8120244 -0.5721552 0.95072424 0.5284533 0.7752623
-0.58909035 0.5206248 -0.6690946 -0.5489563 -0.93095183 -0.4856215 -0.6423434 -1.0847594
0.71045077 -0.5404242 -0.47201186 -0.7661691 -0.9327318 0.4664988 -0.8163901 -0.7652526
0.5009886 0.53075016 0.6665644 -0.5524107 -0.4430229 -3.4126077 -0.61713505 -1.0161568
0.61491203 -0.6283226 1.0612686 0.8490102 -0.5999617 1.1377494 0.7761416 0.41467178
-0.5707032 0.54577833 -0.67135245 -0.5938575 -0.916565 -0.73549265 -0.6197476 -0.91997945
0.5852036 -0.540391 -0.73540473 -0.47290605 -0.6821577 0.61654824 -0.69791114 -0.7780586
0.52501535 0.51821166 0.61717266 -0.6028312 -0.4355088 -3.6090546 -0.6222915 -1.1416793
0.44059205 -0.69096816 1.1454953 1.1322844 -0.6758188 1.1284808 0.5816803 0.51614326
-0.44148245 0.65378815 -0.42013624 -0.7774948 -0.5083187 -0.7461403 -0.87393737 -0.97341686
0.49312758 -0.5687973 -0.6725968 -0.47012678 -0.80681545 0.4156937 -0.69742525 -0.7252661
0.5762756 0.73178524 0.69641614 -0.6999777 -0.6310778 -3.6437063 -0.55574834 -1.1275395
0.42115515 -0.68745285 1.2068751 0.97664887 -0.6859894 1.2611479 0.41168857 0.7112706
-0.5127758 0.50803375 -0.5182892 -0.563993 -0.8251681 -0.43493322 -0.81792843 -0.9594468
0.60792774 -0.7627968 -0.62911135 -0.56657946 -0.70713276 0.584048 -0.8393489 -0.7530443
0.7558775 0.6869858 0.643404 -0.5589705 -0.73296356 -3.2263408 -0.4808991 -1.0479083
0.7404041 -0.91263676 0.95952845 1.0213134 -0.5239126 1.0885745 0.5815223 0.4643402
-0.6400682 0.6432187 -0.40403438 -0.60582966 -0.75615823 -0.6702672 -0.55540204 -0.83607614
0.5592176 -0.6154449 -0.58506596 -0.75018495 -0.66974777 0.74589825 -0.7324128 -0.6467114
0.50620973 0.64478385 0.61192733 -0.6948316 -0.4582273 -3.5617359 -0.5532554 -1.1428789
0.740425 -0.80840254 1.011189 1.0716976 -0.725245 1.1865875 0.49926138 0.4205531
-0.41931725 0.4438217 -0.44310734 -0.8510994 -0.6964792 -0.4502686 -0.8706997 -0.89325476
0.4782654 -0.5378165 -0.7421211 -0.8045492 -0.6846302 0.5491589 -0.57122046 -0.85977346
0.60286355 0.66686815 0.6193753 -0.7732958 -0.4272222 -3.448453 -0.53223085 -0.98341095
0.7022779 -0.691538 1.0564294 1.1252205 -0.49612713 1.1969764 0.7133023 0.49914864
-0.6792321 0.60380965 -0.6656952 -0.6142792 -0.615006 -0.69806886 -0.722372 -0.965046
0.44783196 -0.64362 -0.7184689 -0.6607768 -0.6573114 0.54651815 -0.8183254 -0.63468736
0.59457463 0.5193238 0.6261949 -0.674261 -0.39628798 -3.6383429 -0.63150024 -1.0427735
0.5004306 -0.55853677 1.2121503 1.2296678 -0.58021915 1.2223349 0.70979077 0.69130856
-0.47671083 0.42857194 -0.6341436 -0.8116372 -0.49565652 -0.51707256 -0.8904916 -0.93597406
00000000: 3f8d 023f 52b7 25bf 7270 01bf d133 1fbf
00000010: 5f89 69bf 61c9 173f 3ce9 4dbf 855b 5abf
00000020: 6386 443f d0ac 3e3f 7eb2 053f 2838 07bf
00000030: 0a2c 4cbf d6e3 1ac0 362a 4ebf 31e4 7ebf
00000040: e35d 523f 54f0 6fbf 0ead 8e3f d5e0 4f3f
00000050: c378 12bf aa62 733f b748 073f 9777 463f
00000060: a0ce 16bf ab47 053f c949 2bbf 6688 0cbf
00000070: dc52 6ebf 62a3 f8be 9e70 24bf 65d9 8abf
00000080: 1ae0 353f 3e59 0abf 8aab f1be a823 44bf
00000090: 83c7 6ebf eed8 ee3e f1fe 50bf 98e7 43bf
000000a0: ca40 003f 3edf 073f f7a3 2a3f ca6a 0dbf
000000b0: e6d3 e2be 2a68 5ac0 90fc 1dbf 6d11 82bf
000000c0: e06a 1d3f c0d9 20bf a6d7 873f bc58 593f
000000d0: 1797 19bf c6a1 913f 37b1 463f dc4f d43e
000000e0: 9b19 12bf 21b8 0b3f c1dd 2bbf 0c07 18bf
000000f0: 01a4 6abf 3f49 3cbf c7a7 1ebf c683 6bbf
00000100: e7cf 153f 1157 0abf 7c43 3cbf be20 f2be
00000110: e3a1 2ebf 1bd6 1d3f 4eaa 32bf d92e 47bf
00000120: 6867 063f 85a9 043f 07ff 1d3f 2553 1abf
00000130: 02fb debe c0fa 66c0 7f4e 1fbf 8c22 92bf
00000140: 4895 e13e 4ae3 30bf 979f 923f b2ee 903f
00000150: 7602 2dbf 0f72 903f 00e9 143f f721 043f
00000160: fd09 e2be a95e 273f 191c d7be e609 47bf
00000170: 2d21 02bf 0d03 3fbf 5cba 5fbf d931 79bf
00000180: 387b fc3e b39c 11bf 4e2f 2cbf 75b4 f0be
00000190: 758b 4ebf ced5 d43e 768a 32bf 0aab 39bf
000001a0: cc86 133f 4756 3b3f 5448 323f bd31 33bf
000001b0: 518e 21bf 7c32 69c0 8645 0ebf 3753 90bf
000001c0: a6a1 d73e e9fc 2fbf e27a 9a3f a905 7a3f
000001d0: 009d 2fbf 4b6d a13f d8c8 d23e d415 363f
000001e0: 4645 03bf 800e 023f 9aae 04bf d861 10bf
000001f0: 373e 53bf 91af debe c263 51bf 4e9e 75bf
00000200: 27a1 1b3f a746 43bf 710d 21bf 5a0b 11bf
00000210: a706 35bf 2b84 153f 92df 56bf 83c7 40bf
00000220: 3081 413f 4dde 2f3f 20b6 243f b118 0fbf
00000230: 80a3 3bbf 5e7c 4ec0 6838 f6be dc21 86bf
00000240: 208b 3d3f 90a2 69bf a8a3 753f 66ba 823f
00000250: 231f 06bf 6956 8b3f a5de 143f 00be ed3e
00000260: 82db 23bf fba9 243f 98dd cebe a717 1bbf
00000270: 9693 41bf a296 2bbf d42e 0ebf 1609 56bf
00000280: e228 0f3f cc8d 1dbf e2c6 15bf 1f0c 40bf
00000290: 9774 2bbf 30f3 3e3f 687f 3bbf e18e 25bf
000002a0: f696 013f 8e10 253f 45a7 1c3f 7ce0 31bf
000002b0: c59c eabe 7bf3 63c0 25a2 0dbf db49 92bf
000002c0: 7e8c 3d3f 78f3 4ebf a46e 813f 632d 893f
000002d0: a8a9 39bf 19e2 973f 309f ff3e bc52 d73e
000002e0: c0b0 d6be 993c e33e f7de e2be a6e1 59bf
000002f0: 764c 32bf 9b89 e6be 2de6 5ebf 58ac 64bf
00000300: 34df f43e 58ae 09bf a6fb 3dbf f0f6 4dbf
00000310: ed43 2fbf ad95 0c3f 813b 12bf 1d1a 5cbf
00000320: 4455 1a3f dfb7 2a3f 618f 1e3f b7f6 45bf
00000330: debc dabe 74b3 5cc0 4840 08bf d2c0 7bbf
00000340: 7cc8 333f a208 31bf 1439 873f 3a07 903f
00000350: 6004 febe 8636 993f fb9a 363f 6990 ff3e
00000360: 28e2 2dbf 4593 1a3f 006b 2abf 6741 1dbf
00000370: 0971 1dbf a4b4 32bf 5fed 38bf 410d 77bf
00000380: 3b4a e53e 48c4 24bf 94ed 37bf ab28 29bf
00000390: 8f45 28bf 9de8 0b3f c67d 51bf df7a 22bf
000003a0: 0b36 183f 68f2 043f 4f4e 203f 5e9c 2cbf
000003b0: 42e6 cabe 9cda 68c0 00aa 21bf 9a79 85bf
000003c0: 381c 003f 44fc 0ebf be27 9b3f c165 9d3f
000003d0: 3e89 14bf 7875 9c3f d9b4 353f 99f9 303f
000003e0: 7113 f4be c86d db3e 3c57 22bf 75c7 4fbf
000003f0: b1c6 fdbe de5e 04bf 42f7 63bf ff9b 6fbf

lstm.weight_hh_l1 f4 [128, 32]
0.037574127 -0.16381808 -0.06915101 0.15937538 0.11377956 0.103959724 0.05009362 -0.077186726
-0.113507845 -0.026752412 0.16882418 0.07542835 -0.15334578 0.09989698 0.075899795 0.106826946
-0.021595314 -0.116187885 -0.12562408 0.07294503 -0.08516005 0.07230285 -0.074289866 -0.16215363
0.10607083 -0.04793629 -0.12122544 -0.0069542676 0.15124832 -0.14161149 -0.043412313 -0.16839395
-0.0653639 -0.120792195 0.032409802 0.04470381 -0.05346456 -0.11078379 -0.1517413 0.04675834
-0.10630516 0.10031943 0.07333936 -0.012420103 -0.0100559 -0.091633335 0.031166166 0.079696134
-0.08743812 0.07569881 0.039297596 -0.14105293 0.020320624 0.08584751 -0.08687938 -0.16401878
-0.16810274 0.13443236 0.11472233 -0.13290069 0.020919785 0.010513082 0.11732428 0.057088688
0.052451387 0.10196786 0.1224338 0.06986396 -0.12187266 -0.0846389 -0.14381327 0.12805597
-0.16660929 -0.002560988 -0.11436695 -0.018197834 0.10548 -0.13964461 -0.077863686 0.086335436
-0.027399406 -0.095750935 -0.1486744 0.06939341 0.04256259 -0.10518913 -0.17056102 0.17665444
0.11104275 -0.12635995 -0.08883801 0.049605414 0.0030751228 -0.15156505 -0.13477708 -0.13977979
0.10418202 -0.055778153 -0.048000902 -0.059538998 0.15909229 0.06415565 0.09153129 -0.16810717
0.02690415 0.06828079 0.101098314 -0.013245359 -0.02779536 0.14746349 -0.113136515 0.11325841
0.1115299 0.049110353 -0.08911479 0.040483266 -0.15905271 0.054794 0.0025445074 -0.12199778
-0.16616914 -0.16862269 0.16101371 -0.11169783 0.048415944 -0.16533665 0.022322342 -0.11771107
0.07203172 0.1715448 0.058862075 -0.15996942 -0.048837066 -0.1531417 0.16119458 -0.08848575
0.10894413 0.17654334 -0.12755156 0.0035168976 -0.108886465 0.106757626 0.034871727 -0.12220065
-0.07567294 -0.03825979 0.024763376 0.022858724 0.08233641 -0.0524138 0.0721437 -0.09811942
-0.0062598884 0.14396037 -0.11719611 -0.07339532 0.17205922 0.0009395331 -0.0633676 0.088802025
0.099877104 -0.10706878 0.073302105 0.12519406 -0.04099928 0.14057828 0.095679894 -0.046321556
0.07404588 0.10501091 0.13579081 0.022863045 -0.11985746 -0.08529363 0.10164945 -0.07668543
-0.16724402 -0.015689373 -0.0008121282 -0.094954066 0.17191593 -0.17108665 0.16286312 0.0046350956
-0.02981697 0.033143774 0.08158083 -0.1296727 0.15554698 0.10713114 0.0029849708 -0.16091332
0.015151814 0.0774679 -0.025042921 0.17204379 0.07552059 0.11547862 -0.16918994 0.042447254
-0.15411286 0.08972205 -0.015415236 -0.027370587 0.018907651 -0.05216387 0.1475275 0.15246923
-0.037856832 0.10296695 0.11569218 0.072518304 0.07563783 0.04201153 -0.07135276 -0.06378753
-0.17530958 -0.030142516 -0.0999535 0.13242833 0.061309695 -0.10954075 0.053065076 0.047234327
-0.1761352 0.08523868 0.12501161 -0.14451045 0.11521824 -0.12586126 -0.09752207 -0.13978729
-0.07854198 0.05963753 0.07002105 0.00929369 -0.029885799 -0.13197432 -0.13638172 -0.02617319
-0.117682114 -0.0703563 -0.09755839 0.0910456 0.111877814 0.05991763 0.03548132 0.10557078
-0.037111 -0.04254885 -0.16750297 -0.015288204 0.0532341 -0.14022174 -0.15492962 0.12178178
00000000: 54e7 193d edbf 27be 0b9f 8dbd 4d33 233e
00000010: 4205 e93d d6e8 d43d f82e 4d3d 1314 9ebd
00000020: cd76 e8bd e027 dbbc 3fe0 2c3e 2e7a 9a3d
00000030: ad06 1dbe ca96 cc3d 5a71 9b3d 16c8 da3d
00000040: a8e8 b0bc eaf3 edbd 99a3 00be 3464 953d
00000050: 6468 aebd 8413 943d 4925 98bd 9a0b 26be
00000060: aa3b d93d d858 44bd 0b45 f8bd a0e0 e3bb
00000070: d7e0 1a3e 9a02 11be 1cd1 31bd 776f 2cbe
00000080: 82dd 85bd e661 f7bd 24c0 043d 581b 373d
00000090: a8fd 5abd 9de2 e2bd 1262 1bbe ac85 3f3d
000000a0: 85b6 d9bd 4674 cd3d f232 963d b07d 4bbc
000000b0: 80c1 24bc 42aa bbbd 3050 ff3c ba37 a33d
000000c0: c212 b3bd fa07 9b3d 84f6 203d 2e70 10be
000000d0: 7077 a63c d2d0 af3d d1ed b1bd 8af4 27be
000000e0: 2023 2cbe a3a8 093e 8af3 ea3d 1e17 08be
000000f0: f85f ab3c 103f 2c3c b647 f03d d4d5 693d
00000100: 44d7 563d 86d4 d03d 92be fa3d d614 8f3d
00000110: 6098 f9bd 2957 adbd c943 13be 1b21 033e
00000120: a09b 2abe 40d6 27bb 3839 eabd a013 95bc
00000130: e605 d83d fffe 0ebe ff76 9fbd a2d0 b03d
00000140: b874 e0bc 1119 c4bd 1a3e 18be 221e 8e3d
00000150: 1c56 2e3d 666d d7bd 8ca7 2ebe e7e4 343e
00000160: 626a e33d 8164 01be b4f0 b5bd 0c2f 4b3d
00000170: 0088 493b de33 1bbe 0103 0abe 6f22 0fbe
00000180: 625d d53d a277 64bd 989c 44bd 2adf 73bd
00000190: 17e9 223e 0a64 833d c274 bb3d 4924 2cbe
000001a0: 1866 dc3c ccd6 8b3d a20c cf3d 1003 59bc
000001b0: 18b3 e3bc ab00 173e 1eb4 e7bd 06f4 e73d
000001c0: ca69 e43d f027 493d d181 b6bd c8d1 253d
000001d0: b7de 22be ac6f 603d c0c1 263b f9d9 f9bd
000001e0: 3e28 2abe 6dab 2cbe c7e0 243e d5c1 e4bd
000001f0: cc4f 463d 034e 29be 58dd b63c 8012 f1bd
00000200: 5e85 933d 71a9 2f3e 5c19 713d 06cf 23be
00000210: 6009 48bd 2ed1 1cbe 3110 253e 0438 b5bd
00000220: 1a1e df3d c7c7 343e e09c 02be c07b 663b
00000230: deff debd bea3 da3d a8d5 0e3d 5644 fabd
00000240: 6afa 9abd 4cb6 1cbd 90dc ca3c 3842 bb3c
00000250: fe9f a83d daaf 56bd 14c0 933d d6f2 c8bd
00000260: c01f cdbb 596a 133e 8404 f0bd 4950 96bd
00000270: 4b30 303e 004b 763a dfc6 81bd d6dd b53d
00000280: 5e8c cc3d e046 dbbd 6a1f 963d df32 003e
00000290: dcee 27bd c1f3 0f3e d2f3 c33d acbb 3dbd
000002a0: 5ea5 973d f60f d73d bf0c 0b3e 484b bb3c
000002b0: d477 f5bd 6dae aebd 962d d03d 400d 9dbd
000002c0: 0442 2bbe 0087 80bc 00e5 54ba 4777 c2bd
000002d0: bb0a 303e 5731 2fbe 97c5 263e 00e2 973b
000002e0: b842 f4bc c4c1 073d da13 a73d ecc8 04be
000002f0: b547 1f3e 9267 db3d 809f 433b 76c6 24be
00000300: 503f 783c 7ea7 9e3d d026 cdbc 3f2c 303e
00000310: 8aaa 9a3d 0e80 ec3d 2140 2dbe 2cdd 2d3d
00000320: c3cf 1dbe 32c0 b73d 3090 7cbc 4838 e0bc
00000330: 38e4 9a3c c8a9 55bd 7311 173e e520 1c3e
00000340: c40f 1bbd 56e0 d23d 06f0 ec3d 7a84 943d
00000350: 02e8 9a3d 4814 2c3d 6521 92bd 09a3 82bd
00000360: 5b84 33be 70ed f6bc 6cb4 ccbd 4b9b 073e
00000370: e01f 7b3d e756 e0bd c45a 593d c878 413d
00000380: c95c 34be 9e91 ae3d 0b03 003e 8cfa 13be
00000390: 8af7 eb3d c6e1 00be a7b9 c7bd 6624 0fbe
000003a0: 9eda a0bd 7c46 743d 3267 8f3d 9044 183c
000003b0: 10d3 f4bc 4724 07be a6a7 0bbe 2869 d6bc
000003c0: 5203 f1bd f716 90bd b1cc c7bd 1e76 ba3d
000003d0: 3220 e53d 306c 753d dc54 113d 7e35 d83d
000003e0: b401 18bd b447 2ebd e685 2bbe 607b 7abc
000003f0: 000c 5a3d 4a96 0fbe dfa5 1ebe ba68 f93d

lstm.bias_ih_l1 f4 [128]
0.5086906 0.62794805 0.4567385 0.32883754 0.50581187 0.35154468 0.35430467 0.41686076
0.5856728 0.31523272 0.4630489 0.44233066 0.57513523 0.4110416 0.47216147 0.44860125
0.46944597 0.3793078 0.5787466 0.48972622 0.63699186 0.27920532 0.5661053 0.39532864
0.47163332 0.5057681 0.2976032 0.47570568 0.40104768 0.55802476 0.49266636 0.5948377
-0.14729236 -0.026101962 0.07652463 -0.037842408 -0.06943265 -0.16592027 -0.099015735 0.009793669
-0.11934708 -0.13278103 -0.12019497 0.09406425 -0.08191771 -0.094604015 0.058558106 0.10886015
-0.0039539635 -0.13968226 0.025235295 0.004533902 0.14461695 -0.13994448 0.13991414 -0.13156447
0.06076604 0.0060450137 -0.12600237 -0.13222814 0.13995485 -0.11103966 0.14970158 0.062282637
-0.11927842 -0.0948092 -0.2870131 -0.27566448 -0.24407126 -0.25228065 -0.13978988 -0.36008686
0.26380047 -0.17238241 -0.1381253 0.10811033 -0.18723726 -0.22948207 -0.17864761 -0.22830679
0.2000664 0.20098323 -0.3998869 0.2669569 0.13730012 -0.25863743 0.3098952 0.43465808
-0.36923492 -0.09480171 -0.053858038 -0.2330302 0.092437506 -0.10784174 -0.38931024 -0.22455887
0.49826634 0.5080229 0.38147348 0.6411604 0.69585025 0.32686466 0.63443637 0.3747432
0.4145025 0.597931 0.5161124 0.35033613 0.57597125 0.5429112 0.55628794 0.591415
0.66089356 0.50245893 0.44512355 0.36692533 0.3860627 0.36943048 0.48752213 0.5116072
0.31142405 0.45102173 0.5753385 0.494729 0.40036604 0.5722519 0.44790488 0.30530876
00000000: 8c39 023f 34c1 203f a1d9 e93e 655d a83e
00000010: e37c 013f aafd b33e 6c67 b53e c66e d53e
00000020: a7ee 153f 2f66 a13e bf14 ed3e 2a79 e23e
00000030: 103c 133f 0b74 d23e 26bf f13e 10af e53e
00000040: 395b f03e a234 c23e bd28 143f 65bd fa3e
00000050: e611 233f 00f4 8e3e 47ec 103f 8468 ca3e
00000060: ec79 f13e 057a 013f 725f 983e b28f f33e
00000070: 1f56 cd3e b6da 0e3f c43e fc3e 4947 183f
00000080: cfd3 16be c8d3 d5bc f2b8 9c3d a400 1bbd
00000090: b532 8ebd 01e7 29be c3c8 cabd a075 203c
000000a0: 3e6c f4bd c0f7 07be c828 f6bd c2a4 c03d
000000b0: 79c4 a7bd c0bf c1bd a0da 6f3d 12f2 de3d
000000c0: 4090 81bb de08 0fbe 40ba ce3c 2091 943b
000000d0: 7716 143e 9b4d 0fbe a745 0f3e d6b8 06be
000000e0: d0e5 783d 4015 c63b c406 01be d066 07be
000000f0: 5350 0f3e c368 e3bd 5f4b 193e 141c 7f3d
00000100: 3f48 f4bd 532b c2bd 62f3 92be e523 8dbe
00000110: d1ed 79be ee2a 81be 1425 0fbe 4e5d b8be
00000120: db10 873e 0485 30be b870 0dbe f368 dd3d
00000130: 20bb 3fbe 59fd 6abe 66ef 36be 41c9 69be
00000140: 35de 4c3e 8cce 4d3e fabd ccbe 93ae 883e
00000150: 6798 0c3e 206c 84be 95aa 9e3e 818b de3e
00000160: 5c0c bdbe 6627 c2bd 3f9a 5cbd 789f 6ebe
00000170: e04f bd3d 21dc dcbd ac53 c7be c3f2 65be
00000180: c41c ff3e ca0d 023f 7e50 c33e 1723 243f
00000190: 3e23 323f ce5a a73e 6c6a 223f 57de bf3e
000001a0: ac39 d43e 0212 193f f11f 043f 425f b33e
000001b0: da72 133f 3afc 0a3f e368 0e3f f966 173f
000001c0: 5230 293f 26a1 003f 3ce7 e33e a3dd bb3e
000001d0: 03aa c53e fe25 bd3e 809c f93e b1f8 023f
000001e0: f972 9f3e 52ec e63e 6249 133f 1f4d fd3e
000001f0: c7fc cc3e 1a7f 123f ca53 e53e 6e51 9c3e

lstm.bias_hh_l1 f4 [128]
0.45085213 0.35880908 0.5279 0.56542754 0.46296453 0.532879 0.36283422 0.4201865
0.37189636 0.36210397 0.6231576 0.42371774 0.44299716 0.65078247 0.45752278 0.57360893
0.53564084 0.43516064 0.32641587 0.52762854 0.42391756 0.5958149 0.6369273 0.351801
0.4737963 0.4421715 0.5650514 0.44418418 0.36730367 0.5095483 0.36696607 0.39337137
-0.09125819 0.12994976 -0.0030263066 0.12498163 0.12828554 0.019605637 -0.013062611 0.0858434
-0.0020127892 -0.11310992 0.04704456 0.04709132 0.047428444 0.09360494 0.028488293 -0.14450967
0.06533581 -0.13005689 -0.03390512 0.02600199 0.102718875 0.08401309 -0.110341646 -0.12106341
0.1492654 -7.215142e-05 -0.081904225 0.0069390982 0.057416677 -0.07351072 -0.07974323 0.0034448504
-0.112551145 -0.3726684 -0.39869204 -0.33799008 -0.27887163 -0.20197725 -0.481506 -0.32058272
0.30557412 -0.07727807 -0.41976625 0.30390736 -0.21919602 -0.45261768 -0.10736047 -0.11860847
0.31020206 0.053989332 -0.25664508 0.117558196 0.3912235 -0.3075557 0.17730226 0.17618716
-0.36130005 -0.34804136 -0.15738238 -0.4460746 0.368073 -0.31612644 -0.15402447 -0.23318855
0.6632786 0.6749817 0.34596598 0.45024824 0.55064 0.44517854 0.42801985 0.32698524
0.5291629 0.39406493 0.5476357 0.6423251 0.52928764 0.45543647 0.45155728 0.41655257
0.6292291 0.62437177 0.43364078 0.5378701 0.50568044 0.5025509 0.6255174 0.4201603
0.46036428 0.4956171 0.40764385 0.56792474 0.36798045 0.5171399 0.35601664 0.49957317
00000000: 17d6 e63e d3b5 b73e 7424 073f dcbf 103f
00000010: b009 ed3e c26a 083f 68c5 b93e af22 d73e
00000020: 3369 be3e b165 b93e 4287 1f3f 88f1 d83e
00000030: 86d0 e23e ae99 263f 6d40 ea3e 09d8 123f
00000040: c21f 093f 60cd de3e fb1f a73e aa12 073f
00000050: b90b d93e 5387 183f ab0d 233f 431f b43e
00000060: 6e95 f23e 4e64 e23e 35a7 103f 1c6c e33e
00000070: 3a0f bc3e c271 023f fae2 bb3e f967 c93e
00000080: 93e5 babd 8d11 053e 0055 46bb 5ef6 ff3d
00000090: 495d 033e 009c a03c 9004 56bc aace af3d
000000a0: 00e9 03bb 2ca6 e7bd ccb1 403d d4e2 403d
000000b0: 5444 423d f2b3 bf3d 4860 e93c 58fa 13be
000000c0: c8ce 853d a22d 05be 18e0 0abd 2002 d53c
000000d0: 465e d23d 0e0f ac3d cdfa e1bd 18f0 f7bd
000000e0: 07d9 183e 0050 97b8 67bd a7bd 6061 e33b
000000f0: c02d 6b3d ca8c 96bd 6b50 a3bd 00c3 613b
00000100: 3781 e6bd 64ce bebe 5d21 ccbe 090d adbe
00000110: 43c8 8ebe 20d3 4ebe f487 f6be 6b23 a4be
00000120: 3674 9c3e f743 9ebd 9aeb d6be bf99 9b3e
00000130: ec74 60be 81bd e7be cedf dbbd ffe8 f2bd
00000140: ced2 9e3e eb23 5d3d fc66 83be 5ac2 f03d
00000150: 724e c83e f177 9dbe b98e 353e 686a 343e
00000160: 52fc b8be 7a32 b2be d928 21be e463 e4be
00000170: 1074 bc3e 53db a1be 97b8 1dbe fbc8 6ebe
00000180: a0cc 293f 9acb 2c3f 7422 b13e f086 e63e
00000190: bef6 0c3f 71ee e33e 6b25 db3e 9c6a a73e
000001a0: 3877 073f e1c2 c93e da31 0c3f 6b6f 243f
000001b0: 657f 073f f82e e93e 8432 e73e 6146 d53e
000001c0: 2915 213f d4d6 1f3f 2a06 de3e dbb1 093f
000001d0: 4674 013f 2da7 003f e921 203f 401f d73e
000001e0: deb4 eb3e 86c1 fd3e b2b6 d03e 8463 113f
000001f0: ef67 bc3e 4863 043f d047 b63e 0ec8 ff3e

fc.weight f4 [1, 32]
-177.34898 -177.35976 -177.29288 -177.26926 -177.26059 -177.40051 -177.27686 -177.2685
177.26572 -177.34235 -177.26071 177.33495 -177.27136 -177.28424 -177.34018 -177.31848
177.37321 177.34312 -177.40404 177.34369 177.39723 -177.32576 177.33186 177.31071
-177.31926 -177.3516 -177.31458 -177.28056 177.42479 -177.2828 -177.29628 -177.34198
00000000: 5759 31c3 195c 31c3 fa4a 31c3 ee44 31c3
00000010: b642 31c3 8866 31c3 e046 31c3 bc44 31c3
00000020: 0644 3143 a457 31c3 be42 31c3 bf55 3143
00000030: 7845 31c3 c448 31c3 1657 31c3 8851 31c3
00000040: 8b5f 3143 d757 3143 6f67 31c3 fc57 3143
00000050: b165 3143 6553 31c3 f554 3143 8b4f 3143
00000060: bb51 31c3 025a 31c3 8850 31c3 d347 31c3
00000070: bf6c 3143 6648 31c3 d94b 31c3 8c57 31c3
