save/model_20240612_163831.pth (torch, 822312 bytes, 13 tensors)

lstm.weight_ih_l0 f4 [396, 15]
00000000: c9c7 943d f7eb 633e e8d1 723e 6941 a73d
00000010: c3c1 013e 145e 6b3e aaf2 5c3e fd52 153e
00000020: a5f1 3c3e d243 c23d 3635 6d3e 4b58 403e
00000030: 0b99 2d3e 9e27 5b3e 3e08 d23d 0e11 8b3e
00000040: bd1b 383e ac74 da3d c71c 333e f665 033e
00000050: b5e8 013e c49c 4a3e 9059 7b3e c565 8a3e
00000060: eab4 873e c77d b93d bda6 903e 564e 583e
00000070: ed79 683e 67b1 e93d b9be 493e 8edd 283e
00000080: d46c 2f3e 6e08 3d3e 03c7 453e 6252 c73d
00000090: 1a14 2c3e 6965 cf3d c289 683e 2f64 573e
000000a0: 027f 0c3e 7e16 803e cd46 223e eca9 fb3d
000000b0: f65f b53d d3f3 0a3e d0b0 793e d9ac 133e
000000c0: 2373 523e ee38 2d3e 56b4 1d3e f1c0 833e
000000d0: 7f82 ba3d 98a0 593e ea79 8f3e e2c1 3d3e
000000e0: 5921 843e 769c f83d 1573 663e 8f1b 1e3e
000000f0: e1c9 733e a356 173e 3314 563e 3754 243e
00000100: 04e3 bf3d 704c 763e 8ad9 c13d 7aff 2b3e
00000110: 31f9 0d3e 7f0e 733e 5692 dd3d 1216 0e3e
00000120: 6bd8 393e b86c 833e cdad bb3d 9879 3f3e
00000130: 7fa2 173e b322 8e3e 86a6 cf3d 6e79 593e
00000140: b677 ab3d c5a2 ce3d 533d 913e 7663 ff3d
00000150: b29b 123e 6549 d73d c97b 213e ab1f 923e
00000160: 3ae3 443e 9797 f23d c04f fa3d 2292 303e
00000170: 8e6f 243e e28e f03d 5243 d43d 96bd 1b3e
00000180: 5c78 183e 394d 873e 6599 903e 56db 853e
00000190: fbb2 1d3e c1ec 373e 61e6 2d3e f0c4 6f3e
000001a0: e7f1 e73d 7c3f 8b3e da97 933e 9e90 323e
000001b0: 4393 d43d e4d4 823e 9fef fc3d 7ff9 c23d
000001c0: 4f4b 083e 6ef6 7c3e 4da0 063e 8b09 423e
000001d0: 54f1 4b3e 0c86 353e 2c7f 753e 3853 293e
000001e0: bcb2 5e3e 9c7e 333e bfc3 463e 68d0 883e
000001f0: 1952 813e 78e5 823e 270b 5a3e 38b1 473e
00000200: e110 753e 584f 8d3e 6dd4 dd3d d245 7b3e
00000210: b3ed 183e 7048 3a3e b808 723e 675e 3d3e
00000220: 5678 8e3e 4de5 353e e62f 333e 2eb2 8e3e
00000230: 831b 803e efd3 8a3e e309 0b3e 90ae 8d3e
00000240: 7adc 8c3e 93e7 1d3e 909f ca3d f77b 853e
00000250: 7d1f 2c3e 87d6 6b3e 3278 ff3d 4416 c93d
00000260: 8ddc 3c3e 1641 773e f1fb bb3d 918e 5d3e
00000270: a90d 533e d5df 423e 8427 2e3e 94c0 1f3e
00000280: 8a53 233e decd ad3d 5343 1e3e aae7 af3d
00000290: a8a6 ac3d f87f 4e3e f853 843d 150f b73d
000002a0: faad 6b3e f188 783e b6aa f03d b297 703d
000002b0: 1c7e 8c3d dd2e ff3d 3100 b73d 4bdb d83d
000002c0: 3882 3c3e 090c 843e 80ee 433e 87f6 193e
000002d0: 9a1d 4b3e 2bbc 653e 22bd 483e eebc e13d
000002e0: 9040 123e 775c d43d f532 c73d 1693 443e
000002f0: 6782 e23d 7836 283e ffd6 353e b6c2 883e
00000300: ab3b e63d c7a2 673e 15e6 2b3e ef61 8f3e
00000310: b2a6 593e 7e9b c13d ea3b 923e b37e 913e
00000320: a7fc fa3d 7092 253e 8fa1 ed3d a9e7 453e
00000330: 3549 e93d 696c 723e 452f 0c3e ec0a 063e
00000340: 5cb4 fe3d 52a0 573e 67fe 8f3e c60c e43d
00000350: 3263 f23d b32c 093e 4aeb 7b3e f714 bb3d
00000360: 0e67 553e 5b0e c53d 753c 743e 9caf dd3d
00000370: a925 0e3e 488e 673e 3077 223e 8652 893e
00000380: 4b82 823e cf55 933e d63f 263e 332c 923e
00000390: 3c69 653e 276b 153e 8654 853e ede0 433e
000003a0: 3aa5 863e 5e83 5d3e 22db 713e b219 8a3e
000003b0: 3d6a 8a3e e6fe 5a3e 21f8 683e b510 e03d
000003c0: 1b90 963d 2e5b db3d 866e 1d3e e142 813e
000003d0: ba23 ee3d 7337 503e 4551 023e 8980 073e
000003e0: 6045 853e 69fc 7f3e 8572 663e c509 df3d
000003f0: cb42 6b3e 18c1 6b3d 9f00 a33d 6397 c73d
0.072646685 0.22257982 0.23712885 0.08166773 0.1267157 0.22985107 0.21576944 0.14582439
0.18451555 0.09485592 0.2316483 0.18783681 0.16952913 0.21401832 0.10255478 0.2716145
0.17979331 0.10666785 0.17491446 0.12831864 0.12686427 0.19786364 0.24545884 0.2703077
0.26505214 0.09057193 0.2825221 0.21123633 0.22702761 0.1141079 0.19701661 0.16490766
0.17131358 0.18460247 0.19314198 0.0973251 0.16804543 0.10126764 0.227088 0.21034311
0.13720325 0.2501716 0.15847321 0.122882694 0.08856194 0.13569574 0.24383855 0.14421405
0.20551734 0.16916248 0.15400824 0.2573314 0.091069214 0.21252668 0.280227 0.18530992
0.25806692 0.121392176 0.22504838 0.154402 0.2380748 0.14779143 0.20906143 0.1604775
0.09369472 0.24052596 0.094653204 0.16796675 0.1386459 0.23735999 0.10818927 0.13875607
0.18148963 0.25668883 0.09164009 0.18698728 0.14808081 0.27760848 0.10139184 0.21237728
0.083724424 0.100896396 0.283671 0.124701425 0.14317206 0.10512046 0.15769877 0.28539786
0.19227305 0.1184532 0.12222242 0.17243245 0.1605818 0.11746003 0.10364403 0.1520904
0.14889663 0.26426104 0.2824203 0.26143903 0.15400307 0.17961408 0.16982414 0.2341497
0.11325436 0.27196872 0.2882679 0.1743798 0.103796504 0.25553048 0.123503916 0.09520244
0.13309978 0.2470338 0.13147087 0.18948953 0.19916278 0.17726916 0.23974293 0.16535652
0.21747869 0.17528766 0.19410609 0.267215 0.25257948 0.25565696 0.21293317 0.19501197
0.2393222 0.27599597 0.108315326 0.24538353 0.14934425 0.18191695 0.23636138 0.18493043
0.27826184 0.17763253 0.1749874 0.27870315 0.2502099 0.27114818 0.1357799 0.27672243
0.2751196 0.1542037 0.098937154 0.2607114 0.16808887 0.23031054 0.12474097 0.098187
0.18443508 0.24145922 0.091789134 0.21636416 0.2061068 0.19030698 0.17007262 0.15600806
0.15949836 0.08486532 0.1545537 0.08589108 0.08430225 0.20166004 0.06461328 0.089384235
0.23015586 0.24270989 0.117513105 0.058738418 0.06859991 0.1246011 0.089355834 0.10588702
0.1840905 0.25790432 0.1913395 0.15035449 0.19835511 0.22435062 0.19603398 0.110223636
0.14282441 0.10369199 0.09726516 0.19196734 0.110600285 0.16427028 0.17757796 0.26711053
0.112418495 0.22620688 0.16786988 0.28004405 0.21254995 0.09453486 0.28561336 0.28416976
0.12255221 0.16169143 0.116030805 0.19326653 0.11390916 0.23674168 0.13689907 0.13090104
0.124367446 0.21057251 0.2812378 0.11135249 0.11835326 0.13395958 0.24601474 0.09134858
0.20840093 0.09621879 0.23851188 0.108245105 0.13881554 0.2261287 0.15865779 0.26820773
0.2549003 0.28776404 0.16235289 0.28549346 0.22403425 0.14591657 0.2604105 0.19128771
0.26297933 0.21632144 0.23618749 0.2697273 0.27034178 0.21386299 0.22750904 0.109406866
0.07351705 0.107107505 0.15374193 0.25246337 0.11627908 0.20333652 0.12726314 0.13232626
0.2602949 0.2499863 0.22504623 0.10890535 0.22974698 0.057557195 0.07959103 0.097456716

lstm.weight_hh_l0 f4 [396, 99]
00000000: 186d b3bd 8121 a53d 6523 c63d 0cd3 fcbc
00000010: 4a0c 093d 0b36 9a3d af33 843d bcc0 d63c
00000020: 8678 663d 22ae 06bd 2073 8cbb 466b 99bd
00000030: 5e1e 703d 7092 33bc 215a 7abd b6aa 023d
00000040: 120e 623d 8014 cfbc fd8b 873d 2261 41bd
00000050: d1cf c3bd 80e2 9d3c e824 343c 4649 9cbd
00000060: 3b3b a13d f0b2 bebb 6a28 2f3d f6ca 293d
00000070: 46ca 283d 441d c6bc abf5 2fbd f990 7fbd
00000080: a84a dcbc 4cb5 a23c 8ab4 18bd 7915 a13d
00000090: 806e 94bc c020 973b 1c21 56bd acc1 9bbc
000000a0: b33c a23d fe96 173d 8e0d 3f3d d2ff 663d
000000b0: cad5 b9bd ef95 8b3d 93b3 ad3d 897e aa3d
000000c0: 1afe 8abd 340d 8abd e0ab 65bb 9360 2bbd
000000d0: 36c8 bdbd 463c 0e3d e020 ffbb a7fd c9bd
000000e0: e786 be3d 0c0b b5bd 3015 a1bb c05d 11bc
000000f0: 6afb 22bd d9c2 853d 3d58 8f3d 5708 a23d
00000100: dbd4 86bd 90a3 9abc 1c2f 8fbc 2d5e a93d
00000110: 7a05 8cbd 38f3 eabc 0038 5339 38a0 b93c
00000120: d04c 693c 76b2 5e3d 2a02 8abd ad0f cbbd
00000130: 4000 b13a 9c2a a4bc 00cd a33b d6c4 bebd
00000140: c58a 26bd c221 1b3d 307c dabb adc7 35bd
00000150: fce5 8cbc fc28 2bbd 8d26 bc3d 3387 adbd
00000160: fc3c ea3c e2c9 05bd a65e 9fbd a05e 573b
00000170: e649 483d eb41 b9bd 0782 c03d 2983 bc3d
00000180: 27a9 c73d 563f 2f3d e80d 00bd 086e ac3c
00000190: a8d8 91bd b6c8 a4bd 50ac 49bd 102e 45bc
000001a0: f0b7 d4bb 7c31 f03c e3d9 b33d b5d1 b03d
000001b0: 1750 cb3d 284e 26bc 9cc7 b73c 84c9 0ebd
000001c0: 0043 de3b 4226 1f3d dcef c63c 0ff7 be3d
000001d0: 1f97 913d 40eb 3b3c cb85 813d 7836 a0bc
000001e0: 281d b83c 9b53 9f3d 7fd4 6bbd ad9e 883d
000001f0: 64c2 a5bd 57e0 863d c4d5 82bc 9a40 423d
00000200: 0dbc b53d 9953 a63d 9e37 9cbd 47ed 863d
00000210: 7b60 babd 8a95 0ebd c821 e9bc 0c1d 1abd
00000220: bb2c c2bd d049 b9bc 4070 9bba 4c72 84bd
00000230: 745c 26bd 1173 a4bd 2c82 e93c 4048 243b
00000240: 4ab6 083d e4c5 bbbd 7bb2 9e3d a046 31bc
00000250: 8ef3 433d a041 52bb 98c2 89bd d58e 9a3d
00000260: 042c e53c 1a0e 133d 62cb b7bd 8845 51bc
00000270: d95f b33d e0f5 c5bc 3a42 b2bd c036 183b
00000280: ad44 a9bd bba0 a43d 2629 6e3d a0f5 7f3b
00000290: 9e07 733d 5862 5cbc a4f5 ab3c 1fe4 ba3d
000002a0: 8749 983d 52ef 7f3d 6025 32bd b00c 823b
000002b0: 7ccd 8d3c dc96 dd3c d83c a3bc effd bb3d
000002c0: e57f 91bd c047 7fbb c9bc 803d e020 79bc
000002d0: 4f8b 6abd f2c4 84bd 7095 cdbb 8981 32bd
000002e0: 1446 81bc c071 57bd b0f3 fdbb 94fa 8bbd
000002f0: 9d6b 6cbd c2eb 2a3d b38a 883d a8d0 18bc
00000300: 401c 873c b004 e63b 6d0f a8bd 806e cfbb
00000310: b824 0fbd 7040 cabb 9542 bbbd 4862 69bc
00000320: 81d2 ccbd 737f c03d bce1 a8bc 0102 b13d
00000330: 11c9 883d 10d6 97bc 1de6 91bd 7887 16bc
00000340: f4ab bebc 890e b43d 006f a239 e889 3a3c
00000350: 9653 6e3d 2ffd 7dbd 10d2 38bd 1c65 f43c
00000360: d032 47bc 1867 25bc 40be cdbd 0ad5 533d
00000370: 84d6 63bd 0257 30bd 7d86 77bd 37aa 52bd
00000380: e6b9 97bd 330f a03d 61ea 34bd 608a 083b
00000390: 88d4 203c 7f4a 94bd 1200 87bd 267b acbd
000003a0: b231 093d 2fb7 973d 9c28 25bd 44da f43c
000003b0: 23b1 b63d c023 e4bc 6b31 9b3d e0b3 a7bb
000003c0: 00ff 10bc c993 b9bd 30fc 3dbc bc57 ddbc
000003d0: 094a 883d c920 a63d f95f bebd d5df 9a3d
000003e0: 82be 60bd 846c a0bc ff86 30bd 6a42 393d
000003f0: 8bc7 77bd 9710 a13d 401b a13a 7c9a 8abc
-0.08761042 0.08063031 0.0967472 -0.030862354 0.033458985 0.07529839 0.0645517 0.02621495
0.056267284 -0.03288091 -0.004286185 -0.07491164 0.05862271 -0.010960206 -0.06112111 0.031901084
0.0551892 -0.02527833 0.066184975 -0.047211774 -0.09561122 0.019273043 0.010995127 -0.07631163
0.078726254 -0.005819671 0.04276315 0.041453324 0.041208528 -0.024183877 -0.042958897 -0.062394116
-0.026891068 0.01986184 -0.03728155 0.07865424 -0.018119097 0.0046120584 -0.05227767 -0.019013248
0.07921734 0.03700923 0.046643786 0.056396313 -0.0907398 0.06815707 0.08481517 0.08324916
-0.06786747 -0.067407995 -0.0035045072 -0.041840147 -0.09266703 0.03472545 -0.0077859014 -0.098628335
0.09303074 -0.08839998 -0.004915856 -0.008872449 -0.03979055 0.06531305 0.06999252 0.07911747
-0.06583568 -0.01887682 -0.017478518 0.08269916 -0.06836982 -0.028680429 0.0002014339 0.022659406
0.014239505 0.054369412 -0.06738694 -0.09915099 0.0013504103 -0.020039849 0.004998803 -0.09314887
-0.040659685 0.03787399 -0.0066676363 -0.04437988 -0.017199509 -0.041787133 0.091870405 -0.08473053
0.028593533 -0.032663234 -0.07781725 0.0032862797 0.0488986 -0.09045776 0.09399801 0.09204704
0.0974906 0.04278501 -0.031263262 0.02104856 -0.07121402 -0.08046095 -0.049236596 -0.012034908
-0.0064916536 0.029320471 0.08781793 0.086337484 0.09927385 -0.01015047 0.022434048 -0.03486015
0.0067828894 0.038854845 0.024284296 0.093244664 0.07108902 0.011469662 0.06324347 -0.019557223
0.02247484 0.07779618 -0.0575757 0.0667089 -0.08093718 0.06585758 -0.015971072 0.04742489
0.088737585 0.08121414 -0.07627796 0.06588226 -0.091004334 -0.03481058 -0.028458491 -0.037625358
-0.09481188 -0.022618204 -0.0011859015 -0.06467113 -0.040615514 -0.0802976 0.028504454 0.0025067478
0.03337697 -0.09168604 0.07748886 -0.010820061 0.047839694 -0.0032082573 -0.06726569 0.07546774
0.02797509 0.03590212 -0.08974339 -0.012772925 0.08758516 -0.024165094 -0.08704038 0.0023225993
-0.08265052 0.080384694 0.05814471 0.0039056316 0.059333436 -0.013451181 0.020991154 0.09125542
0.07435899 0.062484093 -0.043492675 0.0039687976 0.017309897 0.027049474 -0.019926473 0.09179293
-0.07104472 -0.0038952678 0.06286008 -0.015205592 -0.05726176 -0.06482877 -0.006273918 -0.043580566
-0.015780486 -0.052598715 -0.007749997 -0.06834903 -0.057719816 0.041728742 0.0666708 -0.009327091
0.016492963 0.0070196018 -0.08206067 -0.0063303113 -0.034947127 -0.0061722323 -0.09143559 -0.0142446235
-0.10001088 0.09399309 -0.020615451 0.0864296 0.066789754 -0.01853469 -0.07123969 -0.009187572
-0.023275353 0.08791835 0.0003098175 0.0113854185 0.058185183 -0.062009033 -0.045122206 0.029833369
-0.012158111 -0.01009538 -0.10046053 0.05171684 -0.0556245 -0.043051727 -0.060430992 -0.05143186
-0.07408504 0.07815399 -0.044168834 0.002083443 0.009816296 -0.072407715 -0.0659181 -0.08421926
0.03349466 0.074079864 -0.04032193 0.029889233 0.08920505 -0.027849078 0.07577785 -0.0051178783
-0.008849859 -0.09061391 -0.011595771 -0.027019374 0.06654746 0.08111722 -0.09295649 0.07562224
-0.054869182 -0.019582994 -0.043097492 0.045229353 -0.060493033 0.078644924 0.0012291446 -0.016919367

lstm.bias_ih_l0 f4 [396]
00000000: 15aa da3d 46b9 903e 071c 043e cfc5 833e
00000010: f5b0 333e f0d1 403e 2944 273e a1c0 1a3e
00000020: 7eaa 373e bb9c 913e 8ac1 9f3d 221d 2f3e
00000030: abc9 863e 2912 843e 51cc 293e 31a9 dd3d
00000040: 5dec c33d 6298 323e b257 793d 71e8 fd3d
00000050: cdeb 923e 5240 333e 8dc5 623e 93b8 5b3e
00000060: 56b4 413e 7538 043e b61a 4f3e 2103 8d3e
00000070: 4b08 0c3e f820 8a3e 15dd 663e 6595 803e
00000080: 9103 f33d 4192 063e ace4 3a3e 713e 063e
00000090: 2a69 ee3d 909f 2f3e cfc8 5b3e 678d f53d
000000a0: a652 ed3d 3796 1a3e e8f1 3a3e feb7 5e3e
000000b0: 9c23 353e a1b1 533e 9c19 763e 8480 843e
000000c0: b86c 743e 7167 623e e802 7c3e dc1f fd3d
000000d0: 5c32 713e b8e5 1a3e 76bd 043e 432d 043e
000000e0: ce96 033e 53a9 913d d039 be3c 2870 623e
000000f0: c95d 133e 3a20 1e3e 2dd6 6b3e 9df4 193e
00000100: 9294 4b3e 9208 ff3d 365f 0c3e 3502 483e
00000110: 1da0 863e 76c9 0a3e adda 913e 2e3c 693e
00000120: 3017 7b3e 4363 433e 5242 b43d 2a0f 423e
00000130: 2f29 da3d 1441 0c3e 2bdb 723e 1197 1c3e
00000140: 033b 353e e07f a93d e0ab fa3d dc30 5a3e
00000150: 5964 273e 4d91 043e aae9 3d3e e08d 233e
00000160: 9a96 8a3d 9df7 e93d 2017 443e fbd0 8f3e
00000170: b0d2 1d3e 8d0d 1e3e 9533 003e 7f5f b63d
00000180: 5932 013e 7542 cd3d 8691 e53d 62e7 8abd
00000190: 9486 aabd 7c7e 69bd c87a 06bc c05c 663c
000001a0: 9df5 56bd 3625 083d bbff ca3d ceb5 7b3d
000001b0: c34a 9a3d a390 99bd 13f8 2ebd 4927 58bd
000001c0: 090e 813d 12c3 16bd b2ed 533d be1d 51bd
000001d0: 2209 b3bd e29d 763d 0aeb 91bd 6744 1ebd
000001e0: 10e7 66bc 902d 453c 2ab5 153d aa8d 053d
000001f0: e017 fb3b 1f09 bfbd a83d 88bd d0ab f6bb
00000200: be74 753d 1e99 083d c089 c43a 8e08 453d
00000210: 3254 10bd 0a5f 0fbd b6dd 613d 40e3 96bc
00000220: fd6d a13d b4c1 79bd 6e38 233d 718f 84bd
00000230: 668b 20bd e413 a43c d3c7 b1bd 46b5 34bd
00000240: e349 54bd 009c 90ba 2bf6 b7bd 3cab db3c
00000250: 21b7 c23d deb6 4a3d 48ae a83c 9679 023d
00000260: d210 3b3d ad59 8dbd 90a0 173c 0009 eeba
00000270: a1e8 b13d bd58 873d e7e9 993d d6e3 193d
00000280: 4adb 363d 0ce4 9bbc 2e94 6a3d 7b68 a0bd
00000290: 03f0 bdbd 50ee 2cbc 49a6 23bd 9e50 a9bd
000002a0: 4f28 5fbd 00b8 2db8 f0c3 83bd 504d 92bd
000002b0: f043 4a3c a031 aabb fa09 1abd 0a7c 413d
000002c0: 2fe9 a93d 1e4b 403d 36ad a9bd 608f 6b3c
000002d0: 1ddc cbbd 0ef4 c5bd d636 623d 0035 b7ba
000002e0: ad7e 5dbd c5bd bd3d 935b 91bd ed56 74bd
000002f0: 300c 01bc b427 ce3c bc5a d83c c585 813d
00000300: 6c6c fa3c 859a 99bd e8b2 8cbd 927a 353d
00000310: 1491 d13c 92e9 2f3d 47b2 de3d 58a0 903e
00000320: f621 393e d3f8 8a3e 786e 3ebe 8ced 43be
00000330: 94dc 383e 0978 57be a205 783e 2663 80be
00000340: e965 5abe 738b 81be 5091 053e e024 27be
00000350: c947 0e3e 8fcf 3abe 03ea 703e 0bd1 ccbd
00000360: 3f49 80be 8396 cabd b3af 193e 4ade 7abe
00000370: 124e 2cbe 78ef 28be b9a1 753e 9c52 533e
00000380: 54b0 2bbe 5a1c 223e c750 453e 0ca7 433e
00000390: 7d07 82be 2ac8 5bbe 5a8a 683e d5b6 4c3e
000003a0: bd49 353e d222 693e 28c9 333e 6b4f 89be
000003b0: 1b93 e2bd e005 463e 4d8f 043e 6266 833e
000003c0: 22ca 8c3e 2569 79be dd33 103e 4cd7 623e
000003d0: ddca 01be a9f9 62be 8baa 42be 393a 2b3e
000003e0: b6b0 543e eba3 4fbe 7b91 8d3e efe6 023e
000003f0: 017f 893e b484 183e 6736 81be 4b3c ea3d
0.10676972 0.28266352 0.12901317 0.25736853 0.17547973 0.18830085 0.16334595 0.15112545
0.17936131 0.28439888 0.078005865 0.17100957 0.26325735 0.25795105 0.16581847 0.10823286
0.09566567 0.17440942 0.06087465 0.1239785 0.28695527 0.17505005 0.22145672 0.21457128
0.18916449 0.12912162 0.20225033 0.2754145 0.13675039 0.26978278 0.22545274 0.2511398
0.118659146 0.13141729 0.18251294 0.13109757 0.11641152 0.17150712 0.21463321 0.11989861
0.115880296 0.15096365 0.18256342 0.21749875 0.17689365 0.20673229 0.24033207 0.258793
0.23869598 0.22109772 0.24610484 0.12359592 0.23554367 0.15126693 0.12962899 0.12907891
0.12850496 0.07112374 0.023220927 0.22113097 0.14391245 0.15441981 0.2303092 0.15034719
0.19880894 0.124528065 0.13708195 0.19532092 0.26294032 0.13553414 0.2848715 0.22776863
0.24520564 0.19080834 0.08801712 0.18951097 0.106523864 0.136967 0.23716418 0.15292002
0.17698292 0.08276343 0.12239814 0.21307701 0.16346873 0.12946053 0.18546167 0.1597209
0.06767006 0.114241816 0.19149446 0.28089127 0.15412402 0.15434857 0.12519677 0.08904933
0.12616862 0.10022441 0.11209397 -0.06782414 -0.0832645 -0.05700539 -0.008207984 0.014060199
-0.05248033 0.033238612 0.09912058 0.06145268 0.07533791 -0.074982904 -0.04271705 -0.05277184
0.06301505 -0.036807127 0.051740356 -0.051053755 -0.08741976 0.060209163 -0.07124908 -0.038639452
-0.0140931755 0.012034789 0.036549725 0.032605805 0.007662758 -0.093279116 -0.06652385 -0.007527806
0.059925787 0.03334915 0.0014994666 0.04810386 -0.035236545 -0.035002746 0.05514308 -0.018418908
0.07882307 -0.060975745 0.039848737 -0.06472672 -0.03919544 0.020029016 -0.086806916 -0.04411819
-0.051828276 -0.001103282 -0.089825 0.02681505 0.09507585 0.049490802 0.020590916 0.031854235
0.045670338 -0.0690187 0.00925459 -0.0018160641 0.086869486 0.06608722 0.075153165 0.037570797
0.044642724 -0.01902964 0.05727022 -0.07832428 -0.09274294 -0.010554865 -0.039953504 -0.0826733
-0.0544818 -4.1417778e-05 -0.064338565 -0.071436524 0.012345299 -0.005193904 -0.03760717 0.047237433
0.08296429 0.046946637 -0.082849905 0.014377445 -0.09954093 -0.0966569 0.055228077 -0.0013977587
-0.054075886 0.09264711 -0.070975445 -0.05965321 -0.007876441 0.025165416 0.026410453 0.06324343
0.030569278 -0.075001754 -0.06870061 0.044306345 0.025581874 0.04294736 0.108738475 0.28247333
0.18079361 0.27142963 -0.18596828 -0.19133586 0.18052894 -0.21041884 0.24220899 -0.25075644
-0.21327938 -0.25301704 0.13043714 -0.1632266 0.13894571 -0.1824324 0.23526768 -0.10000809
-0.25055882 -0.09891989 0.1500843 -0.24498859 -0.16826656 -0.164976 0.23987474 0.20636982
-0.16766483 0.15831128 0.19269095 0.19106692 -0.25396338 -0.21463075 0.22709027 0.1999162
0.1770391 0.22767189 0.17557204 -0.26818404 -0.110632144 0.19338179 0.1294529 0.2566405
0.27497965 -0.24356516 0.14082284 0.22152442 -0.12675042 -0.2216555 -0.1901037 0.16721429
0.20770535 -0.20277373 0.27650055 0.12783407 0.2685471 0.14894372 -0.25236818 0.11437281

lstm.bias_hh_l0 f4 [396]
00000000: 3738 813e 0ccb 843e e988 593e d3c2 943e
00000010: bb8c e63d 28d9 843e 4d58 183e 5c28 693e
00000020: 8e33 643e 52d4 833e e41b 103e 53a3 e33d
00000030: 67fc 883e d7cc 923e 9fc2 303e 805c 823e
00000040: 3dc0 be3d c453 903d afea 603e 40f1 2a3e
00000050: 5abb 1d3e 9734 2e3e 2719 6e3e d5b9 643e
00000060: 1034 be3d 1c9b f53d 3e03 593e 84b1 1a3e
00000070: 0b39 453e e8df c73d 9b43 213e a8a3 7f3e
00000080: 110f de3d 9f60 363e 389c 403e 2872 233e
00000090: 4efa df3d 1ae8 e43d 29dc 593e d8f5 863e
000000a0: d472 593e e9da f93d 8872 803e 24cf 2a3e
000000b0: a909 503e 974c 1d3e a5ca e63d 0ef7 6b3e
000000c0: 0ce2 f23d 45fa 1a3e bf70 873e d927 e73d
000000d0: 4c4b 173e c8bc d83d d033 5d3e 0d2c 253e
000000e0: d713 2f3e 3581 7d3e 76e4 8d3d 08fd d83d
000000f0: 6e27 4e3e f06b 503e 812e d03d a3bd e03d
00000100: 52b3 e83d 7584 363e 9bca 6d3e ff5d fe3d
00000110: f86a 683e fd34 663e 49d3 793e b03c 163e
00000120: d277 733e 410e 813e 50bc 743d 867e 823e
00000130: 9baa 2d3e 54f1 d53d 7097 a93d 4df5 113e
00000140: 5b61 f13d 55b5 6a3e 2dcd b83d 4370 553e
00000150: a0df 0a3e 824a 463e 8a48 063e 2ed6 a63d
00000160: 73c2 4c3e b148 8d3e 3b00 513e dfd2 4a3e
00000170: 2732 363e 1a59 163e 2151 e53d 154f 823e
00000180: 64c3 a63d fc87 4e3e f38b d93d 3423 80bc
00000190: b0a4 3bbc a417 ff3c 90fe 883c 4c4d 70bd
000001a0: b3c8 79bd 00b4 763a 2399 b0bd 3fc5 30bd
000001b0: b65a 19bd 2020 a73c d036 edbb 9a22 7e3d
000001c0: d6a5 4ebd bc7f 9b3c 875e 98bd ef4d 8f3d
000001d0: 989f 62bd 48f0 93bc c69f 01bd 444d 71bd
000001e0: 1ca2 b7bd a18c 9f3d 40f7 2fbb 5463 95bc
000001f0: 9ccc b3bd 0064 fd3a 13ec abbd a8e8 b2bc
00000200: caee 173d a1b3 ca3d 6055 b03b 9a34 5b3d
00000210: 0ae1 bfbd f097 1fbc d095 3ebc ffa1 bc3d
00000220: d506 5bbd a060 1cbc 00c7 ae3b 1c33 803c
00000230: 44bf 04bd aec1 93bd 509c 39bc b1ed c13d
00000240: 0a78 3f3d 71b9 41bd 5869 c23c 861b 323d
00000250: 0bac c63d d45f 883c 70dd 0d3c 894b a9bd
00000260: 08a4 973c efaa 7abd b284 a1bd 0651 383d
00000270: 1850 72bc 3a63 613d a422 c7bd df4b cdbd
00000280: 20ce 20bb 3e63 99bd 7cff 16bd 5a69 713d
00000290: f701 bd3d bad4 5d3d 7691 a5bd 7984 a1bd
000002a0: af95 a4bd 2b0c 893d a4dc cabc 6497 cb3c
000002b0: 65f0 883d e808 a5bc 1bab cabd aa0a 78bd
000002c0: 96b4 063d 5c38 83bd 5bdc 9a3d f040 963b
000002d0: 5dc6 99bd f49c d43c d078 eebb 21ed 9f3d
000002e0: 22f1 00bd 4000 6cbd 710f 9d3d b094 c3bb
000002f0: a563 923d 5040 c03b 6539 bf3d 68a9 423c
00000300: f4c8 d33c a071 9c3b 12ee 793d 0a07 613d
00000310: 291c b9bd b4a7 e2bc c403 813e 378b 863e
00000320: e740 613e b64e 853e bb99 78be 85c9 06be
00000330: 497b 5e3e 1743 1abe 6782 473e 07e4 2fbe
00000340: 3216 debd 5521 6abe b719 523e ee41 67be
00000350: db62 283e c1de 57be b722 493e 8849 75be
00000360: 0fc8 e4bd 19ff 35be 815d 1c3e ee1a adbd
00000370: 27c8 89be 0ec5 b1bd 078a 2b3e c2ff 223e
00000380: ac5a 7abe dd40 373e 3b4d da3d dd3c cf3d
00000390: 3c1a 50be fdb3 72be 498d 533e 126a 843e
000003a0: 09c1 9d3d 754f 3c3e 9ec3 093e 28ab 62be
000003b0: bcd2 07be 9806 843e 662f 4f3e 4dc4 4d3e
000003c0: 6645 563e 398f a0bd 11bf 7c3e 6dc5 383e
000003d0: 9761 0fbe 90bf ccbd d544 3bbe 5b64 283e
000003e0: 4c81 293e 3092 82be d170 f13d e3f2 443e
000003f0: 4f5f 0a3e 6b67 2d3e 67f9 81be 153e 313e
0.252382 0.25936162 0.21243633 0.2905489 0.11257311 0.25946927 0.14877434 0.22769302
0.22285292 0.25747925 0.1407314 0.11115136 0.26755068 0.28671905 0.17261742 0.25461197
0.0931401 0.07047227 0.21964525 0.16693592 0.154035 0.17012249 0.23251782 0.22336514
0.09287274 0.119924754 0.21192643 0.1510678 0.19260041 0.097595036 0.15748446 0.24964774
0.108427174 0.17810296 0.18809593 0.15961516 0.10936414 0.11177082 0.2127539 0.2635944
0.2123521 0.12199957 0.2508738 0.1668058 0.20316185 0.15361248 0.1126912 0.23043463
0.11859521 0.15134533 0.26453206 0.11286897 0.14774817 0.10582882 0.21601796 0.16130085
0.17097412 0.2475632 0.06928341 0.10595137 0.20132229 0.20353675 0.1016512 0.1097367
0.11362328 0.17823966 0.23221819 0.12420272 0.22697055 0.22481151 0.24397005 0.14671588
0.23776177 0.25206187 0.0597499 0.25487155 0.16959612 0.1044642 0.082808375 0.14253731
0.11786147 0.22920735 0.09023509 0.20843606 0.13561869 0.1936436 0.13113609 0.0814632
0.19996051 0.27594522 0.20410244 0.19807003 0.17792569 0.14682427 0.11197115 0.2545096
0.081427366 0.20169061 0.10622396 -0.015641786 -0.011452839 0.031139202 0.016722947 -0.058667466
-0.060982417 0.00094109774 -0.086229585 -0.04315686 -0.037440024 0.02040106 -0.0072392 0.062044717
-0.050451122 0.018981807 -0.07439905 0.069972865 -0.05532798 -0.018058911 -0.031646512 -0.058911577
-0.08966467 0.07790495 -0.0026850253 -0.01823584 -0.087792605 0.001933217 -0.08394637 -0.021839455
0.03709296 0.09897543 0.0053812712 0.05351696 -0.09369095 -0.009740815 -0.011632398 0.09210586
-0.053473312 -0.009544522 0.0053337812 0.01564937 -0.032408968 -0.07214676 -0.011328772 0.09469164
0.046745338 -0.04729599 0.023731872 0.04348328 0.09700783 0.016647257 0.008658752 -0.0826636
0.018510833 -0.06119817 -0.07886638 0.044999145 -0.014789604 0.05502627 -0.09723404 -0.10024237
-0.0024536923 -0.07489632 -0.036864743 0.05893836 0.092288904 0.05415795 -0.08084385 -0.07886595
-0.080363624 0.06691774 -0.024763413 0.024852462 0.066864766 -0.020145848 -0.09895917 -0.060557045
0.032887064 -0.06407234 0.07561561 0.004585378 -0.07508538 0.025953747 -0.0072775856 0.078089006
-0.031479962 -0.057617426 0.07668961 -0.0059686527 0.07147912 0.0058670416 0.09337119 0.01188121
0.025852658 0.0047742873 0.061018057 0.054938354 -0.09038574 -0.027667858 0.25198185 0.26278087
0.21997415 0.26036614 -0.24277394 -0.13162811 0.21726717 -0.15064655 0.19483338 -0.1717683
-0.10844077 -0.22864278 0.20517622 -0.22583744 0.1644396 -0.21081068 0.19642149 -0.23953831
-0.11170971 -0.17773093 0.15270044 -0.08452402 -0.26910517 -0.08680163 0.16751872 0.15917876
-0.24448651 0.17895837 0.10659262 0.101190306 -0.20322508 -0.23701473 0.20659365 0.25862175
0.07702834 0.18389685 0.13453528 -0.22135603 -0.13263983 0.2578628 0.20232925 0.20094414
0.20924911 -0.078398176 0.24682261 0.18044062 -0.14002071 -0.09997475 -0.18287976 0.16444533
0.16553229 -0.25502157 0.11789096 0.19233279 0.1351292 0.16933982 -0.2538559 0.17308839

lstm.weight_ih_l1 f4 [396, 99]
00000000: e909 1f3e 2cec 363e 8775 c03d 0260 1e3e
00000010: 7dd4 79be 3d7c 4fbe 27c7 033e 2fa3 76be
00000020: 1655 423e 2aa5 18be 170a 86be 8524 2ebe
00000030: bd56 253e f302 70be 58bd 1e3e a393 8ebe
00000040: 6365 d03d 7374 57be c9ae c5bd 54ea 4bbe
00000050: 5919 ea3d 3bd5 13be ef82 10be 126b 61be
00000060: 83e9 803e 6b71 143e 45dc 13be 2876 383e
00000070: 7364 353e 4a9a b33d 9788 00be ec16 90be
00000080: 735c 493e bd62 293e 2805 293e 0544 7e3e
00000090: 9c81 8f3e 40a7 92be 2ca2 88be b6f2 573e
000000a0: c2fe 043e da41 d33d c240 5d3e ee50 e5bd
000000b0: 8ee7 463e b185 463e b2ca 92bd 48ed 4dbe
000000c0: 8685 debd 6fa6 803e b1fe 3f3e 2b2f 2ebe
000000d0: 6443 1a3e 8709 7b3e 705b 293e 97c3 7e3e
000000e0: 5052 f3bd 438c 913d 63af 28be 13a5 f63d
000000f0: 770e 90bd 2c3a 8d3d 452f 0b3e 8b61 183e
00000100: 07ce 4fbe 6db9 283e f575 7bbe 5704 d3bd
00000110: 32df 3a3e ea0e 8bbe f0d7 87be b3eb 42be
00000120: f7a3 1dbe c0f0 4b3e a098 0d3e ae62 183e
00000130: b78e 713e 0c99 13be 6e97 b33d 01d0 263e
00000140: 6270 8f3e 5dec 5f3e 584b e13d 9c49 b0bd
00000150: 8dae ea3d d672 7a3e 30bb 1dbe 5f3c 87be
00000160: 126f 88be c237 893e 675f 7bbe 2f30 683e
00000170: 77bd 39be fd60 3b3e 5fb6 5fbe e967 793e
00000180: f92b 803e 7f40 183e fb42 20be b0ae 773e
00000190: 85e5 d13d 5132 7a3e 380c 873d 3678 46be
000001a0: 4baa f6bd 0b5b d83d 36d1 80be 0505 6a3e
000001b0: 6cbc 17be e48b 91be 2a65 b9bd b282 a43d
000001c0: 0094 6dbe 4c8d 1c3e 3699 16be 62a7 123e
000001d0: 7f93 16be fe83 50be 634a ccbd 12c4 6c3d
000001e0: 5879 82be 8357 3bbe e0b2 3fbe 49f0 c33d
000001f0: 5050 bf3d 1106 57be aae8 503e 6986 223e
00000200: b4a4 653e efd2 61be 9446 d2bd c95c d83d
00000210: 2d5b cd3d 80d5 523e 00c6 113e c5f8 b03d
00000220: 8723 5cbe 122d 16be aa57 1e3e 7492 553d
00000230: 534f 0d3e 9b71 a73d f665 43be de61 533e
00000240: d0c7 253e 860c 28be edb4 6abe 489b 80be
00000250: bcea b03d eec7 813e 6a14 1bbe 5269 1d3e
00000260: 2834 9f3d b6f2 483e 87ef 173d ca04 6abe
00000270: af91 dd3d 931f 14be 3467 683e 9f79 8dbe
00000280: b65c 6b3d 2e5e 773e 1691 6a3e f2ed 16be
00000290: 8eff 4d3e 3ad8 c0bd e456 5abe 57a8 0f3e
000002a0: 0496 03be 805e 9bbd e380 7dbe db32 6dbd
000002b0: 5b0f 543e 2662 763e 2218 2a3e d660 043e
000002c0: 0564 22be 7ff2 853e 0999 ce3d 0611 193e
000002d0: 60f9 9a3d 356d ac3d aecd 49be 01e1 8a3d
000002e0: 31f4 723e 27cf 5ebe 719c 72be 1ee0 37be
000002f0: ae2c 153e 0e1c 54be 72ab 583e 9941 2fbe
00000300: aabf fa3d e3b6 62be 7ac6 143e 205b 283e
00000310: 1e65 1d3e 0bc5 69be 3f58 bf3d 76cc 3e3e
00000320: fb88 4f3e cf02 843e d3f3 8bbe f42e 18be
00000330: 27cf 1f3e f5a3 76be e30e 483e 9aa9 78be
00000340: a9a2 1bbe 9dc5 45be 15a5 783e f5e3 63be
00000350: 64ee 243e a42c 35be 79f4 423e b9ec 52be
00000360: 37c7 83be 2c8e 67be 3a6c 3a3e 97d4 73be
00000370: 76c8 aabd 10d7 2bbe 1d57 413e dad0 e13d
00000380: 180a 90be 46fc 103e 432c eb3d 6ca6 ad3d
00000390: 699f 7bbe edfe 8abe 61fe 863e 2ca9 dd3d
000003a0: 2b40 773e 656a d23d 675d 353e 9b2a 55be
000003b0: 02a1 8abe 7150 b73d 54f8 413e 5547 3c3e
000003c0: 8cbe 433e 28cd 81bd fcb5 273e 2abe ab3d
000003d0: 2d37 64be 8f9e 8dbe fbb8 6dbe 7b45 113e
000003e0: a371 8d3e 2019 98bd 6d2f ba3d 87de 3d3e
000003f0: 3b5a ae3d b937 213e 734b 16be 1d9b 183e
0.15531124 0.1786353 0.093974166 0.15466312 -0.24397464 -0.20262237 0.1286894 -0.24085687
0.1897777 -0.14906755 -0.26179573 -0.17006119 0.1614637 -0.23438625 0.15501916 -0.27847013
0.10175588 -0.21040516 -0.09652478 -0.19913608 0.11430616 -0.1443681 -0.14112447 -0.220135
0.25178155 0.1449639 -0.14439495 0.18013823 0.177141 0.08769663 -0.12552105 -0.28142488
0.19664173 0.16541572 0.16505873 0.24830635 0.28028572 -0.28643227 -0.26686227 0.2108868
0.12987807 0.103152946 0.21606734 -0.11197077 0.19424269 0.19386937 -0.07167567 -0.20110047
-0.10865311 0.2512698 0.18749501 -0.1701018 0.1506477 0.24515353 0.16538787 0.24879299
-0.11880934 0.07106831 -0.16473155 0.12043204 -0.07034009 0.06895861 0.1359225 0.1488096
-0.20293437 0.16476984 -0.24556716 -0.10303562 0.18249205 -0.27159816 -0.26531935 -0.19035225
-0.15394579 0.19916058 0.13827753 0.14881393 0.23589598 -0.14413851 0.08769117 0.16290285
0.2801543 0.21867509 0.11000699 -0.0860779 0.11459074 0.24457869 -0.15403438 -0.26413247
-0.2664724 0.26800352 -0.24548112 0.2267463 -0.18138681 0.18298717 -0.21846913 0.24356045
0.25033548 0.14868353 -0.15650551 0.24187732 0.102488555 0.24433257 0.065941274 -0.19381794
-0.120441996 0.1056424 -0.25159615 0.22853477 -0.14817971 -0.2842704 -0.09052499 0.08032741
-0.23200989 0.15288275 -0.14706883 0.14321664 -0.14704703 -0.20362851 -0.09975126 0.057804175
-0.25483203 -0.18295102 -0.18720579 0.09567315 0.0934149 -0.20998408 0.20401254 0.15871586
0.2242611 -0.22053121 -0.10267368 0.10564572 0.10027156 0.20589256 0.14235687 0.08641199
-0.21497928 -0.1466563 0.15463129 0.05214162 0.13799791 0.081759654 -0.19081864 0.20642802
0.16189504 -0.16411027 -0.2292058 -0.2511847 0.08638522 0.25347847 -0.15144506 0.15372208
0.0777362 0.19623837 0.037093665 -0.2285339 0.108188026 -0.1446517 0.22695619 -0.27631852
0.057461463 0.2415702 0.22906908 -0.14739206 0.20117018 -0.09416242 -0.21322209 0.1402906
-0.12850195 -0.07586384 -0.24756198 -0.057909828 0.20708983 0.24060878 0.16610768 0.12927565
-0.15858467 0.26161572 0.10087783 0.149479 0.07567096 0.08419267 -0.19707367 0.06781197
0.23725964 -0.2175871 -0.2369249 -0.17956588 0.14567825 -0.20713827 0.21159151 -0.17114867
0.12243588 -0.22140078 0.14528838 0.16441011 0.15370604 -0.22829072 0.093430035 0.18632683
0.20267098 0.25783393 -0.2733446 -0.14861661 0.15606366 -0.24085982 0.19536929 -0.24283448
-0.15198769 -0.19313665 0.24281724 -0.22254927 0.16106564 -0.1769281 0.19038571 -0.20598115
-0.25737926 -0.22612828 0.18205348 -0.23811565 -0.08339016 -0.16781259 0.18880887 0.110261634
-0.281327 0.14158735 0.11483052 0.08479008 -0.24572529 -0.27147618 0.2636595 0.108232826
0.24145572 0.102741994 0.17711411 -0.20817034 -0.27075964 0.0895089 0.18942386 0.18386586
0.19115657 -0.063379586 0.16378015 0.0838588 -0.22286673 -0.27660033 -0.23215096 0.14186661
0.2762576 -0.07426667 0.09091077 0.18541919 0.08513304 0.15743913 -0.14677219 0.14902921

lstm.weight_hh_l1 f4 [396, 99]
00000000: e8b0 383c 80c5 833a 8adb 2d3d 0e65 2d3d
00000010: 70ed 8d3b aeee 0abd 1e02 0f3d c031 bd3c
00000020: 80ea 0bbc c58d 993d a6b3 393d b6c2 473d
00000030: 0c09 e73c 36cc 86bd fac8 45bd a822 80bc
00000040: 3143 9a3d 9a77 96bd 33e4 a03d 090c b93d
00000050: 3734 cd3d 2a2d 8fbd a039 033b dfa5 b03d
00000060: f827 223c 349f 59bd d01f 92bd c305 bf3d
00000070: eaaa 62bd a042 16bb a056 b8bc 65a8 973d
00000080: ee2b bbbd aa69 763d dab8 c0bd 2627 383d
00000090: c046 84bb 4069 433c 2e3e 323d 508f 0dbd
000000a0: aef2 8abd b850 50bc 43ec 953d 0438 abbd
000000b0: 3275 6f3d 1bc3 37bd 4c32 56bd c67f 0b3d
000000c0: 0e2f 80bd 4232 17bd a2ac 413d fa30 16bd
000000d0: 5872 c2bc 1733 7cbd 1a49 413d ac02 ed3c
000000e0: a32a 91bd bbb4 8d3d fd1a abbd 5cdc ff3c
000000f0: a00f b6bc 842e c6bc 8082 15ba fe63 2bbd
00000100: 9c4e a6bd 8f72 c3bd ea25 483d 5ee3 4a3d
00000110: d771 be3d 68f1 893c fb75 b63d 675a 7bbd
00000120: 2ff0 9b3d 632f 873d e4e5 d3bc 39dc bc3d
00000130: 637a 8fbd e8c1 aabd c3d4 5fbd c6c6 2c3d
00000140: 8a73 2b3d e295 3d3d e274 27bd 80e7 973b
00000150: c320 b13d 8c0a 85bd a004 1cbb 5ba5 aa3d
00000160: 7029 87bb c813 36bc 48bf c8bd f293 263d
00000170: ec40 a1bc c8a9 7cbd 26cf 683d 9208 00bd
00000180: 08f4 39bc e0f6 693b 5851 8abd 722f 033d
00000190: dba0 913d 89d9 42bd 5acd 5bbd 4b12 5dbd
000001a0: 4095 66bb e0db 3e3c 4b50 923d 8077 72bb
000001b0: 46d3 74bd 7db6 7ebd decb 10bd 4b2a c13d
000001c0: 6a89 513d da6e bdbd 16eb 3a3d 5829 09bd
000001d0: 865b 1abd 444f 6bbd 057e bf3d cb55 9cbd
000001e0: 6177 c13d da15 353d 10b8 49bc 424a 743d
000001f0: 841b 903c c8de 3dbd 00f2 64ba 4a54 0f3d
00000200: db91 b9bd 60f2 f23b 2856 b9bc f2ef 05bd
00000210: ade0 803d d143 9c3d 079e 7ebd ae19 09bd
00000220: 56b9 95bd 5aaf 303d 06d8 583d a730 b7bd
00000230: cb15 21bd a095 4f3b 4a29 663d bd2a b43d
00000240: 3e0c 583d b77a 93bd 1282 6c3d fcdb 81bc
00000250: eded 41bd b08c 02bd a02c 3f3c 6e8a 453d
00000260: f126 953d 3011 a1bc 8058 5bbb ff5f 43bd
00000270: 20bc fcbb 6dd7 47bd ed34 5bbd 6a0e 313d
00000280: f045 5d3c 70c4 bd3b d98c 8f3d 0018 a9bd
00000290: d501 91bd edce be3d f7ad c9bd 11d8 ad3d
000002a0: 707d a8bd 305e f8bc 3660 643d 4494 aa3c
000002b0: 001b ccbd 27ae ab3d 56bf 603d 8494 98bd
000002c0: 892d 863d 5ad7 04bd bd44 a3bd 216d 953d
000002d0: 17a1 c83d 680c 00bc e8bb c23c 54bb dcbc
000002e0: ad63 a83d f683 563d c278 6f3d ddbf 8b3d
000002f0: a519 883d ac50 f9bc 408c f0bc a845 773c
00000300: 12de 4b3d 6868 733c 115f 9dbd 328d 8fbd
00000310: 89ff b43d d6c4 193d 9481 68bd 5c5c d63c
00000320: a1e8 993d 4ef3 4e3d c124 823d 5eec 533d
00000330: 544d b53c d5ac a63d a80d 1cbc 56a0 27bd
00000340: f00a 893c 21df c93d 88f5 713c 60c2 a2bc
00000350: f0c6 6b3c 7dcc c13d 2658 4e3d b944 c03d
00000360: 1c28 bbbc c7c6 9fbd 815c b53d 5272 89bd
00000370: bb4f 9c3d 12bd 683d 3dda b83d 24ca ee3c
00000380: 8c87 eabc f4f8 83bc 80fe 283c 9559 ae3d
00000390: f2a9 423d 21a6 893d 9186 b33d fd79 40bd
000003a0: 5374 9d3d f2dd 08bd b35e aa3d b0c8 8cbc
000003b0: 0a69 4b3d 1c79 c03c a924 a53d 3498 fa3c
000003c0: d408 fdbc 9227 773d 4d6f be3d 34f9 14bd
000003d0: fe9c 86bd 28cc 9fbc 28d5 333c 5389 8e3d
000003e0: 00f8 1038 86ac 18bd 3fdc 6ebd 844a 45bd
000003f0: fad0 373d 6685 503d 7432 92bc 3ab1 9dbd
0.0112726465 0.0010053366 0.042445697 0.0423327 0.0043312833 -0.03391903 0.03491413 0.023095012
-0.008539796 0.074977435 0.04533734 0.048769675 0.028202556 -0.06581919 -0.04828737 -0.015641525
0.07532347 -0.07347031 0.078560255 0.09035499 0.10019725 -0.06991036 0.002002336 0.086253874
0.009897225 -0.053130344 -0.07134974 0.09327271 -0.055338778 -0.0022927895 -0.022502244 0.074051656
-0.09139238 0.060159363 -0.09410258 0.04495921 -0.0040367544 0.011926949 0.04351633 -0.0345605
-0.06784569 -0.012714557 0.07320454 -0.083602935 0.058461376 -0.0448638 -0.05229406 0.0340574
-0.06258975 -0.036913164 0.047283776 -0.0366678 -0.023736164 -0.06157216 0.047188856 0.028931938
-0.070882104 0.06919237 -0.08354757 0.031233005 -0.022224247 -0.024192102 -0.0005703345 -0.041843407
-0.08120462 -0.09543335 0.048864283 0.04953324 0.09299057 0.016838744 0.08909222 -0.06136551
0.07614171 0.06600835 -0.025866456 0.09221692 -0.07005765 -0.08337766 -0.054646265 0.042181753
0.041858234 0.046285518 -0.040882953 0.0046357512 0.08648827 -0.06496152 -0.0023806468 0.0833232
-0.004124813 -0.011113115 -0.09802109 0.040668435 -0.019684277 -0.061685354 0.056838177 -0.031258173
-0.0113496855 0.0035700127 -0.06753796 0.03202767 0.07110759 -0.04757074 -0.053662635 -0.053972524
-0.0035184175 0.011649102 0.07144221 -0.0036997497 -0.0597718 -0.062185753 -0.035350673 0.09431895
0.05115644 -0.09249659 0.04563435 -0.033486694 -0.03768494 -0.05744864 0.09350208 -0.07633551
0.09446598 0.044210292 -0.01231195 0.05964113 0.017591245 -0.04635504 -0.00087335706 0.034992494
-0.09061023 0.0074141473 -0.02262409 -0.032699533 0.062928535 0.076301225 -0.062162425 -0.033471756
-0.07310741 0.04313598 0.05294039 -0.089448266 -0.039327424 0.0031674877 0.05619172 0.08797214
0.05274605 -0.072011404 0.057741232 -0.015851967 -0.047346044 -0.03187245 0.011668354 0.04822772
0.07282818 -0.019661516 -0.0033469498 -0.04769897 -0.007712856 -0.04878943 -0.05351727 0.043226637
0.013505444 0.0057912394 0.070092864 -0.08256531 -0.070804276 0.09316812 -0.09847634 0.08488477
-0.0822705 -0.03031835 0.055755816 0.020822652 -0.09966087 0.08382826 0.054869972 -0.07450202
0.06551654 -0.032431938 -0.07972095 0.07296205 0.097963504 -0.007815458 0.023771241 -0.026944794
0.08222137 0.05237194 0.058464773 0.068237044 0.06645516 -0.030433975 -0.029363751 0.015092291
0.04977233 0.014856435 -0.07684148 -0.07009353 0.08837802 0.037541233 -0.0567642 0.026167087
0.075150736 0.050525002 0.063546665 0.05173909 0.0221316 0.08138434 -0.00952474 -0.040924393
0.016728848 0.098570116 0.014768012 -0.019868076 0.014390692 0.09462831 0.050377034 0.09388108
-0.022846274 -0.07801586 0.08855534 -0.06711258 0.07632395 0.056820937 0.09026001 0.029149123
-0.028629087 -0.016109921 0.010314584 0.0851318 0.047525354 0.0672114 0.08765901 -0.046991337
0.07688203 -0.03341479 0.08318844 -0.017185539 0.04966072 0.02349525 0.08063633 0.030590154
-0.030887999 0.06034047 0.09298573 -0.03637047 -0.06572913 -0.019506529 0.010976113 0.06959786
3.4563243e-05 -0.037273906 -0.05831551 -0.048166767 0.04487703 0.05090847 -0.017846324 -0.07699819

lstm.bias_ih_l1 f4 [396]
00000000: 387f 333e da27 2a3e 421e 263e dd55 a53d
00000010: 92a4 523e 394e 2f3d 9188 133e 1dd3 c23d
00000020: f44f 3b3e 7d57 223e d529 053e c865 853e
00000030: 4e45 6e3e ac3e a93d 468a 163e a663 993d
00000040: 76c6 fd3d 6466 463e 0a95 c93d def9 523e
00000050: 24d7 4a3e 46f6 6f3e 5e5a 533d a4e5 013e
00000060: fb0f 533e d1e0 333e f9ad 043e 9518 553e
00000070: a828 263e 7bba 323e 1f68 b03d 4b1a 573e
00000080: 9fe4 303e 3be5 d53d f1da 773e 500f 683e
00000090: e1c7 4d3e 425b 353e f871 4d3e 067c 2d3e
000000a0: 56a8 983d 1bb8 713e 26b0 853e df5e 813e
000000b0: ec70 223e fdb7 063e 19ef 323e 4d17 613e
000000c0: 3c33 653e 4564 713e acf9 053d 2d4c 183e
000000d0: 6ec8 6d3e 0621 f63d c18a dc3d 4498 6a3e
000000e0: 05a2 dcbd fb5d 393e 8566 9c3d 3fe5 383e
000000f0: 99b2 273e ef4f 373e ad6b 8f3e b301 523e
00000100: e394 f83d 9ad8 4a3e 800d 4c3e 421d c43d
00000110: c0cf 143e 94e2 2e3e d113 543e 5dc4 583e
00000120: aaa5 363e 0488 373e e5f4 623e 1890 d83d
00000130: 8faf 303e 8955 4b3e b435 bb3d dc99 ea3d
00000140: 7a13 373e 5b3d 8f3e 06a6 593d 36f1 893d
00000150: e1a6 6e3e 4815 a03d 70f1 5f3e b55f 8c3e
00000160: 9039 7a3e cb8f 1f3e 657e d53d 0afd 013e
00000170: a099 5f3e d9c7 063e 6b9a fe3d 2d66 183e
00000180: 68f2 6a3e 57da 283e b57e ff3d 90b5 2f3c
00000190: 9177 a13d 9f94 c13d 34d2 8f3c f0d6 123c
000001a0: 2d5b 62bd 7448 d0bc ec1f b5bc 57f8 a13d
000001b0: 24f3 f03c f47a ca3c 70a6 ae3c 3dba c13d
000001c0: 9e5a 573d 0af1 85bd 40eb 713b 3326 a7bd
000001d0: ec05 b3bc c0c1 0b3c 5bf4 ca3d b495 d43c
000001e0: 603c 55bb 3bd5 c23d cda6 c33d b15d a93d
000001f0: 2267 3abd ed24 74bd b031 f6bc df20 8e3d
00000200: 496c 5fbd ee64 183d c743 bc3d 609b dbbb
00000210: 8e20 7b3d 90af bbbb 2601 013d 704b a6bc
00000220: b0d2 163c caa5 a1bd bba8 903d a733 993d
00000230: a541 c03d d557 91bd 3cc7 8abc a011 8bbc
00000240: 29a4 cc3d c098 a93a 60f4 d33b 6802 b0bd
00000250: d6a9 3c3d 0a8d b7bd 763a 8ebd 83ce ab3d
00000260: 886a fdbc 189b 943c d5dc b0bd 193e a53d
00000270: 302f 60bd 88a5 bcbc 0c34 4fbd 8039 0f3c
00000280: fd26 c33d 3fe5 84bd bbeb a73d 22b5 c0bd
00000290: 8f0f 71bd 6c64 ee3c 9286 cdbd 303a cebc
000002a0: e078 923b 5489 bfbc 1be9 3bbd 74c0 ffbc
000002b0: 176e c63d e059 a43b f19f 54bd f394 b73d
000002c0: 4449 ce3c a55c 1cbd b063 8ebc a682 adbd
000002d0: 079f 54bd a68f 8dbd fe0c 77bd 0052 4cbc
000002e0: 004f 243c 992f a03d 88b2 bcbc 9f47 a8bd
000002f0: 2369 91bd 15ea b7bd 9e75 413d 9741 85bd
00000300: b224 64bd 4b9f c13d d2b0 653d bb88 babd
00000310: 30cc 733c 7041 9ebd 33c3 83be b1d1 efbd
00000320: 332d 29be 33d5 81be c99e 4a3e 3ee9 56be
00000330: a906 2d3e faee 213e 2fe0 61be 1fa0 323e
00000340: 9c87 ac3d 0e96 653e 1a66 793e 25e5 06be
00000350: 82e2 46be 1bdc ba3d 2853 24be 36f8 6e3e
00000360: b2bf 223e 2cfc 3f3e b240 70bd 0e46 853e
00000370: 9988 e43d 5834 33be 5558 09be dd96 67be
00000380: 43c5 3bbe bd1b 32be 3636 443e ca2d 3c3e
00000390: bce1 3ebe c6fd 1dbe da19 13be 8942 fb3d
000003a0: ccbb 2abe 941a e53d c3a0 d9bd 4b97 363e
000003b0: 33fc 5bbe 10cb 033e 24a5 3d3e b814 3cbe
000003c0: c62c 7ebe 50b1 27be 796d ec3d 86e0 793e
000003d0: 810e 5e3e d1b6 4c3e ba1c 413e 0789 3abe
000003e0: 4f62 94bd 90f8 d53d 0db8 1f3e faaf 6d3e
000003f0: 9c8a 6f3e b0de f73d 04b8 24bd 522a 43be
0.17528999 0.16616765 0.1622248 0.08073018 0.20570591 0.04279921 0.14407565 0.09512923
0.18292218 0.15853687 0.13004239 0.26054215 0.23268625 0.08263907 0.14701185 0.074897096
0.12391369 0.19374996 0.0984288 0.2060313 0.19808632 0.2343379 0.051599853 0.12685257
0.20611565 0.1756623 0.1295699 0.20810159 0.16226447 0.17453949 0.086136095 0.21006124
0.17274712 0.10444113 0.24204613 0.22662091 0.20095779 0.17710593 0.20063007 0.16941842
0.074539825 0.23605387 0.26110953 0.25267693 0.15863389 0.13156123 0.17474021 0.21981545
0.22382826 0.23573406 0.03270881 0.14872809 0.23220989 0.120180175 0.10768653 0.22909647
-0.1077309 0.18102257 0.076367415 0.180562 0.16376723 0.17901586 0.28011838 0.2050846
0.12137773 0.1980919 0.19927025 0.09575893 0.14532375 0.1707862 0.20710684 0.21168657
0.17836633 0.1792298 0.22163732 0.10574359 0.1725447 0.19856848 0.091411024 0.114551276
0.17878523 0.27976498 0.053136848 0.067354605 0.23305847 0.07816559 0.21869445 0.2741677
0.24436021 0.15582196 0.104244985 0.12694183 0.21835947 0.13162173 0.12431797 0.14882727
0.22944033 0.1648954 0.12475339 0.01072444 0.078841336 0.09452175 0.017556287 0.008962378
-0.055262733 -0.025425173 -0.022109948 0.07908695 0.029412813 0.024716832 0.021319598 0.0945935
0.052576654 -0.06540115 0.0036913902 -0.08161583 -0.02185341 0.00853008 0.09909888 0.02595029
-0.0032537207 0.09513327 0.09553299 0.08269823 -0.04550851 -0.059605528 -0.03005299 0.069398634
-0.05454663 0.03720563 0.09192615 -0.0067018718 0.061310343 -0.005727716 0.031495236 -0.020299643
0.009205505 -0.0789295 0.07063433 0.07480555 0.09387521 -0.07096831 -0.016940705 -0.016976178
0.099922486 0.00129392 0.0064683408 -0.08594209 0.046060406 -0.08962448 -0.06944744 0.08388998
-0.030934587 0.01814036 -0.0863587 0.08068485 -0.0547325 -0.02302815 -0.050586745 0.008741736
0.09528921 -0.06489038 0.08199259 -0.09409548 -0.05885273 0.02910062 -0.10035433 -0.02517423
0.004469976 -0.023380913 -0.045876604 -0.031219698 0.09688967 0.0050155967 -0.051910345 0.08963957
0.02518142 -0.03817429 -0.01738152 -0.08472185 -0.051909473 -0.069121644 -0.060315125 -0.012470722
0.010028601 0.078215785 -0.02303435 -0.08216786 -0.07100131 -0.089801945 0.04723131 -0.06506651
-0.055699058 0.09454211 0.056076832 -0.091081105 0.014880225 -0.07727325 -0.25734863 -0.11709917
-0.16521148 -0.2535797 0.19787134 -0.20987412 0.16897072 0.15813819 -0.22058176 0.17443894
0.08424303 0.22420523 0.24355355 -0.13173349 -0.19422343 0.09124013 -0.16047347 0.23336872
0.15893438 0.1874854 -0.05865545 0.2603001 0.111588664 -0.17500436 -0.13412602 -0.22616144
-0.18336968 -0.17393394 0.19161305 0.18376842 -0.18640798 -0.15428838 -0.1436533 0.1226855
-0.16673201 0.1118671 -0.10626366 0.17831151 -0.21482925 0.12870431 0.18520027 -0.18367279
-0.24821767 -0.16376233 0.11544318 0.24402055 0.2168522 0.19991614 0.18858615 -0.18216334
-0.072453134 0.104478 0.15597554 0.23211661 0.23392719 0.12103021 -0.040214553 -0.19059113

lstm.bias_hh_l1 f4 [396]
00000000: d5d5 413e b5cb d03d c001 6e3e 3a14 253e
00000010: 2ecd 763e bce6 673e cf16 093e 49a6 303e
00000020: 36ec 1a3e 0fd4 3e3e 3cb2 ae3d 37c3 323e
00000030: 0c59 0c3e 8d37 6e3e f4dc 833e 26cc 443e
00000040: ccdb 4d3e 9161 843e d3b1 013e e382 be3d
00000050: fd0c d43d e2b6 303e 9254 603d cbed 5f3e
00000060: e87e e83d 8d14 943d a1d0 663e 5862 fe3d
00000070: 84bb 3f3e 87a3 713e f3db 353e 8a2e 743e
00000080: 725a 803e 1620 7a3e 9af3 763e 356a 413e
00000090: 6d73 7e3e 8217 bf3d b688 a93d 3577 ca3d
000000a0: 22e6 ea3d bfac ee3d 86e4 e53d 95a8 203e
000000b0: b4e0 583e 7eed 883d 6596 103e 4889 a83d
000000c0: f0bb 073e 35db fe3d 63f8 143e e910 533d
000000d0: 4636 153e 4936 233e 019d b93d 42aa d33d
000000e0: da56 d7bd db2e 003e 2ed3 3c3e 0e32 c53d
000000f0: 45c0 233e dd28 403e 60f4 693e 9319 be3d
00000100: ad1d c83d c1db 203e d61c 613e a90b 373e
00000110: bc20 eb3d 1b6e f83d 1f64 563e 3bce c83d
00000120: ec25 043e 3547 5c3d 6f34 e93d ffed 833e
00000130: 7be4 193e f89d 273e 71d9 e43d 74a7 f83d
00000140: 3f20 dc3d 0ca1 6a3e b3ec 573e fdde 7a3d
00000150: 0aaf 343e 2372 7f3d 7cd3 353e 4c13 773e
00000160: 2aed 0f3e 94b2 c33d f872 073e e27d 853e
00000170: 4c85 143e 703e 163e da01 153e 3b5d 153e
00000180: ffa4 403e 1a5b b23d 2015 713e 656b b53d
00000190: 40a7 5bbd c0a4 1abd e26b 22bd 08db 8a3c
000001a0: fb9a cb3d 6f95 c63d 701b 26bd 6078 0cbd
000001b0: 4efd 133d 1288 6a3d fec1 3cbd 11a3 b83d
000001c0: 2be8 b63d 6c9a b4bc 5fd3 2cbd 1b57 a03d
000001d0: 9df1 46bd 32b2 6d3d f5e3 6fbd ba72 06bd
000001e0: 5fe8 62bd 0157 a73d a04a d4bb c099 81bc
000001f0: ed02 c03d 51e0 cb3d 408c 91bb 8a6d 503d
00000200: 6bd6 a03d b97a 62bd 0046 c6bd a3a3 883d
00000210: 755c be3d d674 4cbd fc38 9fbd d89f 39bd
00000220: 272b cd3d 985a 713c 1af9 46bd f3e6 7dbd
00000230: 3240 24bd b063 b23c a889 e6bc 0f5d b73d
00000240: bf77 61bd 7ea6 82bd b088 f43b e6b4 cdbd
00000250: c07d 7ebb 6ce2 0cbd d0e8 3b3c d52b b3bd
00000260: 44e7 d6bc 841b b6bd 3cf0 5fbd 7fed a8bd
00000270: 9250 0d3d 8e22 033d 424a 6a3d 2451 8b3c
00000280: 0a23 563d c8f3 39bc 22d1 233d d669 45bd
00000290: d028 50bc 8424 d73c 1675 1bbd 34d9 a3bd
000002a0: 877a 9cbd f2f5 85bd 25f6 61bd 20f9 4fbc
000002b0: 7bd8 a53d ca17 703d 65f2 65bd 4c1a 85bc
000002c0: c262 153d a670 b0bd 60ec 9bbc 7123 a63d
000002d0: 5057 b3bb 6072 9dbd a096 44bc adcb a93d
000002e0: 8c70 893c 102e a6bb da3f 413d d8d8 f4bc
000002f0: 2a92 c2bd 1b49 843d 62b2 7dbd 153e 7fbd
00000300: ba62 043d 80fe 56ba 083f 7d3c 98b7 73bc
00000310: fa81 503d 48cf 343c ab11 aebd 6006 5fbe
00000320: 0547 67be 877e 2cbe 9fef 613e 288d b0bd
00000330: 3741 2a3e c2f6 613e 3ebe 1fbe 39a8 203e
00000340: 5e6c 853e 3aee 503e de88 623e 075c 86be
00000350: d6f2 31be dcfb 2a3e e583 3fbe 0cd6 5a3e
00000360: 090a 523e ff09 543e 91eb 3ebe 348f 833e
00000370: 463f 3a3e 9c7b 3ebe 1e60 83be f415 9ebd
00000380: ed4d 28be e567 59be e2c3 353e 7c2c 533e
00000390: f6e5 15be 9264 74be 1c06 75be f578 513e
000003a0: 4df1 71be 0e20 843e 3791 72be 577a 4f3e
000003b0: 9315 7cbe 8d2d 643e 0415 4e3e e2da f7bd
000003c0: d8c7 72be 2d35 1fbe 0420 803d d2b5 ba3d
000003d0: 392e cf3d 4fc0 173e 0ce5 293e 3b91 fdbd
000003e0: 26e4 2abe 7c1a 5b3e 5a4a 763e ce8a 643e
000003f0: 1ba2 fd3d 53c7 613e 5889 febd a9b0 77be
0.18929227 0.10195104 0.23242855 0.16120997 0.24101707 0.22646612 0.13387607 0.17250933
0.1512917 0.18635581 0.08530089 0.17457281 0.13705844 0.23263378 0.2575451 0.19218501
0.20103377 0.25855687 0.12665491 0.093023084 0.1035404 0.17257264 0.054768153 0.21868055
0.113523304 0.07230482 0.22540523 0.12421101 0.18723875 0.23597537 0.17759685 0.23845878
0.25069004 0.24426302 0.24116364 0.18888171 0.24848719 0.09330656 0.08278029 0.09886018
0.114696756 0.116540425 0.11225228 0.15689309 0.21179467 0.06685923 0.14119871 0.08229309
0.13255286 0.12444154 0.14547877 0.0515298 0.14571485 0.15938677 0.09063149 0.103352085
-0.105146125 0.12517874 0.18439934 0.09628688 0.15991314 0.18765588 0.22847128 0.09282222
0.09771285 0.1570883 0.21983656 0.17875542 0.11480853 0.12130376 0.2093663 0.0980496
0.12905091 0.053778846 0.11386954 0.25767514 0.15028565 0.16368854 0.11174286 0.12141314
0.10748338 0.22912997 0.21086387 0.061247814 0.17644897 0.06236471 0.17756456 0.24128455
0.14055315 0.095555454 0.13227451 0.26072603 0.14503974 0.14672256 0.14551488 0.14586346
0.18812941 0.087087825 0.23543215 0.088583745 -0.0536263 -0.037754774 -0.039653666 0.016950145
0.099416696 0.09696471 -0.04055351 -0.034294486 0.036130242 0.057258673 -0.046083443 0.090154774
0.08931001 -0.02204629 -0.042193767 0.07829114 -0.048570264 0.05803127 -0.058567006 -0.032824256
-0.055397388 0.081708916 -0.0064786226 -0.015820384 0.09375558 0.09954894 -0.004441768 0.050885715
0.07853397 -0.05529282 -0.0968132 0.06671836 0.092949785 -0.04991611 -0.07774541 -0.045318455
0.10017996 0.014731072 -0.048577406 -0.06198783 -0.040100284 0.02177605 -0.028141811 0.089532964
-0.05504584 -0.06379412 0.0074625835 -0.10044269 -0.0038832277 -0.03439562 0.011469081 -0.08748595
-0.026233323 -0.08891967 -0.054672465 -0.08248424 0.034500666 0.032015376 0.057199724 0.017006464
0.05227951 -0.011349626 0.039994366 -0.048196636 -0.012705043 0.02626253 -0.03795346 -0.080004126
-0.07640558 -0.06541051 -0.055166382 -0.012693673 0.08097931 0.058616437 -0.05613937 -0.01624789
0.036471136 -0.08615236 -0.01903361 0.08112229 -0.005473055 -0.07687831 -0.011998802 0.08290801
0.0167773 -0.005071409 0.047180034 -0.029888555 -0.09500535 0.06459256 -0.061937697 -0.062315065
0.032320715 -0.00082013756 0.015456922 -0.014875315 0.050905205 0.011035748 -0.08499464 -0.21779776
-0.22585686 -0.16845141 0.22064064 -0.086206734 0.1662644 0.22066787 -0.15599915 0.15689172
0.2605924 0.20403376 0.22122523 -0.26242086 -0.17377791 0.16697639 -0.18702658 0.21370715
0.2051164 0.20706938 -0.18644549 0.25695193 0.181882 -0.1860184 -0.2565927 -0.07719031
-0.16435976 -0.21231039 0.17750505 0.20622438 -0.14638504 -0.2386649 -0.23928112 0.20456298
-0.23627205 0.25805706 -0.23688208 0.20261513 -0.24617605 0.22283001 0.20125204 -0.121022955
-0.23709047 -0.15547629 0.062561065 0.09116711 0.10116238 0.14819454 0.1659128 -0.12381216
-0.16688594 0.21396822 0.240518 0.22318575 0.12384435 0.22048692 -0.1242854 -0.24188484
