save/model_20240611_175517.pth (torch, 62844 bytes, 9 tensors)

lstm.weight_ih_l0 f4 [128, 15]
0.47056493 0.37044635 0.31820878 0.37833297 0.38414904 0.2315544 0.3722828 0.39326373
0.40276816 0.39488065 0.4335435 0.29219547 0.43067104 0.54717064 0.355919 0.51433593
0.8888017 0.6921784 0.6113719 0.60423845 0.37034363 0.25622207 0.50994074 0.7648857
0.7464543 0.6462943 0.74228054 0.48521355 0.77385706 0.7844477 0.55213267 0.39970368
0.54060614 0.40008587 0.43167064 0.24636741 0.35713756 0.57195485 0.60308987 0.30228665
0.48415855 0.5112145 0.38526195 0.5417493 0.59865457 0.5784657 0.38007015 0.42126444
0.565517 0.58924454 0.48985538 0.32290345 0.49039322 0.44420144 0.497765 0.461449
0.58616155 0.45750803 0.27899984 0.48645753 0.5541802 0.592513 0.33302167 0.25419408
0.3763776 0.34954724 0.51966584 0.530431 0.573338 0.583725 0.5166393 0.2625608
0.2207071 0.27857953 0.4453186 0.48023146 0.5731032 0.31057766 0.41792372 0.27689958
0.50234246 0.26641205 0.27218515 0.47702366 0.3210544 0.45781934 0.30632535 0.54019886
0.6108201 0.54737955 0.511496 0.65932906 0.34786773 0.45263332 0.5082601 0.20918135
0.3511605 0.4992727 0.48737296 0.40905508 0.5530397 0.48758203 0.39199176 0.6198931
0.5461253 0.4162778 0.7357806 0.63111264 0.46225554 0.49699265 0.3914335 0.20304874
0.61526245 0.5212804 0.68377745 0.42938748 0.4050073 0.26376018 0.60367566 0.44002998
0.314268 0.565745 0.63114375 0.4998137 0.6221326 0.17834768 0.43668842 0.32272422
0.3229877 0.46267483 0.6052006 0.5534185 0.24857576 0.44284624 0.51651937 0.41615245
0.66162515 0.615642 0.42656973 0.4809208 0.49483037 0.22971557 0.47150797 0.30972803
0.5424099 0.5927667 0.32797378 0.3135544 0.32503104 0.2821665 0.40094763 0.49117365
0.5076555 0.5204021 0.44433257 0.3648788 0.29653275 0.574995 0.34063572 0.37480825
0.33894026 0.62515724 0.3727964 0.32855275 0.59454554 0.5057054 0.7062103 0.55980325
0.4664339 0.33018914 0.43858007 0.26272663 0.52396476 0.506492 0.49220842 0.5475281
0.5227655 0.3182971 0.31364673 0.6231657 0.53500307 1.0186796 0.68279177 0.70058966
0.92824435 0.41625178 0.48132205 0.8147172 0.8801286 0.8409676 1.0240006 0.90195465
0.5962291 0.7243724 0.95823133 0.36166275 0.36225104 0.53529483 0.5324696 0.35580447
0.42218968 0.2617736 0.28577563 0.5099201 0.43532893 0.6096225 0.28133515 0.2016053
0.38108018 0.5805862 0.4125736 0.501119 0.622263 0.55210185 0.60694283 0.18665245
0.26061177 0.43852416 0.36791086 0.54460514 0.53772396 0.3617377 0.49729946 0.567761
0.44567224 0.34521684 0.6794886 0.30710337 0.3359567 0.61882466 0.2637145 0.34565777
0.5013959 0.46990836 0.31232366 0.43019065 0.45765305 0.5175054 0.4707613 0.35426533
0.2697405 0.45216605 0.505319 0.4068843 0.44067758 0.4159443 0.34469852 0.4389224
0.47455233 0.3899077 0.42611423 0.43825835 0.52738374 0.56706625 0.52331644 0.52808356
00000000: e3ed f03e 25ab bd3e 43ec a23e dcb4 c13e
00000010: 2faf c43e 991c 6d3e da9b be3e dd59 c93e
00000020: a137 ce3e cc2d ca3e 6af9 dd3e a59a 953e
00000030: ea80 dc3e 6013 0c3f 043b b63e 85ab 033f
00000040: 8288 633f 9b32 313f de82 1c3f 5faf 1a3f
00000050: ae9d bd3e 8a2f 833e 7a8b 023f 8dcf 433f
00000060: a117 3f3f 8b73 253f 1906 3e3f e96d f83e
00000070: 7f1b 463f 91d1 483f 9158 0d3f f6a5 cc3e
00000080: 2a65 0a3f 0ed8 cc3e ef03 dd3e bd47 7c3e
00000090: bcda b63e a26b 123f 1964 1a3f 51c5 9a3e
000000a0: a1e3 f73e f4de 023f 0e41 c53e 15b0 0a3f
000000b0: 6d41 193f 5416 143f 8e98 c23e f9af d73e
000000c0: b9c5 103f bbd8 163f 53ce fa3e 9a53 a53e
000000d0: d214 fb3e 5f6e e33e 0edb fe3e 0b43 ec3e
000000e0: af0e 163f 7e3e ea3e 11d9 8e3e f610 f93e
000000f0: c1de 0d3f efae 173f d181 aa3e ba25 823e
00000100: 91b4 c03e dbf7 b23e d208 053f 53ca 073f
00000110: 47c6 123f 006f 153f 7942 043f 5f6e 863e
00000120: 0b01 623e faa1 8e3e cd00 e43e e6e0 f53e
00000130: e4b6 123f 0904 9f3e 19fa d53e c8c5 8d3e
00000140: 8499 003f 2967 883e da5b 8b3e 723c f43e
00000150: 3e61 a43e 4c67 ea3e add6 9c3e 794a 0a3f
00000160: b55e 1c3f 1121 0c3f 67f1 023f cac9 283f
00000170: b81b b23e 8ebf e73e 551d 023f a333 563e
00000180: 4fcb b33e aca0 ff3e f388 f93e ab6f d13e
00000190: 0394 0d3f 5aa4 f93e 25b3 c83e 50b1 1e3f
000001a0: dece 0b3f 5d22 d53e 1e5c 3c3f 9990 213f
000001b0: c2ac ec3e d275 fe3e f969 c83e 02ec 4f3e
000001c0: d781 1d3f a272 053f 0a0c 2f3f add8 db3e
000001d0: 1e5d cf3e 930b 873e 7d8a 1a3f 9c4b e13e
000001e0: bce7 a03e aad4 103f a392 213f 95e7 ff3e
000001f0: 1544 1f3f c6a0 363e a095 df3e 1c3c a53e
00000200: a55e a53e b7e3 ec3e 6dee 1a3f d6ac 0d3f
00000210: a58a 7e3e bebc e23e 9d3a 043f ef11 d53e
00000220: 4460 293f b79a 1d3f 5967 da3e 403b f63e
00000230: 685a fd3e 8f3a 6b3e 7e69 f13e ac94 9e3e
00000240: 60db 0a3f 8fbf 173f 2eec a73e 348a a03e
00000250: 786a a63e 2178 903e 0249 cd3e 1d7b fb3e
00000260: b6f5 013f 1239 053f 8f7f e33e 65d1 ba3e
00000270: 24d3 973e df32 133f ce67 ae3e dee6 bf3e
00000280: 9489 ad3e 4e0a 203f 2bdf be3e 1138 a83e
00000290: 2334 183f e975 013f 33ca 343f 444f 0f3f
000002a0: 6dd0 ee3e 8d0e a93e 918d e03e 1b84 863e
000002b0: 8e22 063f 76a9 013f be02 fc3e cd2a 0c3f
000002c0: f6d3 053f d6f7 a23e 4e96 a03e ca87 1f3f
000002d0: f6f5 083f 1864 823f 71cb 2e3f d859 333f
000002e0: 6ca1 6d3f f41e d53e d86f f63e 4e91 503f
000002f0: 1c50 613f a749 573f 7412 833f 80e6 663f
00000300: 78a2 183f 7870 393f a64e 753f dc2b b93e
00000310: f878 b93e 1509 093f ed4f 083f 012c b63e
00000320: 3f29 d83e 3007 863e 2f51 923e 208a 023f
00000330: 6fe3 de3e 3810 1c3f 290b 903e 9f71 4e3e
00000340: f11c c33e 4ca1 143f d93c d33e 5649 003f
00000350: a14c 1f3f 8c56 0d3f 9b60 1b3f d221 3f3e
00000360: e86e 853e 3d86 e03e d05e bc3e 3e6b 0b3f
00000370: 47a8 093f af35 b93e 099e fe3e c958 113f
00000380: 272f e43e 43c0 b03e f7f2 2d3f a73c 9d3e
00000390: 8402 ac3e 4b6b 1e3f 9605 873e 0efa b03e
000003a0: 7b5b 003f d497 f03e e3e8 9f3e f341 dc3e
000003b0: 8051 ea3e 3c7b 043f a007 f13e 4462 b53e
000003c0: 6d1b 8a3e 4f82 e73e 965c 013f 2453 d03e
000003d0: 7ea0 e13e a7f6 d43e 537c b03e 70ba e03e
000003e0: 86f8 f23e fba1 c73e a52b da3e 6663 e03e
000003f0: 9f02 073f 412b 113f 11f8 053f 7c30 073f

lstm.weight_hh_l0 f4 [128, 32]
0.01981248 -0.10174315 0.014579013 0.0073074996 0.022568956 0.10082282 -0.16886738 0.00066414475
0.06432812 0.15360199 0.064782366 0.17332019 0.14698489 -0.019023985 0.061585516 0.044254407
0.13975556 -0.13040647 -0.006455004 0.037467435 0.06710638 -0.049152583 0.13024433 -0.012374267
0.17253481 0.13841034 -0.14058211 0.15185757 -0.10049071 -0.11506379 0.07953574 0.06125313
-0.13594592 -0.12737781 -0.1311995 0.13263108 0.0356863 -0.10544302 -0.12266659 -0.05979432
-0.1646824 0.1050819 -0.094499305 -0.13762102 -0.04602556 -0.04507549 -0.019041106 0.06874688
-0.11134696 -0.04893072 -0.14008534 -0.10908771 -0.088204965 0.066335216 0.17437448 -0.008177146
0.06435348 -0.06040767 0.04373789 0.16491689 0.06779149 -0.15134944 -0.12961732 -0.14551441
0.06475988 0.15901054 0.02023676 -0.07335808 0.14532848 -0.018514097 0.14624403 0.101491794
-0.012387589 0.06618136 -0.1108072 -0.028749421 0.012208745 0.13012792 0.06689921 -0.050683483
-0.1459906 -0.1653643 0.12413238 0.050446004 0.16944568 -0.105518825 0.12625803 -0.12490935
0.060238406 0.03638202 -0.017314479 0.0073684305 0.14828955 0.078244194 0.1660574 -0.098595895
-0.025675416 0.028973624 0.012933075 0.16394325 -0.040162727 0.0041503757 0.0061190873 -0.025918871
0.0924526 0.08742343 0.06484622 0.0726589 -0.13185652 0.12265335 0.15532066 0.08899288
0.15784238 0.09813209 -0.09471497 0.12508665 0.07913904 0.13935073 0.010367364 0.121028945
-0.1611082 -0.050399497 0.102078244 -0.0011831671 -0.023795769 -0.14001444 0.1061248 -0.12768933
-0.018933669 -0.103371695 -0.06752218 0.0044683814 -0.1755938 0.1750692 -0.036636993 -0.008810699
-0.08498651 -0.03165348 -0.03689748 0.14113067 -0.0027948767 0.15707214 0.015851393 -0.15405671
-0.041680127 0.08723526 0.018568367 -0.011566758 0.0011485666 -0.01609537 -0.039928243 -0.14414528
0.12074064 -0.021595195 0.048806936 -0.12737451 -0.12151943 -0.016265854 -0.1234163 0.1737742
-0.074997574 0.17108433 -0.103383206 -0.04783304 -0.117336765 -0.038560912 0.11236437 0.036869705
0.010280967 -0.104468465 0.15150698 -0.14972357 0.028218627 -0.13534255 0.14187063 -0.09702384
-0.109493636 -0.15472913 -0.15702078 -0.17561093 -0.047151282 -0.16601485 0.04272856 0.032481074
-0.047159225 0.08876209 -0.026887625 -0.16003609 -0.04528922 -0.11550437 0.100859806 0.17353924
0.07368021 0.14514 0.15057428 -0.15907696 -0.15594026 -0.030867487 -0.014517352 0.0061245114
-0.052693486 -0.030452356 -0.085412234 0.03576535 -0.11261794 0.08084239 -0.08641963 -0.058846332
-0.15661092 -0.13182896 0.035881862 -0.039209843 -0.14402248 -0.06916894 -0.101360306 0.1258113
0.006933704 -0.0019178689 -0.17437337 0.15315302 0.04803531 0.14155458 -0.17061143 -0.122870535
0.08799823 -0.09842987 -0.17336684 0.07614489 -0.024491549 0.029105246 0.016792461 0.10673414
0.03118454 -0.058745816 -0.1700155 -0.0051272064 -0.14702411 0.006414145 -0.115853906 -0.14708932
0.07564436 0.06587672 0.0002322048 -0.07406295 -0.06400726 -0.12349412 0.073409244 -0.011017248
0.035257265 -0.14138213 -0.067155756 -0.050032943 -0.015207484 0.1452697 -0.0059201717 0.12265395
00000000: c84d a23c b65e d0bd d0dc 6e3c c073 ef3b
00000010: 88e2 b83c 327c ce3d 92eb 2cbe 001a 2e3a
00000020: 76be 833d d749 1d3e 9eac 843d d97a 313e
00000030: 3583 163e 30d8 9bbc 1841 7c3d 1c44 353d
00000040: 151c 0f3e 4689 05be 8084 d3bb 7477 193d
00000050: 126f 893d 3854 49bd c55e 053e 70bd 4abc
00000060: f7ac 303e 71bb 0d3e c2f4 0fbe 8d80 1b3e
00000070: 13ce cdbd 90a6 ebbd a2e3 a23d 90e4 7a3d
00000080: 6835 0bbe 546f 02be 2959 06be 71d0 073e
00000090: cc2b 123d 83f2 d7bd 9f38 fbbd e4ea 74bd
000000a0: 81a2 28be 2e35 d73d da88 c1bd 86ec 0cbe
000000b0: 4c85 3cbd 14a1 38bd 18fc 9bbc 2acb 8c3d
000000c0: e009 e4bd 946b 48bd 8872 0fbe 6169 dfbd
000000d0: cea4 b4bd c2da 873d 398f 323e 70f9 05bc
000000e0: c2cb 833d 086e 77bd 8026 333d f9df 283e
000000f0: 44d6 8a3d 59fb 1abe 67ba 04be bb01 15be
00000100: d4a0 843d a9d3 223e 90c7 a53c c33c 96bd
00000110: fdd0 143e e0aa 97bc ffc0 153e eeda cf3d
00000120: 50f5 4abc 188a 873d e3ee e2bd e883 ebbc
00000130: 3007 483c 4140 053e 7402 893d 7c99 4fbd
00000140: 8f7e 15be 4255 29be 1e39 fe3d 78a0 4e3d
00000150: 2b83 2d3e 411a d8bd c949 013e 79d0 ffbd
00000160: 8cbc 763d 5005 153d 18d7 8dbc e072 f13b
00000170: 37d9 173e 7e3e a03d f30a 2a3e a5ec c9bd
00000180: 4055 d2bc 185a ed3c 40e5 533c bde0 273e
00000190: ac81 24bd e0ff 873b a082 c83b d053 d4bc
000001a0: ca57 bd3d 0e0b b33d 18ce 843d 30ce 943d
000001b0: 6505 07be ae31 fb3d 610c 1f3e e641 b63d
000001c0: 6fa1 213e 7af9 c83d ecf9 c1bd b716 003e
000001d0: a613 a23d f5b1 0e3e e0db 293c 06de f73d
000001e0: 8cf9 24be b46f 4ebd 660e d13d 8014 9bba
000001f0: 58ef c2bc f25f 0fbe f657 d93d fec0 02be
00000200: c81a 9bbc 8ab4 d3bd 1249 8abd 806b 923b
00000210: dcce 33be 5745 333e ac10 16bd c05a 10bc
00000220: 680d aebd 14a7 01bd d021 17bd 8f84 103e
00000230: 402a 37bb 85d7 203e c8da 813c 0bc1 1dbe
00000240: c8b8 2abd 66a8 b23d b01c 983c 8082 3dbc
00000250: 808b 963a 70da 83bc cc8b 23bd d29a 13be
00000260: de46 f73d 68e8 b0bc c8e9 473d 776e 02be
00000270: 2edf f8bd f83f 85bc afc1 fcbd ddf1 313e
00000280: 5498 99bd bb30 2f3e 93ba d3bd 94ec 43bd
00000290: 424e f0bd 0cf2 1dbd 4a1f e63d b004 173d
000002a0: 8071 283c 90f3 d5bd a524 1b3e 2351 19be
000002b0: c02a e73c 3d97 0abe 8946 113e 6fb4 c6bd
000002c0: 333e e0bd 5071 1ebe 0eca 20be 5ad3 33be
000002d0: b421 41bd ccff 29be 2404 2f3d e00a 053d
000002e0: 082a 41bd e6c8 b53d 7043 dcbc 80e0 23be
000002f0: 3081 39bd 8e8d ecbd 968f ce3d 45b4 313e
00000300: a6e5 963d 959f 143e 2530 1a3e 12e5 22be
00000310: ceae 1fbe d0dd fcbc 30da 6dbc 20b0 c83b
00000320: 20d5 57bd 3877 f9bc 9cec aebd b07e 123d
00000330: 3ca4 e6bd b290 a53d c6fc b0bd da08 71bd
00000340: 9d5e 20be 2cfe 06be dcf8 123d 809a 20bd
00000350: a17a 13be 72a8 8dbd fe95 cfbd add4 003e
00000360: 2034 e33b 0061 fbba ef8e 32be 25d4 1c3e
00000370: acc0 443d aff3 103e c3b4 2ebe 8ca3 fbbd
00000380: 6a38 b43d 9a95 c9bd 1487 31be daf1 9b3d
00000390: 80a2 c8bc 206e ee3c 5890 893c 6e97 da3d
000003a0: b876 ff3c 749f 70bd 8b18 2ebe 2002 a8bb
000003b0: 7d8d 16be c02d d23b d044 edbd 959e 16be
000003c0: 6eeb 9a3d 60ea 863d 007c 7339 51ae 97bd
000003d0: 3d16 83bd 7cea fcbd 9657 963d b081 34bc
000003e0: ec69 103d 7ac6 10be f588 89bd 58ef 4cbd
000003f0: d028 79bc 95c1 143e 00fe c1bb fe31 fb3d

lstm.bias_ih_l0 f4 [128]
0.33366248 0.84494007 0.65093696 0.42139682 0.55935305 0.36407417 0.3761458 0.59346575
0.54978216 0.5410173 0.4493531 0.49114963 0.88897896 0.6259918 0.6631341 0.4685801
0.515507 0.51771 0.7141036 0.6374455 0.64052826 0.4890895 0.59176993 0.35850248
0.6280772 0.4440472 0.58484524 0.36592993 0.3539239 0.6000529 0.40853068 0.6152515
0.13434543 -0.01039204 0.06064032 -0.08503148 0.10661213 0.16656308 0.112354115 -0.03995715
0.104525134 0.006793499 0.022350848 0.027864292 -0.0551875 0.13211562 0.037317663 -0.00097586215
0.11246003 0.083103195 0.13099854 -0.095135696 -0.16084832 0.13785748 -0.00057823956 -0.104468994
-0.09013778 0.05985272 -0.14126149 0.09750722 -0.16069669 -0.09573109 -0.1356568 -0.051355287
-0.305622 -0.40556255 -0.45705658 0.52897245 0.45291752 -0.41548577 0.34576347 0.4197709
-0.5267476 -0.49921566 -0.36540812 -0.31417218 0.5750305 -0.51345074 0.5088221 -0.5253768
-0.40693006 0.2764636 -0.5183644 -0.3892796 0.46885675 0.28413528 0.4355763 -0.24663341
0.3750445 -0.53117627 -0.53940207 0.37140122 0.44208157 0.43875912 -0.46070093 0.3313641
0.46145108 0.8797086 0.6041215 0.6130179 0.40738562 0.49562344 0.4686001 0.8253346
0.46659192 0.642399 0.5652527 0.45838678 1.1088468 0.5948466 0.460151 0.5196784
0.48885906 0.34563023 0.66012686 0.6159926 0.83388865 0.45757118 0.5741573 0.46353996
0.6192746 0.5493097 0.5985186 0.39425862 0.6194786 0.6673492 0.5983564 0.45387024
00000000: cfd5 aa3e fe4d 583f cea3 263f 53c1 d73e
00000010: c331 0f3f ee67 ba3e 2f96 c03e 5fed 173f
00000020: 86be 0c3f 1c80 0a3f 9c11 e63e f777 fb3e
00000030: 2094 633f 0041 203f 28c3 293f bbe9 ef3e
00000040: 44f8 033f a488 043f 7ecf 363f a12f 233f
00000050: a9f9 233f f069 fa3e 3c7e 173f a38d b73e
00000060: abc9 203f 285a e33e 6bb8 153f 2b5b bb3e
00000070: 8335 b53e 119d 193f ef2a d13e 1f81 1d3f
00000080: d991 093e 6043 2abc fc61 783d fc24 aebd
00000090: 7657 da3d 838f 2a3e ea19 e63d 1caa 23bd
000000a0: 4611 d63d 009c de3b 2019 b73c a843 e43c
000000b0: 4a0c 62bd 5149 073e 68da 183d 00d1 7fba
000000c0: 7251 e63d 0232 aa3d 7b24 063e 81d6 c2bd
000000d0: 6cb5 24be 832a 0d3e 0095 17ba d7f3 d5bd
000000e0: 289a b8bd 2028 753d daa6 10be deb1 c73d
000000f0: ac8d 24be a90e c4bd 9ee9 0abe ec59 52bd
00000100: 7d7a 9cbe e5a5 cfbe 5203 eabe bd6a 073f
00000110: cee4 e73e 8dba d4be e907 b13e 36ec d63e
00000120: eed8 06bf 3299 ffbe c616 bbbe 2ddb a0be
00000130: 3335 133f 8271 03bf 2a42 023f 187f 06bf
00000140: 2359 d0be a38c 8d3e 88b3 04bf a84f c7be
00000150: fe0d f03e 2e7a 913e db03 df3e 788d 7cbe
00000160: d505 c03e 2bfb 07bf 4116 0abf 4d28 be3e
00000170: 8458 e23e 09a5 e03e fee0 ebbe 8ea8 a93e
00000180: 5143 ec3e 9534 613f b5a7 1a3f beee 1c3f
00000190: d994 d03e 5bc2 fd3e 5aec ef3e 2149 533f
000001a0: 23e5 ee3e 4374 243f 67b4 103f acb1 ea3e
000001b0: b1ee 8d3f de47 183f e998 eb3e a509 053f
000001c0: bc4b fa3e 72f6 b03e 13fe 283f b1b1 1d3f
000001d0: ba79 553f c546 ea3e f9fb 123f 1c55 ed3e
000001e0: c888 1e3f 8f9f 0c3f 8438 193f 44dc c93e
000001f0: 2696 1e3f 66d7 2a3f e32d 193f ae61 e83e

lstm.bias_hh_l0 f4 [128]
0.57056564 0.71435714 0.41688353 0.34731638 0.49904457 0.59051055 0.47224978 0.48346213
0.45504993 0.47617412 0.38831732 0.58085024 0.9042898 0.60523236 0.6613407 0.5046443
0.52705467 0.6606839 0.72033614 0.5976779 0.7225827 0.5156906 0.3936732 0.49547336
0.59089047 0.43398044 0.6226502 0.5595519 0.68405396 0.31065175 0.33796072 0.50799
0.080641046 0.013102934 -0.07118198 -0.1141085 0.119720355 -0.020493045 0.16157185 0.012662768
0.042945296 -0.100120366 -0.16049412 0.006828189 0.024879053 0.029040948 -0.01938437 0.14527054
0.006926313 0.16852309 0.11898489 0.15783249 0.033177078 -0.014456153 -0.054826893 -0.15742473
0.11112203 -0.04892686 -0.17114598 0.063255 -0.050252154 0.117475525 0.06454018 0.0048111826
-0.56006444 -0.52828485 -0.379215 0.53802717 0.3508096 -0.40056282 0.501681 0.48685282
-0.55292594 -0.45254406 -0.54175323 -0.35635844 0.6153476 -0.46050248 0.36894065 -0.5532113
-0.34073216 0.51431656 -0.47967803 -0.4863279 0.6470527 0.4687191 0.4255906 -0.36453724
0.4462482 -0.28077662 -0.35816205 0.26442236 0.51688856 0.24088658 -0.53610444 0.4765278
0.3985887 0.98716074 0.47108966 0.5430663 0.62169546 0.48000988 0.5414999 0.51647526
0.51273507 0.6345693 0.5010426 0.62356156 1.1995344 0.7265465 0.7354182 0.41799343
0.50651366 0.68660575 0.7180008 0.65863234 0.62040836 0.49434885 0.4235093 0.39459562
0.41470718 0.5861799 0.5946327 0.63782096 0.5705996 0.56380075 0.5066877 0.50125575
00000000: 9710 123f 1ce0 363f c271 d53e 74d3 b13e
00000010: c582 ff3e b32b 173f b9ca f13e 5988 f73e
00000020: 4efc e83e 18cd f33e 87d1 c63e 9ab2 143f
00000030: 897f 673f 82f0 1a3f a04d 293f 5e30 013f
00000040: 0eed 063f 9422 293f f367 383f 6b01 193f
00000050: 2efb 383f 4d04 043f 898f c93e afae fd3e
00000060: 9944 173f af32 de3e 0166 1f3f cb3e 0f3f
00000070: 291e 2f3f bf0d 9f3e 3009 ad3e a20b 023f
00000080: 2227 a53d b0ad 563c dcc7 91bd b8b1 e9bd
00000090: f22f f53d 08e1 a7bc 1773 253e 8077 4f3c
000000a0: 68e7 2f3d e80b cdbd 9258 24be 00bf df3b
000000b0: 28cf cb3c 48e7 ed3c f8cb 9ebc cdc1 143e
000000c0: 20f6 e23b 5191 2c3e 5aae f33d d79e 213e
000000d0: b0e4 073d 80d9 6cbc 2a92 60bd f333 21be
000000e0: f293 e33d 8867 48bd e440 2fbe d68b 813d
000000f0: 34d5 4dbd 0297 f03d a42d 843d 20a7 9d3b
00000100: 6260 0fbf ad3d 07bf 7828 c2be 26bc 093f
00000110: 519d b33e 9216 cdbe 2b6e 003f c644 f93e
00000120: 8e8c 0dbf dbb3 e7be 57b0 0abf 9d74 b6be
00000130: 6c87 1d3f fbc6 ebbe cae5 bc3e 419f 0dbf
00000140: 7274 aebe 40aa 033f 5c98 f5be f8ff f8be
00000150: 3fa5 253f f3fb ef3e 03e7 d93e a0a4 babe
00000160: a57a e43e f4c1 8fbe 0461 b7be 5e62 873e
00000170: cf52 043f f9aa 763e 243e 09bf 74fb f33e
00000180: d113 cc3e 91b6 7c3f aa32 f13e 6506 0b3f
00000190: 6f27 1f3f dbc3 f53e bd9f 0a3f b937 043f
000001a0: 9b42 033f 2273 223f 5444 003f bba1 1f3f
000001b0: 588a 993f f4fe 393f 5e44 3c3f 3c03 d63e
000001c0: e1aa 013f 65c5 2f3f e7ce 373f 219c 283f
000001d0: 15d3 1e3f 4b1b fd3e 36d6 d83e 7008 ca3e
000001e0: 8054 d43e e30f 163f d939 183f 3c48 233f
000001f0: d112 123f 3f55 103f 49b6 013f 4c52 003f

lstm.weight_ih_l1 f4 [128, 32]
-0.6306688 -2.4597032 -0.5968401 0.33641046 0.77169156 -0.5882277 0.4589853 0.9584475
-0.6762269 -0.6134118 -0.51360536 -0.5530997 3.5738788 -0.8416648 1.0691698 -0.473784
-0.3695204 0.64928627 -0.98124105 -0.38486433 1.1732895 0.59026116 0.74982864 -0.42956218
0.45677856 -0.49244672 -0.53232276 0.6189255 0.8225418 0.60058624 -0.6520951 0.5621719
-0.89849806 -1.0770248 -0.78809124 0.6656272 0.9302805 -0.75388885 0.55187315 0.81981015
-0.9896162 -0.5992862 -0.596586 -0.79341257 1.2004696 -0.98135847 0.93514687 -0.901453
-0.8433592 0.7097405 -0.8354169 -0.71904325 1.0658264 0.6979334 0.6905753 -0.62533194
0.62272656 -0.8000119 -0.6902687 0.5547456 0.8200297 0.636767 -0.76480997 0.63570404
-0.6424266 -2.0138376 -0.526423 0.37466824 0.63266075 -0.58180547 0.725068 0.5885227
-0.746431 -0.57977223 -0.52551633 -0.50661707 3.237492 -0.6414686 1.0112865 -0.540113
-0.7186816 0.5261283 -0.9282893 -0.45674807 1.556304 0.7043539 0.47948387 -0.62696356
0.43679625 -0.62687576 -0.69159067 0.6211897 0.87720865 0.5726139 -0.71142864 0.71306723
-0.53876376 -1.5396981 -0.7754177 0.5359335 0.60251355 -0.6626057 0.6663428 0.69398665
-0.88927776 -0.5566768 -0.78084856 -0.7800415 2.0830417 -0.96501786 0.9916267 -0.5035946
-0.8374074 0.7175516 -1.0655161 -0.7530132 1.1336547 0.5252465 0.57390255 -0.5461056
0.48475915 -0.86997575 -0.6003079 0.49388596 1.0046383 0.6529324 -0.73982066 0.63766253
-0.44710276 -2.275634 -0.66954577 0.57276326 0.6743707 -0.6134382 0.7226815 0.98165494
-0.90248495 -0.5070538 -0.601448 -0.5777068 3.4064677 -1.0022663 0.79182374 -0.5772236
-0.40651047 0.39097297 -0.97197634 -0.33534616 1.4378345 0.4253663 0.59647906 -0.4674745
0.4569065 -0.6169256 -0.6972172 0.68146014 0.85238653 0.7385782 -0.5631681 0.56628394
-0.67598546 -2.4225721 -0.6185623 0.63027227 0.7089291 -0.34595013 0.44655615 0.9938688
-0.7510754 -0.6016739 -0.462235 -0.6524805 3.633535 -0.71506214 1.0862664 -0.6854752
-0.6200191 0.4424967 -0.94407517 -0.6773369 1.2373018 0.38330007 0.48649758 -0.48414618
0.47998342 -0.7349468 -0.45545372 0.3824314 0.83812404 0.57561046 -0.73571575 0.39281908
-0.7154384 -2.1598508 -0.5939926 0.36786017 0.6313314 -0.46670717 0.5732899 0.65965605
-0.85415965 -0.6482457 -0.5481492 -0.5173802 2.9847987 -0.8569283 0.9841495 -0.40184218
-0.73754615 0.6727994 -0.7693794 -0.43565795 1.5434036 0.57705027 0.6546182 -0.4529073
0.6715092 -0.48676363 -0.6250241 0.6297823 0.8562197 0.7108528 -0.73113126 0.666017
-0.519383 -2.1515806 -0.7722587 0.35480335 0.44386014 -0.51928145 0.6700578 0.7678229
-0.8668118 -0.51365966 -0.47955555 -0.6196623 3.5571988 -0.8515645 1.0178926 -0.60982907
-0.6560287 0.6332139 -0.82073206 -0.639886 1.4377552 0.5390602 0.47034153 -0.5000521
0.38835505 -0.49279204 -0.6991637 0.50298905 0.6819678 0.5070422 -0.73525304 0.6805497
00000000: 8373 21bf c76b 1dc0 83ca 18bf fe3d ac3e
00000010: 948d 453f 1796 16bf 1f00 eb3e d15c 753f
00000020: 351d 2dbf 8e08 1dbf a47b 03bf f197 0dbf
00000030: 6eba 6440 5877 57bf 8eda 883f d193 f2be
00000040: c731 bdbe a037 263f 9d32 7bbf f00c c5be
00000050: 5a2e 963f 5b1b 173f c5f4 3f3f 93ef dbbe
00000060: e1de e93e fa21 fcbe 4e46 08bf e771 1e3f
00000070: 1992 523f 05c0 193f b4ef 26bf 7fea 0f3f
00000080: f803 66bf f3db 89bf 59c0 49bf 8b66 2a3f
00000090: dd26 6e3f dcfe 40bf 8f47 0d3f 14df 513f
000000a0: 7d57 7dbf d26a 19bf dcb9 18bf 161d 4bbf
000000b0: fda8 993f 4f3a 7bbf c965 6f3f a0c5 66bf
000000c0: 63e6 57bf 8eb1 353f e2dd 55bf 3813 38bf
000000d0: 006d 883f c3ab 323f 8bc9 303f c115 20bf
000000e0: 026b 1f3f 94cd 4cbf 73b5 30bf cf03 0e3f
000000f0: 77ed 513f 2a03 233f 96ca 43bf 80bd 223f
00000100: 1276 24bf b7e2 00c0 a8c3 06bf 84d4 bf3e
00000110: 0ef6 213f 34f1 14bf 0e9e 393f 6ca9 163f
00000120: 1a16 3fbf f46b 14bf 3d88 06bf a8b1 01bf
00000130: 1233 4f40 4937 24bf d671 813f d844 0abf
00000140: 84fb 37bf 58b0 063f 5ea4 6dbf e2da e9be
00000150: f834 c73f 8a50 343f e97e f53e af80 20bf
00000160: c2a3 df3e ee7a 20bf 160c 31bf 4a06 1f3f
00000170: bf90 603f d396 123f 3020 36bf 938b 363f
00000180: 6cec 09bf d414 c5bf c681 46bf f032 093f
00000190: 543e 1a3f 87a0 29bf 7195 2a3f 1ca9 313f
000001a0: b5a7 63bf 5f82 0ebf b1e5 47bf cdb0 47bf
000001b0: 8e50 0540 690b 77bf 3fdb 7d3f 93eb 00bf
000001c0: 5560 56bf 76b1 373f d562 88bf 79c5 40bf
000001d0: 991b 913f 8e76 063f 47eb 123f 94cd 0bbf
000001e0: 5a32 f83e bbb6 5ebf c7ad 19bf 9fde fc3e
000001f0: fd97 803f 9426 273f e364 3dbf da3d 233f
00000200: a7ea e4be fda3 11c0 5a67 2bbf 9da0 123f
00000210: 8fa3 2c3f 490a 1dbf a801 393f bd4d 7b3f
00000220: 4109 67bf 47ce 01bf 7ff8 19bf 98e4 13bf
00000230: 9103 5a40 434a 80bf f6b4 4a3f edc4 13bf
00000240: 2422 d0be 9c2d c83e 71d3 78bf 7eb2 abbe
00000250: f60a b83f 9dc9 d93e dab2 183f d158 efbe
00000260: a6ef e93e d6ee 1dbf d47c 32bf 2c74 2e3f
00000270: 0136 5a3f 7613 3d3f c92b 10bf fcf7 103f
00000280: 620d 2dbf 6c0b 1bc0 195a 1ebf 8659 213f
00000290: 617c 353f 6020 b1be 02a3 e43e 306e 7e3f
000002a0: 7a46 40bf 4d07 1abf 11aa ecbe f608 27bf
000002b0: d68b 6840 500e 37bf c70a 8b3f 4d7b 2fbf
000002c0: 92b9 1ebf ed8e e23e e9ae 71bf f365 2dbf
000002d0: e85f 9e3f e83f c43e 3616 f93e 02e2 f7be
000002e0: 63c0 f53e 7925 3cbf 3b31 e9be 0cce c33e
000002f0: 4c8f 563f 355b 133f de57 3cbf 951f c93e
00000300: f926 37bf ff3a 0ac0 e60f 18bf 2b58 bc3e
00000310: ef9e 213f 3ef4 eebe 20c3 123f 38df 283f
00000320: 35aa 5abf 6ef3 25bf 8253 0cbf 0773 04bf
00000330: f106 3f40 a75f 5bbf 39f1 7b3f 42be cdbe
00000340: d3cf 3cbf 953c 2c3f 0cf6 44bf 8f0e dfbe
00000350: 408e c53f 91b9 133f 0f95 273f 77e3 e7be
00000360: 07e8 2b3f 1539 f9be 9401 20bf 6a39 213f
00000370: 3731 5b3f 73fa 353f 6b2b 3bbf 1780 2a3f
00000380: 49f6 04bf 7fb3 09c0 bfb2 45bf c9a8 b53e
00000390: a341 e33e a1ef 04bf e888 2b3f 0b90 443f
000003a0: 61e7 5dbf 337f 03bf 4e88 f5be 30a2 1ebf
000003b0: 25a9 6340 2200 5abf 4e4a 823f c21d 1cbf
000003c0: 7ff1 27bf 4e1a 223f 7f1b 52bf 92cf 23bf
000003d0: 5d08 b83f d9ff 093f 9bd0 f03e 6a03 00bf
000003e0: 79d6 c63e 3d4f fcbe 64fc 32bf e4c3 003f
000003f0: 7195 2e3f 85cd 013f 8b39 3cbf 8138 2e3f

lstm.weight_hh_l1 f4 [128, 32]
0.043406487 -0.0046996027 0.16789289 0.015913993 0.17601497 0.09260447 -0.0340873 0.027094632
0.04614936 0.1291448 -0.055185795 -0.029999599 -0.16369613 0.057008058 0.026202142 -0.08801636
0.0019904226 -0.083691314 0.16287003 -0.040922508 -0.048205018 -0.09299828 -0.14315236 -0.14675908
-0.07470206 0.017796502 -0.10552768 0.14738972 0.04160735 -0.14628808 -0.1549341 0.14076234
-0.0020160377 -0.09908551 -0.1555113 -0.13739114 0.13894539 -0.07513209 0.17250301 0.021045983
0.08467756 -0.06325308 -0.02390416 0.09251548 0.1514108 0.13716044 0.14054851 -0.06495261
0.16121592 -0.05204516 -0.0467477 0.10768221 0.054845586 -0.12522644 -0.086807735 0.10889335
-0.10295575 0.12230258 -0.14282423 0.1631466 -0.17488128 -0.015025333 -0.118358165 0.1294464
-0.16823786 -0.16326566 -0.12734354 0.13315071 -0.08612158 0.026743844 0.012275651 0.04982002
-0.11424084 -0.10416562 0.12238978 0.07255161 0.060094386 0.14019571 -0.12854448 0.11753331
0.026777416 -0.03492543 0.102243945 0.03273952 0.0047652274 -0.023679554 -0.00073313713 0.12592284
0.15136339 -0.1749619 -0.044921085 0.026264444 0.07196839 -0.051434502 0.053429753 0.06593031
0.109252706 0.074949875 -0.15890902 0.08210714 -0.014274716 -0.0037488341 0.07864015 0.13180144
0.015289366 -0.042985395 0.15688746 -0.1614698 0.12098698 0.09808205 -0.056748435 0.10543631
-0.15752405 -0.09547262 -0.16782913 -0.09708377 0.1725262 0.12968312 0.13014989 0.07648291
0.010648698 -0.0600138 -0.11287046 0.16312398 0.1557257 0.05392146 -0.04825011 -0.14739901
-0.045435697 0.098821655 -0.09959298 0.17289351 -0.16857135 -0.11281238 -0.027450323 -0.13466156
0.07613082 0.019166723 0.1409824 0.010887012 -0.14120269 -0.00065751374 -0.0800901 0.15758277
0.010636896 0.17498423 -0.14166814 -0.12762964 -0.10877779 -0.14497776 -0.046721637 -0.16018544
0.0142157525 -0.16547403 -0.13613242 -0.14799011 -0.10582688 -0.1683541 0.08067043 -0.14322077
0.018851608 0.07933019 -0.003592655 0.02631919 -0.071721986 0.15298478 0.15020584 -0.12255673
-0.052343458 -0.15230978 -0.004730314 0.06287542 -0.081419446 -0.13032275 -0.08504846 -0.052873597
0.0051485896 -0.062502176 0.006965205 0.1717167 0.08807202 0.028597325 0.056656957 0.07112256
0.030999616 -0.09552448 -0.07229678 0.025524214 0.030808657 0.115735516 -0.04430142 0.053323284
0.021071166 0.14920767 0.14343168 -0.030961826 0.13301016 0.017341956 -0.15604167 -0.1710698
-0.13475333 -0.0139025 0.058340788 -0.10766705 0.17229162 0.017193869 -0.1733837 0.102613404
0.016100228 -0.09828343 0.11354087 -0.16692472 0.1304474 0.15020289 -0.105359785 -0.08852635
0.13196383 -0.05976726 -0.0069009513 -0.1601537 -0.067571305 -0.15560307 0.009432867 0.17022459
-0.09263599 0.13791989 -0.15652275 -0.08688332 -0.13924018 0.014827192 0.088880524 0.1702546
0.15180428 0.010538369 0.12842654 0.091788515 -0.04343468 0.028274462 -0.15979528 -0.007720232
0.16121821 -0.02499409 0.124256715 0.066131085 -0.033972546 0.13407986 -0.029717356 0.050255224
0.08889051 0.10111885 -0.14571063 -0.047901183 0.08964421 -0.08123891 -0.060304746 0.080421254
00000000: 00cb 313d 20ff 99bb 1dec 2b3e 105e 823c
00000010: 453d 343e 6aa7 bd3d 209f 0bbd 90f5 dd3c
00000020: 1c07 3d3d 893e 043e 800a 62bd b8c1 f5bc
00000030: f59f 27be 4881 693d e0a5 d63c ec41 b4bd
00000040: c071 023b 5a66 abbd 67c7 263e 5c9e 27bd
00000050: a072 45bd e275 bebd 8896 12be 0348 16be
00000060: 65fd 98bd f8c9 913c e51e d8bd 55ed 163e
00000070: 786c 2a3d 8bcc 15be 0ba7 1ebe 0124 103e
00000080: 801f 04bb 58ed cabd 5b3e 1fbe 43b0 0cbe
00000090: b347 0e3e dade 99bd a1a4 303e a068 ac3c
000000a0: 6e6b ad3d d58a 81bd a8d2 c3bc c278 bd3d
000000b0: 6f0b 1b3e c973 0c3e f3eb 0f3e e005 85bd
000000c0: c915 253e 4e2d 55bd 847a 3fbd 7e88 dc3d
000000d0: c4a5 603d 5c3b 00be 41c8 b1bd 7a03 df3d
000000e0: 77da d2bd c679 fa3d 8440 12be e70f 273e
000000f0: 1414 33be d02c 76bc c465 f2bd 998d 043e
00000100: 8c46 2cbe 1d2f 27be 5866 02be a958 083e
00000110: 8360 b0bd e815 db3c d01f 493c 1410 4c3d
00000120: 1af7 e9bd c954 d5bd 7ea7 fa3d f095 943d
00000130: 8825 763d 778f 0f3e 2aa1 03be 4eb5 f03d
00000140: 505c db3c f80d 0fbd 4665 d13d e019 063d
00000150: a025 9c3b a0fb c1bc 0030 40ba ebf1 003e
00000160: 01ff 1a3e 3629 33be 2cff 37bd 8828 d73c
00000170: 2a64 933d fcac 52bd 28d9 5a3d 7806 873d
00000180: e2bf df3d 527f 993d 0cb9 22be ca27 a83d
00000190: 80e0 69bc 00af 75bb 160e a13d f5f6 063e
000001a0: 4080 7a3c 7411 30bd 1ba7 203e 5758 25be
000001b0: 06c8 f73d 3edf c83d 0c71 68bd feee d73d
000001c0: fc4d 21be 2687 c3bd 66db 2bbe dbd3 c6bd
000001d0: b5aa 303e a7cb 043e 0346 053e 12a3 9c3d
000001e0: e077 2e3c 08d1 75bd a128 e7bd f909 273e
000001f0: 8f76 1f3e c0dc 5c3d e8a1 45bd c4ef 16be
00000200: c81a 3abd 0263 ca3d 68f7 cbbd ff0a 313e
00000210: f89d 2cbe 2d0a e7bd 80df e0bc b8e4 09be
00000220: 7aea 9b3d 8803 9d3c b15d 103e 705f 323c
00000230: 7097 10be 005d 2cba 4706 a4bd 615d 213e
00000240: 6046 2e3c 112f 333e 7411 11be 58b1 02be
00000250: e4c6 debd 0d75 14be 305f 3fbd a707 24be
00000260: 30e9 683c 0672 29be 4c66 0bbe b88a 17be
00000270: c3bb d8bd 0465 2cbe 8a36 a53d 77a8 12be
00000280: b06e 9a3c de77 a23d c072 6bbb 589b d73c
00000290: fae2 92bd 0ba8 1c3e 8fcf 193e 06ff fabd
000002a0: 1866 56bd 18f7 1bbe c000 9bbb d4c4 803d
000002b0: 3dbf a6bd 5473 05be e32d aebd fc91 58bd
000002c0: 80b5 a83b 2401 80bd 603c e43b 81d6 2f3e
000002d0: 1a5f b43d f044 ea3c 2011 683d b4a8 913d
000002e0: e8f2 fd3c 57a2 c3bd 5610 94bd 2818 d13c
000002f0: 7062 fc3c be06 ed3d 6875 35bd 8469 5a3d
00000300: 709d ac3c e5c9 183e c1df 123e a8a3 fdbc
00000310: d133 083e b810 8e3c 63c9 1fbe ec2c 2fbe
00000320: c7fc 09be 50c7 63bc c0f6 6e3d 8b80 dcbd
00000330: 376d 303e 28da 8c3c 7f8b 31be fa26 d23d
00000340: a0e4 833c d348 c9bd 1e88 e83d 50ee 2abe
00000350: 0194 053e c9ce 193e dfc6 d7bd 4e4d b5bd
00000360: 8721 073e 84ce 74bd 6021 e2bb 55ff 23be
00000370: d362 8abd 6956 1fbe 508c 1a3c 5b4f 2e3e
00000380: f0b7 bdbd df3a 0d3e 8047 20be e2ef b1bd
00000390: fa94 0ebe c0ed 723c fe06 b63d 3957 2e3e
000003a0: 9572 1b3e 20a9 2c3c 3f82 033e 9efb bb3d
000003b0: 90e8 31bd d89f e73c 60a1 23be 00fa fcbb
000003c0: 6316 253e 68c0 ccbc 4e7a fe3d bc6f 873d
000003d0: cc26 0bbd 3b4c 093e d071 f3bc 6cd8 4d3d
000003e0: 3a0c b63d 6617 cf3d 2b35 15be 0834 44bd
000003f0: 6297 b73d 9660 a6bd 1c02 77bd e6b3 a43d

lstm.bias_ih_l1 f4 [128]
0.59477866 0.74824166 0.608247 0.6844268 0.3889377 0.34470677 0.5259708 0.5220281
0.29740447 0.35577518 0.41127548 0.46741647 0.42541412 0.33494315 0.37946817 0.52771765
0.40263236 0.5903915 0.4168777 0.4314934 0.40292323 0.40340507 0.28046358 0.56763047
0.3677449 0.46618173 0.39151397 0.34680936 0.6003553 0.51988786 0.56314313 0.54434615
-0.12830868 -0.07249863 -0.08514161 -0.1653333 0.009295389 0.110401616 0.17399342 0.15125002
0.07373114 -0.12899311 0.0360917 -0.14691432 -0.07911069 0.14615746 0.039044097 0.020416647
0.011960536 -0.15369675 -0.024781793 -0.006447062 -0.12776929 0.11249496 0.059534073 -0.10591172
-0.007616505 0.06280196 -0.13483031 -0.097343564 -0.09742775 0.025301158 -0.069071606 -0.07665974
-0.27406916 0.09907891 0.40197763 -0.27104604 0.35542643 0.34314656 -0.15655759 -0.39284277
0.4098215 0.2661319 -0.38045433 0.40568867 -0.43060547 0.40610698 -0.15066296 -0.37345332
0.3038123 -0.4236822 0.25435323 0.18812166 0.13553058 0.12788849 -0.41744757 -0.37579226
0.32092288 -0.33212882 0.27242792 -0.17746866 0.19537853 0.14536692 -0.44039464 0.2643112
0.587549 0.60743845 0.56962335 0.6782388 0.45318615 0.4178568 0.64722455 0.48107937
0.32437402 0.58326244 0.41202855 0.47340828 0.6187403 0.4957408 0.49666694 0.61543274
0.44099942 0.45993543 0.61535096 0.30066678 0.5536289 0.48876864 0.44980946 0.63856494
0.57978153 0.4078338 0.42601368 0.52565384 0.5736958 0.5811613 0.5561948 0.56433386
00000000: 6a43 183f c48c 3f3f 13b6 1b3f 9836 2f3f
00000010: d822 c73e 687d b03e 06a6 063f a2a3 053f
00000020: 6645 983e 2a28 b63e b392 d23e 3651 ef3e
00000030: e1cf d93e ab7d ab3e a749 c23e 8118 073f
00000040: d425 ce3e e623 173f fe70 d53e b4ec dc3e
00000050: f44b ce3e 1c8b ce3e ec98 8f3e 3b50 113f
00000060: 0f49 bc3e 5faf ee3e 8574 c83e ff90 b13e
00000070: e3b0 193f 5f17 053f 262a 103f 455a 0b3f
00000080: 5a63 03be 297a 94bd b95e aebd 224d 29be
00000090: b04b 183c 3e1a e23d 552b 323e 49e1 1a3e
000000a0: 5a00 973d c516 04be e4d4 133d b570 16be
000000b0: c904 a2bd 4daa 153e b4ec 1f3d d040 a73c
000000c0: 20f6 433c ae62 1dbe 3003 cbbc e041 d3bb
000000d0: f4d5 02be c263 e63d 00da 733d 3ee8 d8bd
000000e0: e093 f9bb 509e 803d f510 0abe 105c c7bd
000000f0: 3388 c7bd 6044 cf3c 6a75 8dbd c8ff 9cbd
00000100: cb52 8cbe e2e9 ca3d 03d0 cd3e 8cc6 8abe
00000110: 74fa b53e e8b0 af3e a250 20be b022 c9be
00000120: 20d4 d13e 7142 883e e9ca c2be 6db6 cf3e
00000130: 5278 dcbe 41ed cf3e 6447 1abe 4635 bfbe
00000140: 498d 9b3e e0ec d8be 963a 823e f7a2 403e
00000150: 87c8 0a3e 33f5 023e b0bb d5be d867 c0be
00000160: 0150 a43e ca0c aabe ac7b 8b3e 58ba 35be
00000170: 4f11 483e 11db 143e 687b e1be cc53 873e
00000180: 9c69 163f 1681 1b3f d6d2 113f 0fa1 2d3f
00000190: 0408 e83e 54f1 d53e 82b0 253f 0950 f63e
000001a0: 5a14 a63e b050 153f 68f5 d23e 9262 f23e
000001b0: c465 1e3f bdd1 fd3e 214b fe3e 008d 1d3f
000001c0: adca e13e a87c eb3e a487 1d3f fff0 993e
000001d0: a0ba 0d3f e23f fa3e 6d4d e63e fe78 233f
000001e0: 906c 143f 98cf d03e 771e da3e 4091 063f
000001f0: badd 123f fdc6 143f c862 0e3f 2f78 103f

lstm.bias_hh_l1 f4 [128]
0.4234236 0.6337879 0.50315255 0.5209685 0.43871167 0.510599 0.58280206 0.5471396
0.5287074 0.58238375 0.5224532 0.48601913 0.3491686 0.449595 0.37109712 0.44330272
0.4281938 0.54096276 0.4125233 0.35433456 0.3534178 0.38157153 0.49535322 0.5143161
0.37905064 0.38671628 0.31094104 0.60468704 0.5023404 0.3418125 0.4973751 0.33687016
-0.12616383 0.0021411479 0.0069041103 0.13536279 0.11260076 -0.16298157 0.051401705 -0.17129208
0.1256712 0.16238727 -0.14382161 -0.04748015 0.15834053 0.013690546 -0.14017358 -0.065890424
-0.04179336 -0.06721927 0.125771 0.05659297 -0.062438488 -0.08312558 -0.072566904 -0.13314505
-0.15221287 -0.11093661 0.14733224 0.15647505 0.051192716 -0.14279893 -0.039321527 -0.13194935
-0.34813744 0.035068292 0.27067205 -0.24910091 0.3806531 0.20224702 -0.36345553 -0.4183313
0.30625564 0.2909763 -0.34876633 0.40859905 -0.22969982 0.348767 -0.32664597 -0.37381256
0.39546055 -0.15283152 0.3204641 0.20567173 0.15940748 0.26403427 -0.36709657 -0.2436645
0.30377957 -0.21196032 0.18529807 -0.27931264 0.35450187 0.3106419 -0.3872733 0.18637335
0.48140764 0.7853551 0.35945866 0.69838566 0.5876424 0.57336813 0.5575608 0.3772661
0.53203905 0.36566332 0.5456421 0.45752734 0.6355772 0.5690396 0.5477625 0.3973293
0.39642456 0.5964143 0.61617833 0.46445483 0.45830002 0.58733827 0.34264466 0.52434546
0.39596537 0.44124702 0.6047015 0.6574433 0.5154669 0.45608798 0.51468986 0.5790797
00000000: faca d83e ec3f 223f 9bce 003f 315e 053f
00000010: d19e e03e 9eb6 023f 8432 153f 5711 0c3f
00000020: 5e59 073f 1a17 153f 7ebf 053f 80d7 f83e
00000030: 3ac6 b23e 5131 e63e 7100 be3e 93f8 e23e
00000040: 383c db3e 897c 0a3f 4136 d33e 576b b53e
00000050: 2ef3 b43e 585d c33e f09e fd3e 38aa 033f
00000060: ed12 c23e adff c53e aa33 9f3e c5cc 1a3f
00000070: 6199 003f 0c02 af3e f3a7 fe3e 3f7a ac3e
00000080: 1731 01be 8052 0c3b e03b e23b 8b9c 0a3e
00000090: 3a9b e63d a4e4 26be 988a 523d 3167 2fbe
000000a0: f3af 003e d948 263e f945 13be 8c7a 42bd
000000b0: 0524 223e 504e 603c aa89 0fbe 8ff1 86bd
000000c0: 842f 2bbd 42aa 89bd 1dca 003e 08ce 673d
000000d0: 80bf 7fbd be3d aabd f59d 94bd 2d57 08be
000000e0: b1dd 1bbe bc32 e3bd 43de 163e ff3a 203e
000000f0: 74af 513d e239 12be 9c0f 21bd bb1d 07be
00000100: 123f b2be c5a3 0f3d 8795 8a3e 4f14 7fbe
00000110: f7e4 c23e d819 4f3e d816 babe 852f d6be
00000120: 8acd 9c3e d8fa 943e 8091 b2be e533 d13e
00000130: 6e36 6bbe 9791 b23e 243e a7be 5c64 bfbe
00000140: ce79 ca3e de7f 1cbe df13 a43e 9c9b 523e
00000150: b73b 233e 802f 873e 15f4 bbbe 3083 79be
00000160: ff88 9b3e 200c 59be c7be 3d3e 1102 8fbe
00000170: 4581 b53e 750c 9f3e b048 c6be a8d8 3e3e
00000180: 107b f63e 080d 493f f70a b83e 67c9 323f
00000190: bb6f 163f 41c8 123f 4ebc 0e3f 0629 c13e
000001a0: b633 083f 3938 bb3e 33af 0b3f 0641 ea3e
000001b0: 30b5 223f 94ac 113f 2a3a 0c3f bf6e cb3e
000001c0: 29f8 ca3e 9cae 183f ddbd 1d3f 06cd ed3e
000001d0: 4da6 ea3e cd5b 163f 1f6f af3e 813b 063f
000001e0: f9bb ca3e 21eb e13e b8cd 1a3f 344e 283f
000001f0: a4f5 033f 5d84 e93e b7c2 033f 913e 143f

fc.weight f4 [1, 32]
-585.9116 586.1391 585.9018 -585.98535 585.90826 585.98566 -585.9043 -585.9302
586.01056 585.98926 -586.0087 585.9723 -585.91046 586.01263 -585.93994 -586.0165
585.99554 -585.9073 585.87695 585.95026 585.9624 586.0032 -586.0043 -585.9047
586.0213 -585.97266 585.95355 -586.01263 585.93195 585.99335 -585.9077 586.00275
00000000: 587a 12c4 e788 1244 b779 1244 107f 12c4
00000010: 217a 1244 157f 1244 e079 12c4 887b 12c4
00000020: ad80 1244 507f 1244 8f80 12c4 3a7e 1244
00000030: 457a 12c4 cf80 1244 287c 12c4 0e81 12c4
00000040: b77f 1244 117a 12c4 2078 1244 d17c 1244
00000050: 987d 1244 3480 1244 4680 12c4 e779 12c4
00000060: 5d81 1244 407e 12c4 077d 1244 cf80 12c4
00000070: a57b 1244 937f 1244 187a 12c4 2d80 1244
