save/model_20240611_193244.pth (torch, 822312 bytes, 13 tensors)

lstm.weight_ih_l0 f4 [396, 15]
000000 10 4d bb 3d 6b d6 47 3e c3 cb 3a 3e 93 69 e4 3d
       0.09145558 0.19515388 0.18241791 0.11152949
000010 07 da 5a 3e 60 2f b9 3d 04 2a 1e 3e fb ab d8 3d
       0.21372233 0.09042239 0.15445715 0.10579678
000020 3a 14 fd 3d 4a b2 38 3e 00 bf 1c 3e 64 e4 88 3e
       0.123573735 0.18036762 0.15307236 0.26736748
000030 b1 01 05 3e d8 71 0b 3e 86 d5 84 3e ed f8 c8 3d
       0.12988926 0.13617647 0.25944155 0.09813104
000040 0b 7d 22 3e ee 30 39 3e 2b 70 4e 3e 01 d4 6d 3e
       0.15868013 0.18085071 0.20159976 0.23225404
000050 3a e3 5a 3e 37 73 8d 3e a7 09 80 3e ac 47 d1 3d
       0.21375743 0.27626964 0.25007364 0.102187485
000060 e2 24 47 3e dc 6c 18 3e 16 4f 17 3e 0e ae 0b 3e
       0.19447663 0.14885277 0.14776263 0.13640615
000070 7c a4 4f 3e 02 97 ab 3d 57 e6 2d 3e 0f c4 7a 3e
       0.2027759 0.08378412 0.16982399 0.24488853
000080 e9 c2 82 3e a9 cb b8 3d ae 7c 73 3e 22 3d 16 3e
       0.2553933 0.0902322 0.2377803 0.14671758
000090 c4 db c4 3d 06 eb 82 3e 34 b9 6d 3e 82 99 71 3e
       0.096122295 0.25569934 0.2321518 0.23593715
0000a0 90 5c 82 3e 4b c9 19 3e d8 3f 7c 3e 27 3f 37 3e
       0.25461245 0.15018193 0.2463373 0.17895184
0000b0 00 9d 52 3e 60 bf 77 3d 72 c3 78 3d 44 32 34 3d
       0.20567703 0.060485244 0.060733266 0.04399325
0000c0 b9 34 85 3d f5 f7 26 3e a0 7a f4 3d fb 4f 0c 3d
       0.06504197 0.16305526 0.11937451 0.034255963
0000d0 ba 50 3f 3d 26 57 52 3e e2 3a 25 3e 65 cf 68 3e
       0.046707846 0.20541057 0.16135743 0.22735365
0000e0 c9 38 f1 3d 16 25 4b 3e cb bb 33 3d e0 a4 e2 3d
       0.11778409 0.19838366 0.043880265 0.11066604
0000f0 67 81 3e 3e 8c cf 89 3e 9a 65 52 3e b6 b1 b4 3d
       0.1860405 0.26916158 0.2054657 0.08822958
000100 c2 57 48 3e 08 93 ad 3d 75 b6 22 3e 9b 4d 72 3e
       0.19564727 0.084753096 0.15889914 0.23662417
000110 e0 94 8d 3e d4 b0 32 3e 77 2f 5f 3e 24 e5 49 3e
       0.27652645 0.17450267 0.2179545 0.19716316
000120 53 80 09 3e d2 9b e1 3d 71 7a 38 3e 93 db 8e 3d
       0.13427858 0.110160485 0.18015458 0.06975474
000130 17 08 66 3e 64 bc 16 3e fa a8 34 3d 3a ab 1c 3e
       0.22464024 0.14720303 0.04410646 0.15299693
000140 fc 5d 05 3e 88 97 6b 3d 60 e3 4f 3d c4 f0 4c 3e
       0.13024133 0.05751756 0.05075395 0.2001372
000150 dd b5 9c 3d f0 a3 1d 3e b2 7d 00 3e 7e 89 30 3e
       0.07651875 0.15394568 0.12547949 0.17239949
000160 d5 89 80 3d 52 68 01 3e 82 0f 44 3e ea 2b 24 3e
       0.062762894 0.12637451 0.19146541 0.16032377
000170 e4 c0 16 3d 94 b8 31 3e cb 37 ab 3d 12 39 3c 3e
       0.03680505 0.17355567 0.08360251 0.18381146
000180 ac e1 b5 3d 90 2a 99 3d 0f bf cd 3d 5e 2f 59 3d
       0.08880934 0.07478821 0.10046207 0.05302369
000190 e0 68 04 3e 38 ef 45 3e 31 c0 5a 3e 6d 3a d8 3d
       0.12930632 0.19329536 0.21362378 0.10558019
0001a0 7d f0 45 3e cf 69 53 3d 6d 40 94 3d 93 9b 26 3e
       0.1933002 0.05161458 0.07238851 0.16270284
0001b0 3d 42 c9 3d 0f a6 20 3e 1a ca d2 3d 08 aa 8b 3d
       0.09827087 0.15688346 0.10292454 0.0681954
0001c0 ba a4 cc 3d 10 ca 1f 3e 4f bb e2 3d 73 c7 5a 3e
       0.099923566 0.15604424 0.110708825 0.21365146
0001d0 c9 90 38 3d 9d 6b f8 3d 8e 56 39 3e bd b2 39 3e
       0.045059953 0.121299006 0.18099424 0.1813459
0001e0 df 23 2a 3e 37 36 ca 3d f7 06 4a 3e 31 c7 74 3e
       0.16615246 0.09873622 0.1972922 0.2390411
0001f0 e8 53 2b 3e e1 4e 61 3e 9b c2 2e 3e 0e c5 f4 3d
       0.16731226 0.22002746 0.17066424 0.11951648
000200 f4 d3 1b 3e 96 bf 3c 3e 6f d6 f3 3d d9 c3 c8 3d
       0.15217572 0.18432459 0.11906134 0.0980298
000210 0d 3f ad 3d bb 98 ad 3d a3 d8 a3 3d 58 d6 8c 3e
       0.084592916 0.08476397 0.080003045 0.2750728
000220 0f 7f 58 3e c2 ff cb 3d f6 95 8c 3e 21 39 27 3e
       0.21142219 0.09960891 0.2745816 0.16330387
000230 da 23 0c 3e 60 a5 a7 3d b1 2f 30 3e f9 72 25 3e
       0.13685551 0.0818584 0.17205693 0.1615714
000240 9d 51 fc 3d b9 42 68 3e 4f b0 2a 3e 2b 53 e1 3d
       0.12320254 0.22681703 0.16668819 0.11002191
000250 21 ad 29 3e 7c 13 64 3e 5e 5a 85 3e 68 a9 05 3e
       0.1656995 0.22273058 0.26045507 0.13052905
000260 3b 36 7f 3e 15 6e 3a 3e f6 93 bc 3d 2a 64 ee 3d
       0.24923031 0.18206055 0.09207909 0.116401985
000270 e1 f2 28 3e d3 86 19 3e ae f1 e9 3d 10 ff 83 3e
       0.16498901 0.14992838 0.1142305 0.25780535
000280 92 c1 7c 3e 87 04 28 3e e9 93 43 3e 61 25 28 3e
       0.24683216 0.16407977 0.19099392 0.16420509
000290 2f 91 8f 3e 24 be 3f 3e 2f 95 bd 3d ff 05 6c 3e
       0.28040454 0.18724877 0.0925697 0.23049162
0002a0 8f 91 25 3e 2e 43 1e 3e 88 25 4c 3e 86 58 44 3e
       0.16168807 0.15455315 0.19936192 0.19174394
0002b0 f6 d6 01 3e 17 0f c5 3d 8f fd 45 3d da 4c 40 3d
       0.12679657 0.09622019 0.048337515 0.04694829
0002c0 c6 8b 66 3e 22 be 68 3e 45 27 54 3e 86 a2 61 3e
       0.22514257 0.2272878 0.20718105 0.22034654
0002d0 f2 ab 49 3e 13 55 e9 3d 2d 2a 3b 3e 08 f4 f8 3d
       0.19694498 0.1139318 0.18277808 0.1215592
0002e0 a1 63 8d 3e 65 ce 11 3e 7a 17 d9 3d 20 68 08 3e
       0.27615073 0.1423889 0.10600181 0.1332097
0002f0 ca ee 6a 3e 80 ab 81 3e d0 8e 18 3e f1 0c dd 3d
       0.22942653 0.25326157 0.14898229 0.10793484
000300 b6 62 44 3e 14 54 20 3e 23 76 1f 3e 41 59 53 3e
       0.1917828 0.15657073 0.1557241 0.20639516
000310 1c 95 7c 3e 69 f6 6a 3e 49 58 58 3e a4 cf 65 3e
       0.24666256 0.2294556 0.21127428 0.2244249
000320 ce c5 65 3e 21 dc 13 3e f1 79 53 3e c0 60 00 3e
       0.22438738 0.14439441 0.20651986 0.12536907
000330 36 4e 87 3e 7d 2d 43 3e db a6 83 3e 0e 04 17 3e
       0.26426858 0.19060321 0.25713238 0.1474764
000340 03 f6 06 3e 56 c2 00 3e 4b cc a9 3d f3 c4 6b 3e
       0.13179784 0.12574133 0.08290919 0.23024349
000350 b7 6b 70 3e a8 6e c3 3d cb 6d 1a 3e 6f 3a 60 3e
       0.2347859 0.095425904 0.15080945 0.2189729
000360 e8 70 92 3d 1e ec 9f 3d d2 62 b3 3d 5e 2b 06 3e
       0.071504414 0.07808708 0.08759083 0.13102481
000370 06 35 2d 3e e0 ef 61 3e fb c7 64 3e c8 f8 51 3e
       0.16914758 0.22064161 0.22341911 0.20505059
000380 c4 62 5c 3e 91 2e 3d 3e 2f 1e 77 3e b3 d4 63 3e
       0.21522051 0.18474795 0.24132608 0.22249107
000390 88 7a e8 3d 71 c9 79 3e c9 af 8b 3e e9 eb 42 3e
       0.11351496 0.2439325 0.2728255 0.19035305
0003a0 cf 20 d2 3d 40 5a 43 3e 11 df 36 3e 33 57 60 3e
       0.10260164 0.19077396 0.1785853 0.21908264
0003b0 1f 21 06 3e f7 59 84 3e 8b 22 87 3e f3 b0 86 3e
       0.13098572 0.25849888 0.26393542 0.26306877
0003c0 cc 9d 58 3e c1 b4 48 3e ae 3b 80 3e 2e 4f 2c 3e
       0.21153945 0.19600202 0.25045532 0.1682708
0003d0 e8 8f 63 3e d6 46 47 3e 7c c5 36 3e be d2 2c 3e
       0.22222865 0.19460616 0.17848772 0.16877267
0003e0 6c 61 a3 3d 84 12 83 3e 53 9c 3c 3e 7b bc cb 3d
       0.07977566 0.25600064 0.18419008 0.09948059
0003f0 0b 12 c9 3d 89 8f 6b 3e ac 9b 1c 3e 4e a4 78 3e
       0.098178945 0.23003973 0.15293759 0.24281427

lstm.weight_hh_l0 f4 [396, 99]
000000 35 4a 96 3d 50 e9 af bd 47 0f ac 3d da ea 17 bd
       0.073383726 -0.08589423 0.084013514 -0.037089206
000010 b0 1b 87 bd 19 45 80 bd 90 e6 e6 bc fe ff 0f bd
       -0.06597078 -0.06263179 -0.028186113 -0.035156243
000020 0c 54 a7 bc 0e 1f 72 bd 0e 3e 2b 3d ec 9b 2b bd
       -0.020425819 -0.059111647 0.041807227 -0.041896746
000030 1b 06 97 3d 5c 8f d5 3c 78 7a 29 bc 93 b1 3b bd
       0.073742114 0.026069336 -0.01034414 -0.045823645
000040 a8 68 6d bc 20 01 79 bd 7c a5 84 bc fa a3 59 3d
       -0.014490284 -0.06079209 -0.01619219 0.053134896
000050 8f fe c6 bd 0a 4e 5e 3d 40 c7 e0 3a a9 a3 b7 3d
       -0.09716522 0.054273643 0.0017149225 0.089667626
000060 53 3f c6 bd c8 03 77 3c 53 ed af 3d e1 67 b8 3d
       -0.09680047 0.015076585 0.08590188 0.09004188
000070 27 5c a1 3d cd 20 a2 bd 12 7d 49 3d 32 7d 5f 3d
       0.07878905 -0.079164125 0.049191542 0.054562755
000080 b7 f4 97 3d 38 31 13 3c 3c ff 87 bc ca 06 27 3d
       0.074197225 0.008983903 -0.016601197 0.04077796
000090 1a 2e 64 3d 78 65 a3 3c 56 b1 6c 3d 43 84 88 bd
       0.05570803 0.019945845 0.05778631 -0.06665852
0000a0 b8 61 6a 3c a8 b3 56 bc 7c e3 85 bd c9 c1 95 3d
       0.0143055245 -0.013104357 -0.0653753 0.07312352
0000b0 12 c6 4a 3d 9a 26 ca bd d0 09 85 3c 42 ea 62 3d
       0.0495053 -0.09870644 0.01624003 0.055399187
0000c0 82 79 ac bd b9 6a 80 bd 26 6c 22 bd c0 4f bd bd
       -0.08421613 -0.06270356 -0.03965392 -0.09243727
0000d0 bc 85 88 bc 70 39 b6 3c b7 61 86 3d 50 70 d2 bc
       -0.016665332 0.022244185 0.065616064 -0.02568832
0000e0 3c 95 99 bc 7e 77 4f 3d a7 d0 28 bd 83 e2 88 3d
       -0.018747918 0.050651066 -0.04121461 0.06683829
0000f0 16 7f 0c bd 10 d1 f2 bb 10 5e 81 3c ed 41 ca bd
       -0.034300886 -0.007410176 0.015791923 -0.098758556
000100 7a c8 a1 bd 40 a1 af 3c c7 48 c5 3d c4 23 cd bc
       -0.07899566 0.021439195 0.09633022 -0.025041468
000110 00 b1 17 bb 92 13 c8 bd 8a fe 19 3d 88 fa 6c bd
       -0.0023146272 -0.09769358 0.037596263 -0.057856113
000120 d6 81 55 bd 1c 80 a5 bd a9 57 9f 3d ac df 75 bd
       -0.052125774 -0.080810755 0.07780392 -0.060027763
000130 fb 95 aa bd 7d ad 56 bd 5f f9 bb 3d 18 6b cf bc
       -0.08329388 -0.052411545 0.09178423 -0.025319621
000140 70 97 80 bd 78 91 16 bc 3e 41 76 3d d6 a2 c7 bd
       -0.062788844 -0.009189956 0.060120814 -0.09747855
000150 7d 49 8a bd 20 17 b2 bb f2 ed 1d bd 76 98 41 3d
       -0.06752298 -0.0054348856 -0.038557 0.04726454
000160 00 d1 ba bb c1 74 b4 3d 84 35 cc 3c 09 97 2b bd
       -0.0057011843 0.088113315 0.024927862 -0.041892085
000170 35 45 7b bd f0 e0 8d bc f6 86 7a 3d 34 fc 93 bd
       -0.061345298 -0.017319173 0.061163865 -0.07225838
000180 32 3f c8 bd 20 12 57 bb 98 bb a4 bc b0 31 d0 3b
       -0.097776785 -0.00328172 -0.020108983 0.0063535795
000190 43 b4 8e 3d 0f e6 9d 3d 2e bc 4c bd 46 d1 62 3d
       0.06967976 0.07709896 -0.04998415 0.05537536
0001a0 a3 9d b7 bd 6f 4d bc 3d 4c df f9 3c 98 ea 74 3c
       -0.08965614 0.09194457 0.030501984 0.01494851
0001b0 c6 d9 08 bd 24 4e 0d bd 82 52 34 3d 60 94 27 bc
       -0.03341081 -0.03449835 0.044023998 -0.010228246
0001c0 04 fc 57 bd 02 cc 22 3d 76 b6 b3 bd c1 6e 8a 3d
       -0.052730575 0.03974534 -0.08775036 0.06759406
0001d0 42 bc 2a 3d c5 79 8e bd 46 85 1c bd 0a 87 23 bd
       0.041683443 -0.069568194 -0.038213037 -0.039923705
0001e0 90 6d 73 bc 2c 09 b7 bc 2c 0e 9f bd ec 56 ce bc
       -0.014857665 -0.02234324 -0.07766375 -0.025187932
0001f0 f8 6b 17 3c 08 d6 8d bc 93 99 83 3d 49 df 2e bd
       0.00924205 -0.017313972 0.06425776 -0.04269341
000200 7e 2d ba bd 5e d5 95 bd 96 28 00 3d e7 df aa 3d
       -0.09090708 -0.07316087 0.031288706 0.08343487
000210 3b 2e 89 3d ba 5c 19 3d bc e0 8c bd f4 75 c9 bd
       0.06698271 0.037441947 -0.06878802 -0.09836951
000220 dc 9a f8 3c bd 16 83 3d 25 e1 ca 3d 54 61 bd bd
       0.03034728 0.06400821 0.09906224 -0.092470795
000230 00 e2 b0 3b 44 96 e8 bc 2d b0 7f bd db e4 86 3d
       0.005398035 -0.028391965 -0.062423874 0.065866195
000240 2b 14 c1 bd f0 20 b0 3c ff 05 89 3d 27 38 a7 bd
       -0.09427675 0.02150008 0.06690597 -0.08165007
000250 c0 f7 03 3b 96 c7 0c bd 56 c5 a4 bd d3 0f 97 bd
       0.0020136684 -0.034370027 -0.08045451 -0.07376065
000260 63 96 88 3d 40 22 0d 3b 5e 30 3f 3d db b6 a9 3d
       0.06669309 0.0021535307 0.046676986 0.0828683
000270 b9 f7 85 3d 78 19 75 3c 00 6f 3b 3a 64 76 ce 3c
       0.0654139 0.0149596855 0.0007150024 0.025202937
000280 28 fb 2a bc b1 03 ba 3d d8 45 5f bd 00 9f 77 bd
       -0.010435857 0.09082735 -0.054509968 -0.06045437
000290 40 46 a7 3c 0a d3 70 3d 82 70 76 3d 24 54 68 bd
       0.02041924 0.058795013 0.06016589 -0.056720868
0002a0 d2 d8 66 3d 09 7a 87 3d 46 a8 4e bd c6 ec 34 3d
       0.05635912 0.06615073 -0.050453447 0.044171117
0002b0 b6 13 76 3d 9e eb 0f bd b2 c7 54 3d 20 53 38 bc
       0.06007739 -0.03513681 0.051948257 -0.011250287
0002c0 a9 83 35 bd 3f e4 80 bd 76 26 3f 3d b0 1a bc bb
       -0.044315014 -0.062935345 0.04666754 -0.005740486
0002d0 82 d8 4d bd ea d8 37 3d 8e e3 04 3d d1 33 b3 bd
       -0.050255306 0.0448846 0.032443576 -0.087501176
0002e0 c6 46 53 3d 56 c5 2a 3d 9c 39 d3 3c a8 02 03 bc
       0.051581167 0.0416921 0.025784306 -0.007996239
0002f0 ce 68 21 3d 0f a9 b3 3d dc a0 98 3c d4 02 7d bd
       0.03940659 0.0877248 0.018631391 -0.061770275
000300 1c 55 dc bc d0 fc c8 bb 1f 9c af bd b4 eb 76 bd
       -0.026896052 -0.006133653 -0.085746996 -0.060283378
000310 3e 62 4c bd 80 28 f6 bc 49 ac a2 3d b3 89 87 bd
       -0.04989838 -0.030048609 0.07943017 -0.06618061
000320 60 45 de bc 3e e7 0c 3d 9d 2e a9 3d a4 63 c1 bd
       -0.02713269 0.034400217 0.08260844 -0.09442833
000330 90 d6 b9 3c 12 d6 43 3d fb ec 9e 3d 40 5c cb 3b
       0.02268532 0.047811575 0.07760044 0.0062060654
000340 50 5e a8 bd 87 8a ae 3d ed 67 a1 3d 66 6d 10 3d
       -0.08221114 0.08522516 0.078811504 0.03526058
000350 3d 6a 4b bd d3 28 a0 3d 30 52 f1 bc b8 0d c2 bd
       -0.049661864 0.078202866 -0.029458135 -0.09475273
000360 ee 20 24 3d e3 88 3d bd 4f 85 84 3d bd 4c ab bd
       0.040070467 -0.046273123 0.06470739 -0.08364246
000370 81 05 b2 3d 4b c4 b5 3d 35 cc 87 3d 16 af 0f bd
       0.08692456 0.088753305 0.06630746 -0.035079084
000380 68 61 73 3c d3 26 9e 3d c0 66 13 3c 48 27 37 3c
       0.014854766 0.07722249 0.0089966655 0.011178799
000390 00 5b 64 bb 0a 23 83 bd 7a 80 33 bd 66 3e 1f 3d
       -0.003484428 -0.064031675 -0.043823697 0.038877867
0003a0 e0 9b 46 3b 12 b7 21 3d 92 10 7a 3d 00 9c 23 3c
       0.003030531 0.03948123 0.06105096 0.009985924
0003b0 cc 03 b4 3c f8 ba fd bc 51 b7 c1 3d 58 44 f3 bc
       0.021974467 -0.030972943 0.09458793 -0.029695675
0003c0 90 93 ce bb f8 ba 68 bd fa 7d 9e bd c0 9e 5f bc
       -0.006304212 -0.056818932 -0.07738872 -0.013648689
0003d0 41 ad cd 3d cc c9 88 bd 4f ef 9b 3d c6 72 a1 bd
       0.10042811 -0.06679115 0.07614004 -0.078832194
0003e0 a3 0f c8 3d f6 e8 7b 3d 68 2f c3 bd e5 cb c7 3d
       0.097686075 0.061501466 -0.095305264 0.09755687
0003f0 80 0b 3a 3a 60 ab 90 bd ae 77 a1 bd c3 eb a7 3d
       0.00070970505 -0.07063937 -0.07884155 0.08199265

lstm.bias_ih_l0 f4 [396]
000000 7a c9 81 3e 25 af 2b 3e 60 1a 30 3e d5 5b 65 3e
       0.25349027 0.16766031 0.17197561 0.22398312
000010 c9 78 82 3e cf da e6 3d 05 32 09 3e 27 93 54 3e
       0.25482777 0.11272203 0.13397987 0.20759259
000020 e8 84 69 3e c6 fa 7f 3e d5 d5 1a 3e ed c4 fb 3d
       0.22804606 0.24998006 0.15120633 0.1229342
000030 cb 5d fc 3d 7c d6 27 3e 80 c0 0b 3e 30 35 d6 3d
       0.12322577 0.16390413 0.13647652 0.104593635
000040 e8 14 05 3e 3e 81 3a 3e 24 39 ef 3d 7f cc 05 3e
       0.12996256 0.18213364 0.116808206 0.1306629
000050 ab 84 83 3d 19 56 9c 3d 50 b6 d2 3d 14 fc 3e 3e
       0.06421789 0.07633609 0.102886796 0.18650848
000060 4a b1 52 3e d2 06 48 3e 80 7c 20 3e 26 42 e9 3d
       0.20575443 0.19533852 0.15672493 0.1138957
000070 b6 b2 6b 3e 6b 16 80 3e 80 80 05 3e 86 ef eb 3d
       0.23017392 0.25017104 0.130373 0.11520295
000080 56 90 74 3e 2d 8b 00 3e 74 d0 8a 3e 9a d7 4d 3e
       0.23883185 0.12553091 0.27112162 0.20101777
000090 4a e9 f2 3d 6d dc 56 3e 40 02 1a 3e db c0 10 3e
       0.118609026 0.20982523 0.15039921 0.14136069
0000a0 57 f8 59 3e 2b bd 85 3e 3e 2c c7 3d ea f4 d2 3d
       0.2128614 0.26120886 0.097252354 0.1030062
0000b0 17 3b b4 3d 21 7d 0a 3e f1 cd 21 3e 1e 3d 24 3e
       0.08800333 0.13524295 0.15801217 0.1603894
0000c0 0f f9 69 3e bc 42 50 3e ab 42 63 3e 87 52 6a 3e
       0.22848915 0.20337957 0.221934 0.22883044
0000d0 be 6b 70 3e 5d 05 d6 3d bf 90 42 3e b8 e6 13 3e
       0.234786 0.10450242 0.19000529 0.14443481
0000e0 ae 74 59 3e 64 b2 92 3e f0 29 7e 3e 5f b2 37 3e
       0.21235916 0.28651726 0.24820685 0.17939137
0000f0 40 58 d1 3d e0 d4 6a 3e ac d8 8f 3e c4 e4 77 3e
       0.102219105 0.22932768 0.28094995 0.24208361
000100 7e 58 25 3e 8b d5 c4 3d 2d 3e 7e 3e c1 94 e8 3d
       0.16147038 0.096110426 0.24828406 0.113564976
000110 23 1a 3a 3d 8b e3 cb 3d 7a 27 f6 3d 5f d3 14 3e
       0.045435082 0.0995551 0.12019248 0.14533757
000120 15 89 30 3e 1e 6d dc 3d 2e d1 60 3e bf 99 45 3e
       0.17239793 0.10763 0.21954796 0.1929693
000130 0b 52 5c 3e f6 da c8 3d 27 d3 8e 3e 00 e6 84 3e
       0.21515672 0.098073885 0.2789547 0.25956726
000140 a2 55 d9 3d 88 e0 4f 3e a3 b8 f2 3d 1c b8 45 3e
       0.10612036 0.20300496 0.11851623 0.19308513
000150 c5 2c 41 3e 58 b9 4e 3e 64 b1 3d 3e c4 ff 13 3e
       0.18864734 0.2018789 0.185247 0.14453036
000160 b2 ee 00 3e b3 80 77 3e f3 a6 81 3e c4 96 86 3e
       0.12591055 0.24170189 0.25322685 0.262869
000170 38 54 83 3e 1c 4b e0 3d af 41 24 3e 65 27 8d 3e
       0.2565019 0.10951826 0.16040681 0.27569118
000180 1c c9 5a 3e 89 d4 08 3e ac 08 43 3e 32 01 43 bd
       0.2136578 0.13362326 0.19046277 -0.04760856
000190 65 a5 c6 3d 20 ab 9b bb 68 07 53 bd 6e 7f c5 bd
       0.09699515 -0.0047506243 -0.051520735 -0.09643446
0001a0 35 c9 b6 3d c8 a0 37 bc b0 27 49 3c 31 20 9e bd
       0.08925096 -0.011207767 0.012277529 -0.07720984
0001b0 5f 7d a5 bd 38 d0 55 bc b9 f5 a4 bd 10 fc c2 bc
       -0.08080553 -0.0130501315 -0.080546804 -0.023801833
0001c0 d4 8b fd bc e8 55 75 3c 4e 23 1d bd 68 1b 3d 3c
       -0.030950464 0.014974095 -0.038363747 0.011542179
0001d0 c1 62 c2 3d 02 53 30 3d b4 4c cc bd a0 1e 14 3b
       0.09491492 0.043047912 -0.099755675 0.0022601262
0001e0 fa 22 60 bd 85 24 4c bd 97 7e 31 bd 8d cb 83 3d
       -0.054720856 -0.049839515 -0.043333616 0.064353086
0001f0 00 9f b2 3b 6b 5c 22 bd 5a 09 4d 3d 32 3d 32 3d
       0.005451083 -0.039638918 0.050057746 0.04351539
000200 f0 2b a7 3b 90 f4 d9 3b 00 d0 b1 37 74 8f ca bd
       0.0051016733 0.0066514686 2.1196902e-05 -0.09890643
000210 98 56 84 bd 9f 39 76 bd ed ea 98 bd a8 c6 b1 3c
       -0.06461829 -0.060113546 -0.074666835 0.021701172
000220 68 3f 0f 3c 78 5f 54 bd 48 74 a5 bc 83 f1 a8 3d
       0.008743145 -0.05184886 -0.020197049 0.0824919
000230 e0 d0 f2 3b 30 0f ee bb 7f 6e b5 bd 50 88 67 3c
       0.0074101537 -0.007264994 -0.08858966 0.0141316205
000240 f2 02 0e bd 68 45 35 bc 4f b8 ba 3d 33 f1 b5 3d
       -0.034670778 -0.011063911 0.09117185 0.08883896
000250 a0 e0 ac 3b dd 0e cc 3d e0 3d a0 bc e7 27 98 3d
       0.005275801 0.099637724 -0.019560754 0.07429486
000260 fa 64 77 3d 90 d3 8d 3b fb d6 9f 3d be 66 12 3d
       0.060399033 0.0043281987 0.07804676 0.035742514
000270 ff 4d 74 bd d9 79 b9 3d 22 6a 5f 3d 38 87 81 3c
       -0.059644695 0.09056444 0.054544576 0.015811548
000280 d0 1b a5 3c 47 de 80 bd 58 42 c8 3c 08 a0 78 bc
       0.020154864 -0.06292396 0.024445698 -0.015174873
000290 a7 44 41 bd ce 42 33 3d 24 5e d6 3c 05 b6 89 3d
       -0.047184613 0.04376488 0.026167937 0.067241706
0002a0 ad 46 89 3d a0 26 0c 3b 1b 33 64 bd e6 a3 b1 bd
       0.067029335 0.0021385327 -0.0557128 -0.08673839
0002b0 68 a6 1c bc 10 54 85 bb ba f6 0c bd 80 1a 8c ba
       -0.009561159 -0.004068859 -0.034414984 -0.001068905
0002c0 41 f2 96 3d 77 96 c1 bd f8 3a 91 bd c8 82 a8 bc
       0.07370425 -0.09452527 -0.070913255 -0.020570174
0002d0 b5 a3 8a 3d 87 f0 9e 3d bd 08 b0 bd 31 9c c6 3d
       0.06769506 0.07760721 -0.08595417 0.0969776
0002e0 f0 52 a1 bd e8 f8 0c bd 75 28 94 bd 6b d5 8d 3d
       -0.07877147 -0.034417063 -0.07234279 0.06925472
0002f0 0f 51 94 3d 8b 96 9e 3d 67 87 99 3d 4c 05 10 bd
       0.07242023 0.077435575 0.07496529 -0.0351613
000300 60 15 a6 3c 34 95 c0 bc 9c 42 ae 3c ae 3f 4a bd
       0.020273864 -0.023508646 0.021271996 -0.049377136
000310 52 c8 68 bd 34 ac 87 3c 9c 79 3c be bb 27 37 be
       -0.056831665 0.016561605 -0.18405765 -0.1788625
000320 d6 dd 5a be 78 a1 74 be 87 f6 57 be 98 78 b3 bd
       -0.21373686 -0.2388972 -0.21090136 -0.08763236
000330 00 67 8f 3d 3e 68 a3 bd 8e 63 46 3e be 51 88 be
       0.070020676 -0.07978867 0.19373915 -0.26624864
000340 15 9f f8 3d 59 e5 48 be db 9a e0 3d 4b 5f 2c 3e
       0.121397175 -0.19618739 0.10967036 0.16833226
000350 a6 ee f6 bd 5e 88 32 be b9 25 65 3e 8c 18 0d be
       -0.12057237 -0.17434832 0.22377671 -0.13778895
000360 18 14 39 be ba 0a 51 be 99 70 19 3e f3 de 26 3e
       -0.18074071 -0.20414248 0.14984359 0.16295986
000370 ec 70 45 be 74 e4 82 3e ad 1d 24 be 17 82 4b be
       -0.19281358 0.2556492 -0.16026945 -0.19873844
000380 4f 14 34 3e 11 d1 75 be 40 c3 d0 bd 9e ac 43 be
       0.17585872 -0.24005534 -0.10193491 -0.19108817
000390 62 b8 68 3e ef fc 80 3e b1 0c 59 be 05 b3 89 be
       0.22726586 0.25192973 -0.21196248 -0.26894394
0003a0 21 c6 52 be 35 29 74 be 51 66 8b be 87 e9 7b 3e
       -0.20583393 -0.23843844 -0.272265 0.24600802
0003b0 01 b7 75 3e 51 55 70 3e 47 ba 84 3e f3 76 4a be
       0.23995592 0.23470046 0.25923368 -0.19771938
0003c0 35 30 0b 3e ae 44 60 3e 46 72 8a be 1a c3 cd 3d
       0.13592608 0.21901199 -0.2704031 0.10046978
0003d0 ed f8 ee bd e3 9f 3a be c9 ac 37 be 9d 81 85 3e
       -0.116685726 -0.18225054 -0.17937006 0.2607545
0003e0 b9 08 16 3e e9 7d 17 be 82 b3 59 be 8a 3d 91 3e
       0.14651765 -0.14794125 -0.21259883 0.28367263
0003f0 fd 1d 35 be f1 16 71 3e 0c 88 70 3e 24 af 2c be
       -0.17687221 0.23543908 0.23489398 -0.16863686

lstm.bias_hh_l0 f4 [396]
000000 0c 32 f4 3d bb fb 66 3e 94 ff 88 3e 79 25 31 3e
       0.11923608 0.22556965 0.2675749 0.17299451
000010 19 80 38 3e 01 e7 7f 3d f8 31 74 3d 7a f9 fe 3d
       0.18017615 0.062476162 0.059617966 0.12449928
000020 7c d1 fa 3d 40 de d6 3d 41 96 32 3e 8b 34 8f 3d
       0.12246987 0.104916096 0.1744013 0.06992444
000030 c2 67 69 3e 23 3f a1 3d f7 2b 29 3e 00 2b 48 3e
       0.22793487 0.078733705 0.16520678 0.19547653
000040 72 96 f2 3d ed 27 30 3e 29 0a 0f 3e ed d8 3e 3e
       0.118451014 0.1720273 0.1396872 0.18637438
000050 58 a0 1e 3e c4 29 15 3e 2d ca b6 3d 64 00 3d 3e
       0.15490854 0.14566714 0.08925281 0.1845718
000060 0a f2 78 3d d0 6d 21 3e 99 8f 12 3e 8a ef b0 3d
       0.0607777 0.15764546 0.1431259 0.086394385
000070 d7 06 7a 3e e3 44 57 3e d3 79 c1 3d 13 52 7b 3e
       0.24416672 0.21022372 0.09447064 0.24543028
000080 f2 ac 65 3e 3a 02 6a 3e ab f2 af 3d 1f 05 38 3e
       0.22429255 0.22852412 0.08591207 0.17970704
000090 fc f9 87 3e 2b a8 55 3e 78 02 ef 3d 18 ca 2a 3e
       0.2655791 0.20864932 0.11670393 0.16678655
0000a0 3d fa 70 3e c4 96 f8 3d 3a a6 a2 3d 6e c2 77 3e
       0.23532958 0.12138131 0.079418615 0.24195263
0000b0 43 dd 35 3e cc 9e 28 3e 3d fa 42 3e 5e b2 61 3e
       0.17760186 0.16466826 0.19040771 0.22040698
0000c0 a7 7e 3b 3e ba ff c2 3d 31 b5 0b 3e b6 49 4b 3e
       0.18310033 0.09521432 0.13643338 0.19852337
0000d0 1a bc 59 3e 07 90 63 3e 5e a4 d6 3d fa 3a 3c 3e
       0.21263161 0.22222911 0.10480569 0.18381873
0000e0 7b bd 40 3e ad f5 f6 3d fb bf 37 3e d7 02 66 3e
       0.18822281 0.12058578 0.17944328 0.22462021
0000f0 62 17 2e 3e 99 53 fc 3d 5d c9 1c 3e cb ae 2a 3e
       0.17001107 0.123206325 0.15311189 0.1666824
000100 0d 1e 55 3e 25 82 18 3e eb fe 84 3e 86 28 5f 3e
       0.20812245 0.14893396 0.25975737 0.21792802
000110 5e 60 3a 3e 65 77 57 3e 3c cb 6e 3e c9 90 6f 3e
       0.18200824 0.21041639 0.23319715 0.23395075
000120 31 7a 86 3e d3 47 a9 3d 29 08 10 3e 9c 03 0c 3e
       0.262651 0.082656525 0.14065613 0.13673252
000130 b6 b5 29 3e db 0e 82 3e 60 8b 72 3e 83 a1 83 3e
       0.16573223 0.2540196 0.2368598 0.2570916
000140 68 62 c8 3d e0 69 08 3d 30 2c 52 3e 38 94 74 3e
       0.097843945 0.033304095 0.20524669 0.23884666
000150 93 11 6a 3e df 6d 64 3e 4d 00 84 3e 7d 69 7d 3d
       0.22858267 0.22307537 0.2578148 0.06186818
000160 22 be 7a 3e 63 11 01 3e e1 f0 80 3e 0d fb 3f 3e
       0.24486592 0.12604289 0.25183776 0.18748112
000170 84 ca 63 3e 1d 28 36 3e a6 74 e6 3d 6e 2c 4c 3e
       0.22245222 0.1778874 0.11252718 0.19938824
000180 96 e5 ce 3d d5 ab bb 3d de 92 3a 3e fe 60 5a 3d
       0.10102384 0.09163634 0.18220088 0.053315155
000190 50 0f 4f 3c 82 8f 76 3d a4 e2 c5 bd d0 57 c8 bd
       0.012637928 0.060195453 -0.09662369 -0.09782374
0001a0 98 d9 00 bc 00 06 77 3a 07 60 c9 3d 54 39 d0 3c
       -0.007864378 0.00094231963 0.09832769 0.025417961
0001b0 35 46 22 bd 5a cd 08 3d 85 9f 8b 3d 60 59 37 3c
       -0.039617736 0.033398964 0.06817535 0.011190742
0001c0 3f 28 b3 3d 5d 60 ca 3d 48 f5 7a bc 85 a3 9c bd
       0.08747911 0.09881661 -0.015317269 -0.076483764
0001d0 f6 87 57 3d 3c 30 8c 3c ce 95 b5 bd 20 2e 30 3b
       0.052619897 0.017112844 -0.088664636 0.0026882961
0001e0 89 4a 9f bd bc 64 a2 3c 98 e9 e7 bc 5e 4d b8 bd
       -0.07777888 0.019823425 -0.028309628 -0.089991316
0001f0 5e 66 7c 3d dc 0a db bc cb cb cc 3d 62 a4 6d bd
       0.061621062 -0.026738577 0.09999808 -0.058018096
000200 2e 7b 33 3d 60 7a 04 3b 75 d3 ae 3d 37 33 cb 3d
       0.043818645 0.0020214543 0.08536426 0.09921878
000210 21 69 46 bd 0c 43 a2 bc 9c 61 80 3c b6 cf 1a 3d
       -0.048440102 -0.019807361 0.015671544 0.037795745
000220 48 1e 02 bc 3c 44 b4 bd d6 74 4d 3d 7f 35 8f 3d
       -0.00794179 -0.08802077 0.05016025 0.069926254
000230 0e a7 a5 bd 00 73 69 3a 0e 98 02 bd 33 3c b8 bd
       -0.08088504 0.0008905381 -0.031883292 -0.08995857
000240 2e 81 c2 bd 14 d0 da 3c e3 ff 28 bd 62 0c 3a 3d
       -0.09497295 0.026710548 -0.041259658 0.045421965
000250 54 99 d4 3c e9 21 9b 3d e7 72 c4 3d d7 9a a8 3d
       0.025952019 0.07574827 0.095922284 0.08232658
000260 e0 f5 26 bb 29 1e 9f 3d b3 d7 ac 3d 25 5d 4e bd
       -0.0025476143 0.077694245 0.08439579 -0.0503818
000270 74 4f f2 3c 80 b6 08 3a 03 eb 8c 3d 30 62 66 bc
       0.029578902 0.0005215183 0.068807624 -0.014061496
000280 b0 7d 15 3c 33 16 bf bd a6 fb 7b 3d 0e 5b 55 bd
       0.0091242045 -0.09330406 0.061519288 -0.05208879
000290 88 7e 0c 3c e0 82 8f 3c 7e 30 45 3d 27 df 9a bd
       0.008575089 0.01751846 0.04814195 -0.07562094
0002a0 be a8 87 bd 81 52 c4 bd 98 2a 3d bc 50 d3 06 bd
       -0.06623982 -0.09586049 -0.0115458 -0.032916367
0002b0 28 94 aa bc 9e 25 59 3d b1 c6 cb 3d 8e 7f 0f bd
       -0.0208226 0.05301439 0.09950007 -0.035033755
0002c0 cb 29 c0 3d 32 c7 4a bd bf 80 ae 3d 7e fd 8e bd
       0.093829714 -0.049506374 0.0852065 -0.069819435
0002d0 bc 9a 9f 3c a1 b9 32 bd 0c 33 ce 3c 6b 32 cc 3d
       0.019482963 -0.04363406 0.025170825 0.09970554
0002e0 20 e8 c1 bc 8c c1 87 bc 93 05 3b bd 00 c6 ef ba
       -0.023670256 -0.016571783 -0.045659613 -0.0018293262
0002f0 60 28 61 3b 25 39 97 bd 2c 22 8a 3c ee bb a8 bd
       0.003435634 -0.07383946 0.016861998 -0.0823897
000300 2e ff 55 3d 02 7c 70 3d 8e ab 5c bd fa 36 a2 bd
       0.05224531 0.058712013 -0.053874545 -0.07920642
000310 fe 0b 70 bd 1f 96 a7 3d ed 03 8a be c7 9b 3c be
       -0.058605187 0.0818293 -0.2695612 -0.184188
000320 9d 7e 06 be dd 53 ce bd 6e 3d 6a be d5 bf 40 be
       -0.13134237 -0.100745894 -0.22874996 -0.18823178
000330 5a 97 63 3e 15 58 82 be ba 50 ca 3d 97 44 5e be
       0.22225705 -0.25457826 0.098786786 -0.21705852
000340 d2 e2 8d 3e 53 4f 16 be 49 60 e7 3d ad ad fe 3d
       0.27712113 -0.14678697 0.11297662 0.1243547
000350 51 a6 32 be 85 fe 87 be 82 61 13 3e 12 ce 54 be
       -0.17446257 -0.2656137 0.14392665 -0.20781735
000360 95 37 37 be e1 f4 78 be c7 02 04 3e 4e 86 33 3e
       -0.17892297 -0.24312164 0.12891684 0.17531702
000370 75 2c 8e be 17 62 84 3e a3 3b d8 bd 58 ac 81 be
       -0.27768293 0.25856087 -0.1055825 -0.253268
000380 5e 60 4d 3e 99 3a 59 be b7 9f 86 be 79 ee 8c be
       0.20056292 -0.2121376 -0.26293728 -0.2752569
000390 42 0a 38 3e 16 64 72 3e b8 a8 8b be 97 ff 32 be
       0.17972663 0.23670992 -0.2727716 -0.17480312
0003a0 f7 09 73 be e0 1b 0c be 7d 8d 3a be 04 52 6e 3e
       -0.2373427 -0.13682508 -0.18218036 0.23273474
0003b0 92 1b 76 3e b6 b4 3a 3e 80 8c 6b 3e bb 56 43 be
       0.24033955 0.18232998 0.23002815 -0.19076054
0003c0 66 76 68 3e f6 99 79 3e 04 92 8d be ff 6e 74 3e
       0.22701415 0.24375138 -0.27650464 0.23870467
0003d0 23 c8 e9 bd 84 c6 84 be 2e dd 88 bd 85 04 85 3e
       -0.11415126 -0.25932705 -0.06682812 0.2598001
0003e0 54 a9 f8 3d d6 85 5d be 0b 1a 6e be 3d e4 1a 3e
       0.12141672 -0.21633086 -0.23252122 0.15126128
0003f0 9f ae 72 be f0 f5 b9 3d 6c 48 6f 3e 1f 12 29 be
       -0.23699425 0.09080112 0.2336747 -0.16510819

lstm.weight_ih_l1 f4 [396, 99]
000000 90 4a 1f be d0 ba 8c bd 47 a0 35 be 47 9b f6 bd
       -0.15555787 -0.06871569 -0.17736922 -0.120413356
000010 2d bf 31 be da 06 aa bd 0b 81 86 3e 53 e1 21 be
       -0.17358084 -0.08302088 0.26270327 -0.1580861
000020 6f 56 10 3e ab bb 08 be 85 d4 63 3e 88 d6 59 be
       0.14095472 -0.1335284 0.22249039 -0.21273243
000030 68 e5 3a 3e f4 07 5b 3e a9 a3 18 be 5b ff 73 be
       0.18251574 0.21389753 -0.14906181 -0.23827879
000040 d0 44 6f 3d 87 ac fc bd 46 26 4e be 95 33 77 be
       0.058415234 -0.123375945 -0.20131788 -0.2414077
000050 c3 1c 6b 3e 24 11 82 3e b2 a4 87 be f1 87 46 3e
       0.2296019 0.25403702 -0.2649284 0.19387795
000060 7d 24 8e bd df 09 76 be 4b 28 52 3e f3 d0 8c bd
       -0.06940553 -0.24027203 0.20523183 -0.068757914
000070 ab 42 8d be cc 36 fd bd d9 ff c0 3d 87 30 12 3e
       -0.27589926 -0.12363967 0.09423799 0.14276324
000080 8e 0f 61 be 76 b0 35 be 39 45 7c be 15 32 b6 bd
       -0.2197859 -0.17743096 -0.24635781 -0.08896271
000090 fa 56 60 be 47 25 fe 3d df 56 09 3e b7 d1 16 3e
       -0.21908179 0.12409454 0.13412045 0.14728437
0000a0 32 89 06 3e 29 dc 0a be 5f bc 9b 3e 21 77 20 3e
       0.13138273 -0.13560547 0.30417153 0.15670444
0000b0 bc 45 fb bd ab c2 b1 3d 5a 2e 86 be f7 00 98 bd
       -0.1226916 0.08679708 -0.26207238 -0.07422059
0000c0 f6 ef 55 be 3d 70 b9 3d 61 80 44 3d 60 72 92 be
       -0.20892319 0.09054611 0.047973994 -0.28602886
0000d0 0c 23 14 be fc 3a 67 3e 05 c1 cc bd e5 3e 4b 3e
       -0.14466494 0.22581095 -0.09997753 0.19848211
0000e0 b1 8b bf 3d 37 3c 89 bd 89 dd cc bd 6b bb 69 3e
       0.09352816 -0.06700938 -0.10003192 0.228254
0000f0 19 a8 3f 3e f6 8b ae bd 09 fc 55 3e 6f a5 09 3e
       0.18716468 -0.08522789 0.20896925 0.13442014
000100 87 19 36 be f4 89 0a 3e 88 3b 7d bd 63 ff 5a 3e
       -0.17783175 0.13529187 -0.06182435 0.21386485
000110 c8 1e 7b 3e 4d 70 66 be ce 5e 5b be b2 a9 63 be
       0.24523461 -0.22503777 -0.21422884 -0.22232702
000120 11 bd 69 3e 3f 2d ca 3d 97 09 80 be 4b 51 67 be
       0.2282603 0.09871911 -0.25007316 -0.22589605
000130 94 6f 98 3d aa be 5f be 41 aa 35 3e a9 94 70 bd
       0.07443157 -0.21850076 0.17740728 -0.058735523
000140 37 80 4a 3e 76 f8 33 be 16 27 65 3e c1 1d c3 bd
       0.19775473 -0.17575249 0.22378191 -0.095271595
000150 4f 82 24 be c9 89 1f 3e 46 a1 4e 3e 9e 47 89 bd
       -0.16065334 0.15579905 0.20178708 -0.06703113
000160 28 b6 fa 3d 7d 15 48 be 6b 08 02 be a8 c8 02 be
       0.12241775 -0.19539447 -0.12698524 -0.12771857
000170 fe 15 30 be 56 de bb bd 0c 65 1e be c0 f7 2f 3e
       -0.1719589 -0.091732666 -0.15468234 0.17184353
000180 91 b8 17 be c3 f8 52 be 67 f7 a3 3d 28 83 88 be
       -0.148165 -0.20602708 0.080061726 -0.26662564
000190 6f 44 6e be fd 65 5f be 82 f6 35 be 1a e2 20 be
       -0.23268293 -0.21816249 -0.17769817 -0.15711251
0001a0 f6 35 2a be e2 fd 2c 3e 0c d0 45 bd e7 02 82 3e
       -0.16622147 0.16893724 -0.048294112 0.2539284
0001b0 d5 28 0b be 37 dd 89 3e 2e 3b 62 be 21 ae 2a 3e
       -0.13589795 0.26926586 -0.22092888 0.16667987
0001c0 a1 22 20 3e 2a fa 10 be 5e ae fb bd 02 e6 38 3e
       0.1563821 -0.1415793 -0.12289117 0.18056491
0001d0 d7 9a 8c be fa 49 42 be bd 73 c9 bd 5e e4 40 3e
       -0.27461883 -0.18973532 -0.098365285 0.18837115
0001e0 cf 16 39 3e 05 d2 ae bd 3c 13 59 3e ea e1 86 be
       0.18075107 -0.08536152 0.21198744 -0.26344234
0001f0 48 b0 1f be 34 b6 62 3e af b2 99 bd 46 b8 43 be
       -0.1559459 0.22139817 -0.07504784 -0.19113263
000200 33 f4 e6 bd 9b e2 d1 3d 62 21 8b 3e fe dc 68 be
       -0.11277046 0.102483 0.27173907 -0.22740552
000210 ab 93 47 be 3f a6 70 be 28 0a 12 be f4 5a 1d be
       -0.19489925 -0.23500918 -0.14261687 -0.15366727
000220 a9 6c 4d 3e fc a7 87 3e d4 50 3f 3e 30 aa 1f 3e
       0.20060982 0.2649535 0.18683177 0.15592265
000230 cd ad 39 be ac 8b 2d 3e e9 36 6f 3e d7 bd 85 be
       -0.18132706 0.16947812 0.2336079 -0.261214
000240 3e 0e 2f 3e cd ab 14 be 06 26 31 be b4 33 fa bd
       0.17095277 -0.14518662 -0.17299661 -0.12216893
000250 1f 8c 62 3e b8 4e 5d 3e d1 98 76 be cc 04 dd bd
       0.22123764 0.2161206 -0.24081732 -0.107919306
000260 20 31 5c 3e e8 0a 88 be f5 79 0d 3e 07 33 67 3e
       0.21503115 -0.2657082 0.13816054 0.22578059
000270 d5 08 f5 bd b3 de 05 be 7d 9c 1f 3e df b7 53 3e
       -0.11964575 -0.13073234 0.1558704 0.2067561
000280 17 7c 45 be d3 b1 62 3e a3 b6 21 3e 69 e4 8c be
       -0.19285618 0.22138147 0.15792327 -0.27518013
000290 f2 fd 50 3e bf 7d 1c be e6 33 39 3e 8c d0 63 3d
       0.20409372 -0.15282343 0.18086204 0.055618808
0002a0 3c 58 32 be 36 c4 0e be 7a 4a 56 be 42 46 89 3e
       -0.17416471 -0.13942036 -0.20926848 0.26811415
0002b0 40 d2 5d 3e 7e 59 b2 bd 84 0b ce bd d8 df 18 3e
       0.21662235 -0.087084755 -0.1006079 0.1492914
0002c0 26 5e f8 bd f4 56 28 3e f1 b4 08 be 81 b4 7a 3e
       -0.121273324 0.1643942 -0.13350274 0.2448292
0002d0 ad 9b df bd b7 8d 0b 3e 15 8d 10 be d6 3e 86 be
       -0.10918365 0.13628279 -0.14116319 -0.26219815
0002e0 02 1e 29 3e d2 ee 8c 3e 91 68 9b bd f8 33 56 3e
       0.16515353 0.27525955 -0.07588304 0.20918262
0002f0 eb 9f 7a be aa ce a3 bd cc 21 66 be 03 12 f3 bd
       -0.24475066 -0.079984024 -0.2247383 -0.1186867
000300 21 2d 85 be 0c 9b 35 be 14 7c bd 3d 9f dd 3b be
       -0.26010993 -0.17734927 0.09252182 -0.1834626
000310 38 ea 75 be 5e d9 42 3e 42 95 53 be 8e 6f 42 be
       -0.24015129 0.19028232 -0.20662406 -0.18987867
000320 98 37 80 be 20 be 4c be 8e 42 1d be 87 52 11 be
       -0.25042415 -0.19994402 -0.1535742 -0.14191638
000330 c9 d3 d3 3d 41 95 28 be 6d 5d d5 3d 1d ae 4f be
       0.10343129 -0.16463186 0.1041821 -0.20281263
000340 55 fe 5e 3e 51 6a 55 be 66 3e 95 3d 6e 55 20 3e
       0.21776707 -0.20841338 0.07287292 0.15657589
000350 43 a4 6a be 23 2c 3a be f7 ed 90 3d c5 be 2d be
       -0.22914223 -0.181809 0.07076638 -0.16967304
000360 e0 b9 57 be 39 80 78 be fa 2f 82 3e e1 80 8c 3e
       -0.21067 -0.24267663 0.25427228 0.27442077
000370 d9 91 70 be 40 11 40 3e bc e6 fb bd 55 48 f8 bd
       -0.23493136 0.1875658 -0.122998685 -0.12123171
000380 d1 a6 66 3e b0 a3 41 be 86 16 aa bd d7 72 48 be
       0.22524573 -0.18910098 -0.08305077 -0.19575058
000390 00 90 26 3e 55 7c 37 3e eb 1d d4 bd 1d 52 14 be
       0.16265869 0.17918523 -0.10357269 -0.14484449
0003a0 42 8f 92 bd 59 40 f9 bd f8 72 35 be f7 70 e6 3d
       -0.071562305 -0.121704765 -0.17719638 0.11252015
0003b0 84 9f c5 3d a0 85 f1 3d b1 37 ae 3d 3c ab 59 be
       0.09649566 0.11793065 0.08506716 -0.21256727
0003c0 18 bf 63 3e 16 f8 84 3e d2 0b e6 bd 99 1f ac 3d
       0.22240865 0.25970525 -0.11232723 0.08404464
0003d0 83 01 45 be 90 8f 9c bd fd d9 57 be fd 17 6b 3e
       -0.19238858 -0.0764457 -0.2107925 0.2295837
0003e0 cf db 7d 3d a5 a9 49 be 94 c4 0f be 69 15 d0 3d
       0.061977204 -0.1969362 -0.14039832 0.10160334
0003f0 94 12 84 bd c3 d7 e5 3d d9 4d 54 3e 75 d6 ea bd
       -0.06448856 0.11222794 0.20732822 -0.11466686

lstm.weight_hh_l1 f4 [396, 99]
000000 a1 87 9e 3d 86 dc 3a 3d 4f a7 a3 bd 15 fa 6b bd
       0.07740713 0.045620464 -0.07990896 -0.057611544
000010 6e 0c 78 3d 18 63 0f 3c 4f f8 93 bd 0e b9 5b 3d
       0.06055873 0.008751653 -0.072250955 0.05364328
000020 0e 91 57 bd b1 c3 8f bd 60 cc 36 3c 98 22 5b 3c
       -0.05262857 -0.07019747 0.011157125 0.013374947
000030 21 6c 58 bd 08 e7 01 bc 98 a4 50 bc 36 44 83 bd
       -0.052837495 -0.007928617 -0.012734555 -0.064094946
000040 ea 9b 00 3d 96 de 6d 3d 40 1a a3 3c 2c 86 e0 3c
       0.03139869 0.058073603 0.019909978 0.027407728
000050 4c 92 a4 bd 3c 3f 1c bd 54 91 f3 3c 0c cb b2 3c
       -0.080357164 -0.038146242 0.029732384 0.021825336
000060 72 91 0e 3d a4 c6 d7 3c 46 1c 56 3d aa 74 74 bd
       0.034806676 0.026339836 0.052273057 -0.059681572
000070 cd 21 9c 3d 8e dd b3 bd 90 c5 0f bd b2 e9 25 3d
       0.076236345 -0.087824926 -0.03510052 0.040506072
000080 74 aa b3 3c c0 a1 8e bb d8 b8 71 bd 54 69 f0 bc
       0.021931864 -0.004352778 -0.05901417 -0.0293471
000090 3f 5b 98 3d c7 38 9c 3d e8 9d 3a bd 11 7c a6 bd
       0.07439279 0.07628017 -0.045560747 -0.081291325
0000a0 a0 f5 7d 3c d3 0f 86 3d 3e 93 69 3d 56 39 15 3d
       0.015500456 0.06545987 0.057025187 0.036431633
0000b0 1c e3 de 3c c0 54 b0 3c 40 cd c4 3b 1a 5f 63 bd
       0.027207904 0.021524787 0.006005913 -0.055510618
0000c0 cc c8 2b bd a5 53 c0 bd ca ea 13 3d c2 b5 0f 3d
       -0.04193954 -0.09390954 0.036112584 0.035085447
0000d0 92 ff 03 bd ae a4 71 bd b7 8d 1c bd 60 cc 52 bd
       -0.032226153 -0.05899494 -0.038221087 -0.05146444
0000e0 e9 ce bd 3d 82 49 3a bd 74 0e ac bd 31 cd c4 3d
       0.092679806 -0.04548026 -0.08401194 0.0960945
0000f0 a2 4e 30 3d d6 16 01 3d 0e 33 32 3d 5e 64 61 3d
       0.04304374 0.03151592 0.04350572 0.05502736
000100 cd b8 c0 3d c2 97 7a 3d d0 05 a2 3b 08 42 bc 3c
       0.09410248 0.061179884 0.0049445406 0.022980705
000110 50 7c 80 bd ad 8f c4 3d c0 d0 12 bb d1 fd 68 bd
       -0.06273711 0.095977165 -0.0022402257 -0.056882683
000120 4d 7a c8 bd b0 21 39 bd 81 3f 99 3d e1 11 94 bd
       -0.09788952 -0.045198143 0.074828155 -0.07229973
000130 5b 2b 40 bd 60 a3 e4 bb 09 f4 92 3d b9 73 c7 3d
       -0.046916347 -0.0069774836 0.07175452 0.09738869
000140 90 29 d4 bb 00 0d f1 39 e2 f9 3b 3d 96 d0 45 3d
       -0.006474681 0.00045976788 0.045892604 0.048294626
000150 10 07 61 3c 8a f8 3d 3d c1 69 3e bd 3f e5 c8 bd
       0.013734594 0.046379603 -0.046487574 -0.0980935
000160 f6 4e 2e bd 0a 8e 1e 3d 38 74 8c bd bb 1f 8a 3d
       -0.04255577 0.038709678 -0.068581045 0.06744333
000170 62 cb 6f bd e9 86 8a 3d 60 b6 86 bd c0 4e 6b 3b
       -0.05854357 0.06764013 -0.06577754 0.0035905093
000180 fc 06 e8 bc 53 27 ae 3d 76 99 16 3d 70 f7 88 3c
       -0.028323643 0.08503594 0.036767446 0.01671955
000190 a0 20 9c 3c c0 d7 9a 3c 20 b5 a7 bc 52 37 47 3d
       0.019058526 0.018901706 -0.02047211 0.048636742
0001a0 94 c9 d5 bc b6 db 57 3d 56 18 12 3d 36 87 29 3d
       -0.026097097 0.052699767 0.03566774 0.041388713
0001b0 aa f9 bb bd 9b 92 b1 3d a0 f7 55 bb 02 06 2c 3d
       -0.09178479 0.08670541 -0.0032648817 0.041997917
0001c0 d7 9c ba 3d f0 39 07 bd 3a 47 33 bd cf 2f a2 3d
       0.09111946 -0.033014238 -0.0437691 0.07919275
0001d0 82 36 0a 3d 2e 6a 15 3d e8 25 9c bd d4 92 84 bd
       0.03374339 0.036478214 -0.076244175 -0.06473318
0001e0 34 d6 ba bc 06 0d a9 bd 6a 74 90 bd 44 6d e5 3c
       -0.022807218 -0.08254437 -0.07053454 0.028006203
0001f0 c0 02 97 3b db 45 9b bd 43 f4 c9 3d e0 bb 1c bb
       0.004608482 -0.07581683 0.09861042 -0.0023915693
000200 2e 64 1e 3d d3 58 22 bd b6 54 2c 3d 2c 72 96 bd
       0.038669758 -0.03963549 0.042072974 -0.07345995
000210 30 8b 54 bd 14 cb d5 3c 6a 68 94 bd 3c 43 ed 3c
       -0.051890552 0.026097812 -0.07246478 0.028962724
000220 5c a2 e2 3c c9 c2 4d bd 6e 84 4e 3d 0e cf 08 bd
       0.02766531 -0.05023459 0.050419264 -0.033400588
000230 38 5f 92 3c e8 2e a7 bc 06 d9 bf bd ba a7 a9 bd
       0.01786767 -0.020408109 -0.09367566 -0.082839444
000240 7b 94 a8 3d 8a a4 8c bd dc 38 f5 3c dc e9 fd 3c
       0.082314454 -0.06867321 0.02993434 0.030995302
000250 8a 60 13 bd 0b f6 30 bd d6 d6 6d 3d 70 af a3 bd
       -0.03598074 -0.043203395 0.05806621 -0.079924464
000260 6e 92 72 3d 92 dd 64 bd 69 75 ac 3d 50 a5 b8 bd
       0.059221677 -0.05587537 0.08420832 -0.09015906
000270 df 63 94 3d e2 a9 5e 3d 01 65 c0 3d 80 47 9d bb
       0.072456114 0.05436123 0.09394265 -0.004799783
000280 28 50 7d bd 92 fc 51 bd 04 0c b1 bd 4e 4e 17 bd
       -0.06184402 -0.05126626 -0.0864487 -0.03693991
000290 bd ae ca 3d c6 f4 0a bd 00 12 01 39 95 64 1d bd
       0.0989661 -0.03392484 0.00012309104 -0.038426
0002a0 6d eb c3 3d 73 47 96 3d d3 20 4d bd f6 83 a9 bd
       0.09566388 0.073378466 -0.05008013 -0.08277123
0002b0 38 6c 34 bd 38 8d 80 bd b1 1f b4 3d a2 12 75 3d
       -0.044048518 -0.06276935 0.08795107 0.059832223
0002c0 00 c0 0a 3b 1a 8e 50 3d 12 3a 61 3d 80 be 95 ba
       0.002117157 0.05091677 0.05498702 -0.0011424571
0002d0 bd 04 9d bd 81 f0 9e bd bd 1e c5 3d d2 9b 4c 3d
       -0.076669194 -0.07760716 0.096250035 0.04995329
0002e0 40 e3 6a 3b 26 ed 9d bd 69 fb b4 3d 26 d8 b6 bd
       0.0035841018 -0.07711248 0.08837015 -0.08927946
0002f0 b7 5b a2 3d 2e e3 5d 3d e2 a2 6e bd 56 ea 64 bd
       0.079276495 0.054171734 -0.058260806 -0.055887543
000300 cd 2e b5 bd c3 95 95 3d 61 46 8e 3d fa a0 a4 bd
       -0.08846817 0.073039554 0.069470175 -0.08038516
000310 8d 7d 88 3d 76 75 4b 3d 07 35 49 bd 28 d0 6e 3c
       0.06664572 0.049672566 -0.049122836 0.0145759955
000320 0d 0b 56 bd 7c 09 ee 3c 96 77 68 3d 00 c2 85 bd
       -0.052256633 0.029057257 0.05675467 -0.06531143
000330 95 f4 cc bd 14 f0 ee bc 29 9f 29 bd f4 7f 96 bd
       -0.10007588 -0.029167213 -0.041411553 -0.07348624
000340 08 28 e8 bc c0 cc c8 3b 80 52 61 3a 90 ea 87 bc
       -0.0283394 0.0061279237 0.00085953623 -0.01659134
000350 11 38 5b bd 60 db f7 bb ab b9 b3 bd e3 d1 b0 3d
       -0.053520266 -0.0075639933 -0.08775648 0.08633783
000360 66 7c 0d 3d 3d 90 b3 bd db f3 a2 3d 3e ba 4f 3d
       0.034542464 -0.08767746 0.07956668 0.050714724
000370 32 83 9a bd e1 88 8c 3d 7c ec a6 bd c2 88 41 bd
       -0.07544555 0.06862045 -0.081505746 -0.047249563
000380 40 24 2e 3b 08 5b 9e 3c 6e 76 21 bd cc c6 9c 3c
       0.00265719 0.019330516 -0.039419584 0.019137762
000390 bb 22 94 3d 66 3e 4f 3d f5 60 a7 3d f7 06 be 3d
       0.07233187 0.050596617 0.0817279 0.09278672
0003a0 40 f6 02 bc a6 a0 85 bd 68 f6 6a 3c 10 5a 08 bc
       -0.007993281 -0.06524782 0.014340974 -0.008322254
0003b0 95 f6 a1 3d cc ba c5 3c 80 63 52 3a be 00 26 3d
       0.0790836 0.024136923 0.0008025691 0.04052805
0003c0 84 b1 b5 bd 97 c9 80 3d 8e 3c b9 bd 00 72 d6 3a
       -0.08871749 0.0628845 -0.09044753 0.0016360879
0003d0 02 ad bd bd c3 d6 c3 3d b4 a9 ef 3c 68 77 b8 3c
       -0.09261514 0.09562447 0.029255725 0.022517875
0003e0 90 43 17 bc 6c de d0 bc 0c d2 da bc f8 82 a9 3c
       -0.009232417 -0.025496684 -0.026711486 0.020692334
0003f0 b1 46 7e bd e6 59 7a 3d 25 9b 82 bd ae 37 37 3d
       -0.062079135 0.06112089 -0.06377248 0.044730835

lstm.bias_ih_l1 f4 [396]
000000 df 80 a2 3d 22 42 46 3e fa 17 16 3e ef d4 c0 3d
       0.079347365 0.19361165 0.14657584 0.09415614
000010 08 7d 08 3e cb 7d b3 3d 54 4b 67 3e 56 bd cd 3d
       0.13328946 0.087642275 0.22587329 0.100458786
000020 68 b2 52 3e 2e 34 68 3e 42 7b d5 3d 79 bb 8b 3e
       0.20575869 0.22676155 0.104239 0.27291468
000030 6c 9e 88 3e af 5e 88 3e 43 cc 3b 3e b6 b4 74 3e
       0.26683366 0.26634738 0.18339638 0.23897061
000040 c4 50 70 3d 50 28 7e 3e 62 a7 35 3e d1 25 19 3e
       0.058670774 0.24820065 0.17739633 0.14955832
000050 4a 38 b5 3d 85 cd d7 3d a2 9c 5b 3e a8 4f 69 3e
       0.08848627 0.105372466 0.2144647 0.22784293
000060 b5 3a 47 3e e5 b6 3c 3e db eb 1e 3e 9e 61 c1 3d
       0.19455989 0.18429144 0.15519659 0.09442447
000070 2f 3e 29 3e 98 ea 4b 3e 50 d7 85 3e 2d b3 87 3e
       0.16527627 0.19913709 0.26140833 0.26503888
000080 58 d7 5c 3e f3 2e 84 3d f8 48 56 3e 65 b4 26 3e
       0.21566522 0.06454267 0.20926273 0.16279753
000090 48 a8 c7 3d b2 1e d9 3d 5e 03 7a 3e 7e f8 b4 3d
       0.09748894 0.10601558 0.24415347 0.088364586
0000a0 3e 28 7b 3e 21 67 7c 3d f9 1e 5a 3e 16 0e 2a 3e
       0.2452707 0.06162179 0.21300878 0.16606936
0000b0 55 14 79 3e ef 7a 19 3e b0 a8 27 3e 34 db 47 3e
       0.24324162 0.14988302 0.16372943 0.19517213
0000c0 d4 d3 27 3e d0 7e cc 3d 81 de 0c 3e d9 03 3b 3e
       0.163894 0.09985125 0.13756754 0.18263187
0000d0 49 fb d8 3d 79 63 f5 3d 60 be 58 3e 0e c4 ba 3d
       0.10594804 0.119818635 0.21166372 0.09119426
0000e0 14 d5 47 3e 7b 27 4b 3e 6a d8 c9 3d 7d a2 45 3e
       0.19514877 0.1983928 0.09855731 0.19300266
0000f0 91 ab 44 3e fc 37 20 3e 34 8c 63 3e bd 2f 59 3e
       0.19206072 0.15646356 0.22221452 0.21209617
000100 3d 39 72 3e d2 cf 31 3e 58 4a ac 3d 1e 14 ad 3d
       0.23654647 0.17364433 0.084126174 0.08451103
000110 e8 cc 2f 3e 3f 10 8f 3e 9d 3c 30 3e 8e e2 ef 3d
       0.1716801 0.27942082 0.17210622 0.11713134
000120 43 4d 5d 3e 3f 89 c1 3d 7f 41 f3 3d cb 69 71 3e
       0.21611504 0.09450006 0.11877727 0.23575513
000130 ff 6c 78 3e 93 2a b2 bd 9f f2 e3 3d 1e 06 3c 3e
       0.24260329 -0.08699527 0.11130261 0.18361709
000140 1c 45 4d 3e 6b ac 8c 3e 6c b9 c7 3d ca 7e 41 3e
       0.20045894 0.27475294 0.09752163 0.18896022
000150 fd cd c5 3d 75 db 35 3e eb 80 97 3d e6 63 20 3e
       0.0965843 0.17759497 0.07397636 0.15663108
000160 80 55 0f 3e b5 86 52 3e 23 9c 4b 3e 5a ff 5d 3e
       0.1399746 0.20559199 0.1988378 0.2167944
000170 1d 5d 04 3e 07 de a5 3d 68 62 16 3e cc a1 61 3e
       0.12926145 0.08098989 0.14685977 0.22034377
000180 0b 26 6b 3e e6 da 44 3e 76 20 37 3e 98 1c 7e 3c
       0.22963731 0.19224128 0.17883477 0.015509747
000190 ed 6c c3 3d 82 48 6a 3d 81 01 ba 3d f8 9d 63 3c
       0.0954226 0.057198055 0.09082318 0.013892643
0001a0 c3 dd a8 3d 56 5c 9c bd 47 65 96 3d d2 fb 5b 3d
       0.08245423 -0.07634799 0.07343536 0.05370695
0001b0 d0 10 6f bc e7 bc 5f bd f2 43 79 3d 41 7d b1 3d
       -0.014591411 -0.05462351 0.060855813 0.086664684
0001c0 85 32 95 3d b2 2a 70 3d a6 11 46 3d 1b 84 5c bd
       0.072850265 0.058634467 0.048356675 -0.053836923
0001d0 a1 ed af 3d a2 d8 2b 3d 1e fc 05 3d 39 b1 b2 3d
       0.08590246 0.041954644 0.03271114 0.08725209
0001e0 d1 fd b2 bd 28 ca 5a 3c 3b 07 42 bd af 04 c7 3d
       -0.08739818 0.013353862 -0.047370177 0.0971769
0001f0 b1 2a 94 3d ba 31 27 3d 76 20 43 3d 5f 0c 4a bd
       0.07234705 0.040818907 0.04763838 -0.049328204
000200 d4 17 ca 3c 53 84 a8 bd 70 a8 95 bb 21 5d 9f 3d
       0.024669565 -0.08228364 -0.0045671985 0.07781435
000210 e8 84 bf bc 68 2b 08 bd 4e e4 6a 3d 57 df 21 bd
       -0.023378804 -0.03324452 0.057346635 -0.039519634
000220 e0 56 f7 bb 28 9c af bd ce 7d 47 3d 6a 4c ad bd
       -0.007548198 -0.08574706 0.04870396 -0.084618405
000230 b2 51 49 3d f6 ce 61 3d 34 f2 c4 3c c0 3e c1 bb
       0.049150176 0.055129014 0.024041273 -0.005897373
000240 20 f5 31 bb bc 1a e1 3c 38 fd 41 bc 99 ee c0 bd
       -0.0027154163 0.027478568 -0.011840157 -0.09420509
000250 6b f0 c2 bd e0 d7 0a bd ca 89 2a 3d dc 7b ea 3c
       -0.09518512 -0.03389728 0.041635312 0.028623514
000260 fe 35 c0 bd 1c c8 7f bd 96 7f 73 3d aa 83 9b bd
       -0.09385298 -0.0624467 0.059447847 -0.07593472
000270 d4 92 9e 3c 5a 53 33 bd 48 aa 49 3c ee c1 3a 3d
       0.019357122 -0.043780662 0.012308665 0.045595102
000280 64 5c 00 bd 08 1e c9 bd 74 d7 8e 3c 8b 77 9c 3d
       -0.03133811 -0.09820181 0.01743672 0.076399885
000290 7e c3 0a 3d b1 bc cb 3d ae 4a 35 3d 4e 28 10 3d
       0.033877842 0.099480994 0.044260673 0.035194688
0002a0 d0 8e dd bb ff 0c a4 3d e7 b0 ca bd 78 89 97 bd
       -0.0067614093 0.08010291 -0.09897023 -0.07399267
0002b0 2f 0e c0 3d d4 34 c0 bd 5b 75 b8 3d a1 a3 8b 3d
       0.09377705 -0.09385076 0.09006759 0.06818319
0002c0 80 54 2b bb f9 8c 37 bd 66 16 67 3d 55 df b4 3d
       -0.0026142895 -0.044812176 0.056417845 0.0883166
0002d0 aa ee 3c bd 0d f7 a6 3d 66 ac 65 3d 94 20 af bc
       -0.046126045 0.0815259 0.056072615 -0.02137784
0002e0 aa a0 8d bd 7e 57 c2 bd b0 5e bc bd fe 34 20 bd
       -0.0691541 -0.09489344 -0.09197748 -0.039113037
0002f0 02 64 67 3d 18 a7 4e bc 95 22 bf 3d 84 b9 ff 3c
       0.05649186 -0.01261308 0.09332768 0.03121639
000300 8c 44 e3 3c c8 00 b7 bc 58 23 b8 bc 6b 11 81 3d
       0.027742647 -0.02233924 -0.02247779 0.0630215
000310 54 78 a8 3c 88 31 87 bd fe 40 b7 bd c0 a1 85 be
       0.02056519 -0.06601244 -0.08947943 -0.26099968
000320 25 92 26 3e ff 08 78 be fb 82 5c 3e f0 9d 5d be
       0.16266687 -0.24222182 0.2153434 -0.2164228
000330 6e 67 31 be 6c 92 21 be 8d 7e ca 3d d3 89 a4 3d
       -0.17324612 -0.15778512 0.09887419 0.080341004
000340 a5 42 f8 bd 25 3e 77 3e e5 82 83 3e 99 52 82 be
       -0.121220864 0.241448 0.25685802 -0.25453642
000350 8d 4d 7a be 25 07 41 3e a5 7d 8a 3d 24 e4 45 be
       -0.24443646 0.18850382 0.06762246 -0.1932531
000360 2c 0b 77 3e de f7 37 3e 6f 01 04 3e 5a 4f 6f 3e
       0.24125355 0.17965648 0.12891172 0.23370114
000370 8b 0b 75 3e 14 3b 58 3e 3f 19 54 be 05 8d de bd
       0.23930185 0.21116287 -0.20712756 -0.10866741
000380 83 a5 83 be aa fa 52 3e dc 7a 4a be 51 08 73 be
       -0.25712213 0.20603433 -0.1977343 -0.23733641
000390 20 c0 29 3e 66 85 83 be b6 35 69 3e 02 b7 81 3e
       0.16577196 -0.25687712 0.22774395 0.25334936
0003a0 b0 f9 15 be d1 4d 54 3e e8 7a 4f be 69 cd 80 be
       -0.1464603 0.2073281 -0.20261729 -0.25156716
0003b0 24 54 5f 3e 05 cf e5 bd d4 6a 12 be 54 a2 54 3e
       0.21809441 -0.112211265 -0.14298564 0.20765048
0003c0 0a a7 38 3e d7 8d 42 be 49 26 84 3e b1 e5 83 be
       0.1803247 -0.1899942 0.2581046 -0.25761178
0003d0 91 91 6e be b0 18 35 be 5c c4 40 be 8f aa f1 3d
       -0.23297717 -0.17685199 -0.18824905 0.118001096
0003e0 2f d4 7f be bb 57 07 be ed f0 40 3e dd 31 c3 bd
       -0.24983285 -0.1321706 0.18841906 -0.09530995
0003f0 b7 96 ef 3d a4 76 04 3e d9 f5 6f 3e f6 ee 84 3e
       0.116986685 0.12935883 0.23433627 0.25963563
