save/model_20240611_161939.pth (torch, 62844 bytes, 9 tensors)

lstm.weight_ih_l0 f4 [128, 15]
000000 41 7a 13 3f 7e 3d 1a 3f 46 2b d2 3e 40 07 33 3f
       0.5760842 0.6025008 0.4104864 0.6993294
000010 ab b0 f6 3e 61 67 9a 3e f7 3f d1 3e df 9a a6 3e
       0.48181662 0.30156997 0.40869114 0.32540032
000020 95 7c 07 3f 95 a2 ce 3e 98 11 1d 3f f7 3c ec 3e
       0.5292447 0.40358415 0.6135497 0.46140262
000030 23 24 f1 3e 60 52 1f 3f 4f de e0 3e b0 02 13 3f
       0.47097883 0.6223507 0.43919608 0.57425976
000040 1b 86 e5 3e d9 68 1a 3f e6 3d db 3e 56 28 0f 3f
       0.44828877 0.60316235 0.42820662 0.5592092
000050 a5 f9 a2 3e 28 ed cf 3e d7 54 0f 3f 32 c2 db 3e
       0.3183109 0.40610623 0.5598883 0.42921597
000060 e9 4c d7 3e 04 2c 20 3f ea 12 00 3f c9 66 f5 3e
       0.42050865 0.6256716 0.5002886 0.4792998
000070 dc 21 24 3f 8b e5 01 3f 81 57 0d 3f 9e 53 ec 3e
       0.64114165 0.5074088 0.55211645 0.46157545
000080 3c 33 fa 3e 2a f5 bb 3e 16 27 b8 3e 0d 6e db 3e
       0.48867214 0.36710483 0.3596732 0.428574
000090 8e 5c a9 3e a1 d6 c7 3e 1f 37 32 3f 01 21 10 3f
       0.33078426 0.39030936 0.6961536 0.5630036
0000a0 41 32 05 3f 87 26 02 3f f0 6b a1 3e ff a5 0b 3f
       0.52029806 0.5084004 0.31527662 0.54550165
0000b0 e3 08 ff 3e 10 9d b9 3e 1f 3a 26 3f a6 ad fd 3e
       0.49811468 0.36252642 0.64932436 0.49546546
0000c0 6b 5e 0d 3f dc 31 01 3f fa 67 8b 3e c8 b7 03 3f
       0.55222195 0.50466704 0.27227765 0.514523
0000d0 ec 58 ed 3e 59 30 b5 3e 40 2f 32 3f dc 9c 35 3f
       0.46356905 0.3538845 0.6960335 0.70942473
0000e0 93 ac e3 3e 3d 77 04 3f b6 f4 b7 3e ee fc c7 3e
       0.444676 0.51744443 0.35928887 0.39060158
0000f0 9d dc 24 3f a0 e9 34 3f 46 e9 d9 3e c8 a1 ec 3e
       0.6439913 0.70668983 0.42560786 0.4621718
000100 0a 4f 26 3f 5e df 0d 3f 1a 54 d5 3e ac 39 b7 3e
       0.64964354 0.55418956 0.41665727 0.35786188
000110 b0 30 20 3f 0f c7 16 3f d6 26 00 3f 81 83 0e 3f
       0.6257429 0.5889749 0.5005926 0.5566941
000120 cf e8 14 3f f9 f4 df 3e 46 9e 2b 3f e1 2f fa 3e
       0.5816774 0.43741587 0.6703838 0.48864654
000130 46 3f f8 3e a8 ff 1e 3f 88 c1 f5 3e db 8d 01 3f
       0.48485774 0.6210885 0.47999215 0.5060708
000140 4a c5 87 3e c8 78 9f 3e 79 7d e2 3e b3 e5 0a 3f
       0.26517707 0.31146836 0.44236353 0.54256743
000150 da d3 f0 3e 07 11 e1 3e 90 a3 1d 3f 7c c4 ad 3e
       0.4703663 0.43958303 0.615777 0.33938968
000160 45 0f f0 3e 48 9c 02 3f 87 a6 e6 3e 76 ba f8 3e
       0.4688665 0.51019716 0.45048925 0.48579758
000170 22 22 2f 3f 5f 46 14 3f da c1 fe 3e 5c 4c b2 3e
       0.6841146 0.5791988 0.49757272 0.34823883
000180 9e 3b a8 3e 22 65 22 3f 13 72 10 3f 1d 85 a7 3e
       0.32857984 0.63435566 0.56424063 0.32718745
000190 ca 16 24 3f 0f 19 fc 3e 4c 68 15 3f 13 cf ba 3e
       0.64097273 0.49237868 0.5836227 0.3648611
0001a0 76 18 06 3f 74 83 e4 3e 03 67 19 3f a7 50 f9 3e
       0.52381074 0.4463154 0.5992281 0.48694345
0001b0 99 b2 08 3f 09 2e 28 3f 8d 26 ae 3e 51 81 ea 3e
       0.5339752 0.65695244 0.34013787 0.45801786
0001c0 e9 6b f2 3e 1f 7b 02 3f c9 74 f7 3e cb 58 35 3f
       0.47347954 0.5096912 0.48331288 0.7083861
0001d0 66 a2 14 3f c3 da cf 3e 64 b7 1e 3f ff c8 03 3f
       0.580603 0.4059659 0.6199858 0.5147857
0001e0 16 84 f9 3e be 79 45 3f df 4a c9 3e 7e 13 26 3f
       0.48733586 0.7713889 0.39314935 0.6487349
0001f0 e2 03 c8 3e a0 3d bb 3e 40 06 0c 3f 27 5b ff 3e
       0.39065462 0.36570454 0.54697037 0.4987423
000200 48 30 ee 3e a2 cf 2c 3f dc 96 c7 3e 76 67 0a 3f
       0.4652121 0.6750432 0.38982284 0.5406412
000210 f1 f4 a9 3e ae 29 0d 3f 31 d8 02 3f 51 69 0f 3f
       0.33194688 0.55141723 0.5111113 0.56020075
000220 94 26 1a 3f 50 b1 1c 3f b7 b6 bb 3e ab b3 00 3f
       0.60215116 0.6120806 0.36662838 0.5027415
000230 d9 7b b0 3e 84 dc 8d 3e 8f 9c a3 3e c7 62 b4 3e
       0.34469488 0.27707303 0.31955382 0.3523161
000240 1d dd 09 3f 99 7d 24 3f 41 43 00 3f 97 f8 17 3f
       0.5385302 0.64254147 0.5010262 0.59363693
000250 66 e3 e5 3e aa 4a 18 3f e8 3f ac 3e d8 9b 08 3f
       0.44900054 0.5948893 0.33642507 0.533628
000260 0b 0b 21 3f fa fa 1e 3f 98 82 23 3f 0b 69 95 3e
       0.62907475 0.6210171 0.63871145 0.29181704
000270 33 b1 f0 3e cb 44 af 3e be fb 1c 3f 29 78 08 3f
       0.47010192 0.34232172 0.6132163 0.5330835
000280 5e bc f5 3e 59 ba e6 3e 1f 28 19 3f 42 c2 ba 3e
       0.47995275 0.45064047 0.59826845 0.36476332
000290 d9 5f 16 3f 4b a9 db 3e ec aa 32 3f 77 35 18 3f
       0.5874 0.42902598 0.69792056 0.5945658
0002a0 58 71 32 3f 7e 27 3b 3f 0a 36 97 3e 28 27 b2 3e
       0.697042 0.73107135 0.29533416 0.347955
0002b0 ce c9 da 3e 29 11 08 3f 34 a0 2b 3f 74 c9 fb 3e
       0.4273209 0.53151184 0.67041326 0.49177134
0002c0 02 3b 0f 3f 4d 33 f2 3e 30 bf 28 3f 5c 28 3e 3f
       0.55949414 0.47304764 0.6591673 0.74280334
0002d0 05 88 ca 3e 35 c7 2d 3f a4 5a fc 3e 42 a6 1e 3f
       0.395569 0.6788209 0.49287903 0.6197244
0002e0 0b c1 f0 3e f5 bc cc 3e 42 7e 8a 3e 6e c6 0e 3f
       0.4702228 0.39987913 0.27049452 0.5577153
0002f0 7b 15 0b 3f 78 05 d7 3e fb d3 16 3f 7b 87 d6 3e
       0.5432965 0.4199636 0.58917207 0.41900238
000300 94 b4 8e 3e 11 94 c3 3e ca 5c da 3e ce 19 e2 3e
       0.27872145 0.38198903 0.42648917 0.44160312
000310 d6 64 1e 3f 75 ac 1f 3f 26 18 e1 3e b5 24 c3 3e
       0.61872613 0.62372524 0.43963736 0.38113943
000320 8e f5 97 3e a4 27 5c 3e 4e 5c 13 3f 7a c0 ef 3e
       0.2967953 0.21499497 0.5756272 0.46826535
000330 5c c9 11 3f 46 08 06 3f c0 c6 1b 3f c8 78 b8 3e
       0.56947875 0.52356374 0.60850143 0.3602965
000340 4e dc b1 3e 8e f3 07 3f 5e c0 19 3f 59 d2 39 3f
       0.34738392 0.5310601 0.60059154 0.7258659
000350 20 a5 08 3f a7 6e bb 3e 5e 3b 28 3f 52 37 77 3e
       0.5337696 0.3660786 0.6571559 0.24142197
000360 00 32 f0 3e fd 1b 15 3f 1b 6c 27 3f 4a 58 0c 3f
       0.46913147 0.5824583 0.6539933 0.5482222
000370 72 10 18 3f c1 24 26 3f fb 68 8e 3e 4a cc c4 3e
       0.59400094 0.6489983 0.2781447 0.3843711
000380 ca 26 08 3f 67 58 e0 3e ec c9 06 3f c0 96 28 3f
       0.5318419 0.43817446 0.5265186 0.65855026
000390 bf 5f 2c 3f dd de d4 3e 86 b0 10 3f 62 66 9b 3e
       0.67333597 0.4157628 0.56519353 0.3035155
0003a0 8b d6 06 3f da f7 39 3f 3a 37 27 3f e1 02 dc 3e
       0.52671117 0.72643816 0.65318644 0.42970946
0003b0 72 65 0e 3f a5 ff 97 3e 80 b7 36 3f 30 cb 35 3f
       0.55623543 0.2968723 0.7137375 0.71013165
0003c0 1e 11 e4 3e 85 8e 1a 3f ef cd 13 3f 63 e6 2a 3f
       0.4454431 0.6037372 0.57736105 0.6675779
0003d0 8f 44 d3 3e 9a c7 bd 3e c7 d3 ea 3e 83 be ba 3e
       0.41263244 0.37066346 0.45864698 0.36473474
0003e0 71 7f 1c 3f 33 07 e6 3e a5 5a 31 3f 42 f0 c5 3e
       0.6113196 0.44927368 0.6927894 0.38659865
0003f0 a7 b6 d3 3e a9 8f d8 3e e3 65 16 3f a1 73 0b 3f
       0.4135029 0.42297104 0.58749217 0.5447331

lstm.weight_hh_l0 f4 [128, 32]
000000 f6 ad a7 3d 0a ed 73 bd e0 6b a2 bc a3 98 0b 3e
       0.08187477 -0.05955223 -0.01982683 0.13632445
000010 41 10 26 3e 56 48 f9 3d 72 63 e4 bd fc e4 37 3d
       0.16217138 0.12172 -0.1115178 0.04489611
000020 50 8b 7e 3c f3 4d 33 3e 8e 2f fe bd 40 a2 5d bd
       0.015536144 0.17510204 -0.12411414 -0.05410981
000030 80 39 f6 3a 4a b5 f3 3d 20 15 5c bc 2b f2 31 3e
       0.0018785447 0.118998125 -0.013432771 0.17377536
000040 2f cd 29 3e fa db 29 be 76 8d ea 3d 03 b4 25 3e
       0.16582178 -0.1658782 0.11452763 0.1618195
000050 33 ba b7 bd 27 a5 01 3e 1c de 82 3d c0 8a 38 3c
       -0.089710616 0.12660657 0.0639002 0.011263549
000060 50 d0 24 bd 58 a9 28 be c2 17 de bd d8 0d be 3c
       -0.040237725 -0.1647085 -0.10844375 0.02319996
000070 80 bd cd ba 90 f0 30 3c 6a 55 ee bd fc 69 01 bd
       -0.0015696734 0.010799542 -0.11637385 -0.031595215
000080 c7 a3 0f 3e aa 70 1a be 37 e5 23 3e a4 de 05 be
       0.1402732 -0.1508204 0.16005407 -0.13073212
000090 00 53 15 3c 62 22 c5 3d 79 00 1a 3e 90 92 ff 3c
       0.009114027 0.096256986 0.15039243 0.031197816
0000a0 b3 c6 0e 3e 62 01 a9 3d a0 a0 f2 bc 00 1b 0a bc
       0.13942985 0.08252217 -0.029617608 -0.008429289
0000b0 40 ff 45 bd 00 b8 7d bc c7 d9 1f be 41 76 f8 bd
       -0.04833913 -0.015485764 -0.15610419 -0.1213193
0000c0 18 bb 8b bd ad 01 1a be a6 b9 cd 3d 48 2d 68 3d
       -0.06822795 -0.15039702 0.10045175 0.05668381
0000d0 cd 9b f3 bd a1 b9 0c 3e bc 24 62 3d 80 5b be bc
       -0.11894951 0.13742687 0.055210814 -0.02323699
0000e0 e4 78 96 bd 1d 40 20 be 3d 43 2b be 16 6c 77 bd
       -0.07347277 -0.15649457 -0.16724868 -0.060405813
0000f0 e4 fb 2f 3d 5c 70 19 be 00 1f 54 3a 96 f6 ff 3d
       0.04296483 -0.14984268 0.00080917776 0.124982044
000100 0e b6 fc 3d 9f 50 04 3e 72 b7 cd 3d be b8 89 3d
       0.12339412 0.1292138 0.10044755 0.0672469
000110 3b 13 f9 bd a2 3d ec 3d 73 6e ec bd 25 bf 2b 3e
       -0.12161871 0.11535193 -0.11544504 0.16772135
000120 28 9e 63 3d 7e 42 89 3d 22 6f 06 be de a8 2c be
       0.05557075 0.067021355 -0.13128331 -0.16861293
000130 cc e6 59 3d f0 bc 1c be 90 03 52 bc 30 b2 0b 3d
       0.05319862 -0.15306449 -0.012818232 0.03410548
000140 54 93 17 bd 5e 00 76 bd 56 75 8d 3d 76 38 af 3d
       -0.037005737 -0.060058944 0.06907146 0.08555691
000150 42 2b c6 3d ac 3b f8 bd 5e 98 13 be 5b 7d 19 3e
       0.096762195 -0.121207565 -0.14413592 0.14989226
000160 3a d3 da 3d f8 66 bc bc 9c c7 01 bd 1a d4 26 be
       0.106848195 -0.022998318 -0.031684503 -0.16291848
000170 1c f8 45 bd 68 9e 05 3d 66 4f 90 3d 13 91 14 3e
       -0.04833232 0.03262177 0.07046394 0.14508466
000180 d2 79 97 3d 85 a4 0a 3e 16 ab c8 bd f9 2b 26 be
       0.07396282 0.13539322 -0.09798257 -0.16227712
000190 5e fb 29 be f8 b6 07 bd 98 5e 58 3d 2b 1e 24 3e
       -0.16599795 -0.033133477 0.052824587 0.16027133
0001a0 15 09 13 3e f1 a0 1b 3e 21 27 2a be 6a f5 ee 3d
       0.14358933 0.15198113 -0.16616489 0.11667903
0001b0 bf ba ac bd 34 7c 36 3d 95 ab 8d bd e5 ff 15 3e
       -0.084340565 0.044552043 -0.06917492 0.14648397
0001c0 7b 11 32 3e a6 c1 ee bd f0 90 62 3c 81 5e 05 3e
       0.17389481 -0.11658029 0.013828501 0.13024332
0001d0 58 e0 44 bd 97 78 e0 bd c0 ef 6b 3c cc 4e 73 3d
       -0.048065513 -0.10960501 0.014400423 0.05940132
0001e0 38 95 34 3d 76 b0 05 be cb df e0 bd 10 c9 a2 3c
       0.04408762 -0.13055596 -0.10980185 0.019871265
0001f0 40 7b 55 bc 1c b5 24 bd a6 32 eb 3d ec 62 53 bd
       -0.013029873 -0.04021178 0.1148427 -0.05160801
000200 d1 c9 2b be 77 db ad bd c6 ad ea 3d f4 37 62 bd
       -0.16776206 -0.08489125 0.11458926 -0.055229142
000210 d8 6e 81 bc 9b 51 aa bd 50 40 36 bc 80 ba fa 3c
       -0.015799925 -0.08316346 -0.011123732 0.030606508
000220 6f e6 05 3e 4a a2 f6 3d 5c 97 53 bd a6 d4 d8 3d
       0.13076185 0.12042673 -0.05165802 0.105874345
000230 dd 67 08 3e f5 85 0a be 98 e6 ff bd c0 06 13 be
       0.1332087 -0.13527663 -0.12495154 -0.14358044
000240 48 19 e4 3c 00 f9 1a 3a fe c8 d6 3d 00 48 9e 39
       0.027844086 0.00059117377 0.10487555 0.00030189753
000250 f8 6f da bd ec 23 ef bd f7 a1 12 3e 58 ae e6 3c
       -0.106658876 -0.116767734 0.14319597 0.028159305
000260 96 8f 94 3d b1 36 30 3e 6e 68 c1 3d 9e f1 89 3d
       0.07253949 0.17208363 0.094437465 0.06735538
000270 4e 17 b0 3d 4c 59 00 be 8e 46 67 bd 10 19 8c 3c
       0.08598195 -0.12534064 -0.05646377 0.017101794
000280 ed 73 1b be bc 28 4b bd f8 9c 5d 3d f0 c2 29 bd
       -0.15180941 -0.049599394 0.054104775 -0.041445673
000290 63 03 b8 bd b2 d6 ce 3d 60 47 00 bc 24 25 79 3d
       -0.08985021 0.10099544 -0.007829517 0.060826436
0002a0 f7 b7 1b 3e ae 8c 76 bd 66 4e 16 be 18 30 50 3d
       0.15206896 -0.060192756 -0.14678344 0.050827116
0002b0 8e 54 e9 3d e6 87 e3 3d 9a f7 88 bd 80 2e 16 bb
       0.11393081 0.11109905 -0.06687851 -0.00229159
0002c0 2c 61 6a 3d ae a7 06 be 04 8c 0c 3d f6 90 b1 3d
       0.057221577 -0.13149902 0.034313217 0.08670227
0002d0 e9 bd 32 3e 38 de 82 3d 38 f5 66 bd 6a 11 f6 bd
       0.17455257 0.06390041 -0.056386203 -0.1201504
0002e0 fa dc d2 3d fe f8 bf bd 61 9e 2b 3e 6b 0b 2f 3e
       0.10296054 -0.09373663 0.16759636 0.170942
0002f0 fc a5 c5 bd 3d e9 95 bd 28 b1 4a 3d 92 f6 11 be
       -0.096508 -0.07319877 0.049485356 -0.14254215
000300 a6 ae fe bd 88 76 a2 3c 7e 15 8f 3d 48 ad 32 bd
       -0.12435655 0.01983191 0.06986521 -0.043622285
000310 8f 9d 2f 3e d8 67 f9 3c 5b 0d 02 3e d6 0e e5 3d
       0.17149948 0.030445024 0.12700407 0.1118447
000320 ba ac e8 3d 6c 50 14 bd 00 f9 f7 3b 47 40 31 3e
       0.1136107 -0.03620951 0.007567525 0.17309676
000330 38 83 ed bd 3f 44 0c 3e 2c b4 0d 3d 7d 82 e2 bd
       -0.115972936 0.13697909 0.034595653 -0.11060045
000340 9e 18 b5 3d a8 05 e7 3c ae da a6 3d da 33 a3 3d
       0.08842586 0.02820094 0.081471786 0.07968874
000350 a0 45 29 bd 86 a6 c8 bd db f4 0f 3e 3c 01 87 bd
       -0.041326165 -0.09797387 0.14058249 -0.06592032
000360 d7 c5 0f be 85 da 10 be 1e 65 0f be 89 2a 0f 3e
       -0.14040314 -0.14145859 -0.14003417 0.1398107
000370 b0 fb 73 bd 32 60 b7 3d 74 16 6a 3d 92 29 90 bd
       -0.0595662 0.08953895 0.05715032 -0.07039179
000380 2a b5 ad 3d 52 8f de 3d a4 2d 51 3d 3c 8b 6f 3d
       0.0848182 0.1086718 0.051068917 0.058482394
000390 6c c7 4b 3d 32 3a 0c be b4 1c f4 bd cb b4 1f be
       0.04975073 -0.13694075 -0.11919537 -0.15596311
0003a0 2b 95 29 be 76 3f a7 3d e0 39 2d 3c b4 9e e5 bd
       -0.1656081 0.08166401 0.0105728805 -0.11211911
0003b0 81 d2 31 3e 15 2f 8a bd 52 40 d1 3d a0 20 9c 3b
       0.17365457 -0.067472614 0.10217346 0.0047646314
0003c0 8d aa e6 bd ec fc 29 bd 40 e6 0a 3d 5e 54 a2 3d
       -0.11262999 -0.04150097 0.03391099 0.07926248
0003d0 bf a5 1d 3e a0 6f 66 bc 0e 8f 80 3d 08 b1 b9 3c
       0.15395258 -0.014064699 0.062772855 0.022667423
0003e0 e2 51 07 be d0 74 64 3c e9 92 89 bd 82 ff a6 3d
       -0.1321483 0.013943866 -0.06717474 0.08154203
0003f0 62 6d fb 3d 44 47 23 3d c0 32 54 3c 88 69 85 bd
       0.122767225 0.039862886 0.012951553 -0.06514269

lstm.bias_ih_l0 f4 [128]
000000 89 0e 46 3f db 9e 3f 3f 53 1b d6 3e 28 53 27 3f
       0.7736593 0.7485177 0.41817722 0.6536126
000010 5c 9a 39 3f 60 e8 e4 3e bb 34 23 3f 4d 0c 40 3f
       0.7250116 0.44708538 0.63752335 0.7501877
000020 69 79 e6 3e 3e 9c 27 3f 0c 67 35 3f 9f 98 2e 3f
       0.45014504 0.6547278 0.7086036 0.6820163
000030 91 ad 10 3f 08 a6 0d 3f 62 ed 1f 3f 7c c9 21 3f
       0.5651484 0.5533147 0.6247159 0.63198066
000040 a9 f2 3d 3f 37 01 1a 3f 5a b9 f5 3e cc 03 30 3f
       0.74198395 0.60158104 0.47992975 0.68755794
000050 43 8a fe 3e ce dc 36 3f fb 91 4f 3f f7 2b d4 3e
       0.4971486 0.7143067 0.81082124 0.41439793
000060 30 ba 1c 3f 0c a4 02 3f 59 51 42 3f ef 45 1f 3f
       0.612216 0.51031566 0.75905377 0.62216085
000070 b7 9c 14 3f fe 92 15 3f 6d f9 04 3f 79 ad fa 3e
       0.5805163 0.5842742 0.51943094 0.48960474
000080 60 64 89 3b 30 8a 3e bd 68 1c 4d 3d a0 ce ef 3b
       0.004192874 -0.046518505 0.05007592 0.007318333
000090 8a 57 9a 3d e8 39 32 3d 5a c6 00 be 33 c5 08 be
       0.07536228 0.043512255 -0.12575665 -0.13356476
0000a0 64 b1 34 be 2e 21 fe bd b5 88 12 3e 00 54 86 ba
       -0.17645794 -0.12408672 0.14309962 -0.0010248423
0000b0 48 da fc bc 80 82 0c 3d 12 02 f2 3d 3c 42 38 3d
       -0.030865803 0.034304142 0.11816801 0.04498504
0000c0 e8 3a 24 be 28 e5 c6 bc 10 cb ca bd 00 50 e7 b8
       -0.16038096 -0.024279192 -0.09902012 -0.000110298395
0000d0 d9 fe 09 3e 3c 2e 12 bd 20 22 02 3c 9a 98 f8 3d
       0.13476123 -0.035688624 0.007942706 0.121384814
0000e0 f9 13 2b 3e a2 06 cc 3d 73 0c b3 bd da fe cc 3d
       0.16706838 0.099622026 -0.08742609 0.100095466
0000f0 02 29 e4 bd 3a fa a1 3d 28 c7 ba bd 80 44 62 3d
       -0.11140634 0.07909055 -0.09120017 0.055241108
000100 a7 8c d3 3e 4c 16 15 bf 0b e5 08 bf 8b 8a 0f 3f
       0.41318247 -0.5823715 -0.5347449 0.56070775
000110 a1 2e 95 3e c5 c4 dc 3e 89 69 b7 3e 5e 4a 10 3f
       0.29137138 0.43118873 0.35822704 0.56363475
000120 54 11 dd be 6f b8 0e 3f 4c 20 e1 be 47 a8 11 3f
       -0.43177283 0.55750173 -0.43969953 0.56897396
000130 86 c2 15 3f 06 9d 94 3e ca 4a e2 3e bd 94 17 bf
       0.58499944 0.2902605 0.44197685 -0.5921133
000140 fe b7 c9 be 49 56 80 be 26 ec 13 3f 62 46 ce be
       -0.39398187 -0.2506583 0.5778221 -0.40288073
000150 a3 98 0b 3f db 2b 08 3f 47 2e 24 bf 45 1f b9 be
       0.5452978 0.5319192 -0.64133114 -0.3615667
000160 a1 87 23 3f 30 5f db be 90 bd 04 bf 46 55 e5 3e
       0.6387883 -0.4284606 -0.5185175 0.4479162
000170 c0 4f 12 bf 59 c2 0d bf 23 49 cd 3e 40 dc 00 3f
       -0.5715294 -0.55374676 0.4009486 0.50336075
000180 e8 fa 2d 3f 41 7c 11 3f 3d c0 2b 3f 2d 65 4e 3f
       0.6796098 0.5683022 0.6709021 0.8062313
000190 80 15 20 3f 62 56 4b 3f 4f 35 17 3f f3 5d 4d 3f
       0.62532806 0.79428685 0.5906572 0.8022148
0001a0 47 5c f0 3e 6c 68 42 3f 01 fa 2d 3f 55 b7 3c 3f
       0.46945402 0.75940585 0.679596 0.7371724
0001b0 83 6d 3f 3f cd 12 08 3f e1 0c 11 3f d6 8e 30 3f
       0.74776477 0.5315369 0.56660277 0.6896795
0001c0 3d 1d 2c 3f d0 cf 34 3f e4 28 1f 3f 4e b2 10 3f
       0.67232114 0.70629597 0.6217177 0.5652207
0001d0 48 30 30 3f 64 ed 19 3f 30 34 89 3f 5a af 0f 3f
       0.6882367 0.60127854 1.0719051 0.5612694
0001e0 a7 8c 11 3f 82 fe 0d 3f 85 d8 45 3f e4 0a 47 3f
       0.56855243 0.55466473 0.7728351 0.7775099
0001f0 88 7f 4a 3f 5f 05 f2 3e b8 1f 05 3f 6b 72 33 3f
       0.7910085 0.47269723 0.52001524 0.7009646

lstm.bias_hh_l0 f4 [128]
000000 75 f0 00 3f a6 7f fa 3e fb e5 08 3f b9 11 ef 3e
       0.5036691 0.48925513 0.5347592 0.4669321
000010 5c 7d 2b 3f ea 05 e7 3e ac 96 10 3f 84 86 e6 3e
       0.6698816 0.451217 0.5647991 0.45024502
000020 72 c6 18 3f 58 68 03 3f 9f a0 0a 3f 57 3d 5a 3f
       0.59677804 0.5133109 0.5415134 0.8524985
000030 b7 c0 23 3f 32 da 13 3f 86 4a 1b 3f 1c 62 46 3f
       0.63965935 0.57754815 0.6066059 0.77493453
000040 6f 48 2e 3f 6b 1b 0a 3f e7 63 09 3f ca fc 16 3f
       0.68079275 0.53948087 0.53668064 0.58979475
000050 0d 2a ef 3e 7c 44 e9 3e 79 b6 63 3f 8b af 30 3f
       0.4671177 0.45560062 0.88950306 0.6901786
000060 db 13 d6 3e a1 9c 27 3f 47 c3 18 3f 06 03 fc 3e
       0.41812024 0.6547337 0.5967297 0.49221057
000070 2d 1b 39 3f 46 90 08 3f df 14 40 3f f6 e0 1c 3f
       0.7230709 0.53345144 0.75031847 0.61280763
000080 32 24 9a 3d 4a e7 cd 3d 68 c5 40 3d 2e 11 b2 3d
       0.07526435 0.100538805 0.04706326 0.08694683
000090 a7 58 06 3e cb 2a 05 3e c5 6f 25 3e 40 63 12 3d
       0.13119756 0.13004605 0.16155918 0.035739183
0000a0 d6 b1 f2 bd 79 17 f5 bd de 68 b1 3d 00 73 7e ba
       -0.11850326 -0.11967368 0.0866258 -0.00097064674
0000b0 1c 55 1f be cf 1c 17 3e 16 30 9a 3d fd b3 19 be
       -0.1555981 0.14757083 0.07528703 -0.15010066
0000c0 70 ef 7c bc 98 a5 e4 3c a0 f9 12 be c8 90 d5 3c
       -0.015437946 0.027910993 -0.14353037 0.026070014
0000d0 8e c7 28 be 6c b6 4d 3d 55 b2 0d 3e 7c 73 06 be
       -0.16482374 0.0502228 0.1383756 -0.13129991
0000e0 3a 75 63 bd aa 82 0d be b0 9e e0 3c 55 6d e8 bd
       -0.055531718 -0.13819376 0.027419418 -0.113489784
0000f0 4d 6c 22 3e a8 8a 2c be 11 0e 19 be b6 ce 80 3d
       0.15861626 -0.16849768 -0.14946772 0.06289427
000100 ab 4c 0a 3f a2 ac 16 bf 30 2a d0 be 31 2c 25 3f
       0.54023236 -0.58857167 -0.40657187 0.64520556
000110 20 48 c8 3e 96 e9 17 3f 1c dc 09 3f 67 07 c7 3e
       0.39117527 0.593408 0.53851485 0.38872835
000120 62 4e ee be f2 21 ca 3e 5f f0 be be fc 9c 19 3f
       -0.46544176 0.39479023 -0.37292764 0.60005164
000130 71 8a ae 3e 7c e7 d1 3e 1b b0 bd 3e b7 ae 15 bf
       0.34089997 0.4099692 0.3704842 -0.5846972
000140 6f 46 02 bf 76 2a 15 bf a5 f1 12 3f c3 a0 e3 be
       -0.50888723 -0.58267915 0.5739997 -0.4445859
000150 69 60 e0 3e c1 66 ea 3e d7 94 0f bf 25 8c fd be
       0.43823555 0.4578152 -0.56086487 -0.49520984
000160 5b 84 07 3f 1c c1 a2 be 83 03 90 be 55 8e fe 3e
       0.52936333 -0.31787956 -0.2812768 0.49717966
000170 94 f6 08 bf db 9b 0a bf c5 20 bf 3e 3d b2 10 3f
       -0.5350125 -0.54144067 0.3732969 0.5652197
000180 ae 34 0c 3f e9 0f 01 3f 03 a1 37 3f 8a c1 13 3f
       0.5476788 0.504149 0.7173006 0.5771719
000190 38 24 f2 3e e7 1d fd 3e 34 60 11 3f 32 27 06 3f
       0.47293258 0.49436876 0.5678742 0.5240356
0001a0 72 00 0f 3f 6c 6f 31 3f 0d 94 f0 3e cb 1b 36 3f
       0.55860054 0.6931064 0.46987954 0.7113616
0001b0 53 3d 3f 3f 94 e2 38 3f 58 d8 2e 3f 6a 9c 28 3f
       0.7470295 0.7222073 0.68298864 0.6586367
0001c0 1f fb 10 3f 8c 25 15 3f ec fb 3c 3f af 90 09 3f
       0.5663318 0.58260417 0.738219 0.53736395
0001d0 cc 02 f4 3e 28 64 2a 3f 07 64 84 3f ba 53 fc 3e
       0.47658384 0.66559076 1.0343026 0.49282628
0001e0 1a 42 f4 3e df 52 40 3f 4d 28 eb 3e cf da 0e 3f
       0.4770668 0.7512645 0.45929185 0.55802625
0001f0 2a 45 54 3f 2d b0 3d 3f a3 2f 10 3f c5 7b 53 3f
       0.82918036 0.7409695 0.5632269 0.8261073

lstm.weight_ih_l1 f4 [128, 32]
000000 2e c0 33 3f 8a 5a 32 bf f6 74 13 bf 42 aa 87 3f
       0.7021512 -0.696694 -0.57600343 1.0598834
000010 67 9e 15 3f b9 80 49 3f 59 f1 13 3f ff 3a 61 3f
       0.5844483 0.7871204 0.5779014 0.87980646
000020 d5 9e 0c bf c2 9c 2d 3f 56 77 32 bf bd dc a3 3f
       -0.5492986 0.6781732 -0.6971334 1.2801739
000030 4e 77 31 3f 62 6e 47 3f 3e 14 8b 3f f6 f1 2c bf
       0.6932267 0.77902806 1.0865552 -0.67556703
000040 11 6b 4f bf 4c ff 46 bf fe 36 1c 3f 57 9a 1d bf
       -0.81022745 -0.777333 0.6102141 -0.6156363
000050 74 24 47 3f 84 a9 00 3f 7e 3a db bf 3d b5 39 bf
       0.7779 0.5025866 -1.7127225 -0.7254217
000060 ea 48 2c 3f 2e bd 4e bf 6f fa 15 bf 9b 50 44 3f
       0.6729876 -0.80757415 -0.58585256 0.76685494
000070 d9 f0 a1 bf 41 7c 36 bf 98 f5 41 3f f2 e7 2c 3f
       -1.2651626 -0.71283346 0.7576537 0.6754142
000080 18 7b 25 3f c4 44 15 bf 22 d0 02 bf e8 c0 63 3f
       0.6464095 -0.58308053 -0.51098835 0.88966227
000090 a0 7a 25 3f 69 07 2b 3f b1 d3 2d 3f 0b 9c 35 3f
       0.64640236 0.6680818 0.6790114 0.7094123
0000a0 31 52 23 bf f3 d5 5e 3f 51 b7 38 bf d0 10 b6 3f
       -0.6379729 0.8704521 -0.7215472 1.4223881
0000b0 b2 ef 2b 3f 90 3d 27 3f 3f 54 68 3f 3d 77 61 bf
       0.6716262 0.6532831 0.9075355 -0.8807257
0000c0 d1 f9 f8 be f7 f5 22 bf b4 c1 47 3f 9b b0 12 bf
       -0.48628095 -0.6365656 0.7802994 -0.5730073
0000d0 a6 c6 1c 3f a0 8f 33 3f 1b 25 27 c0 59 8d 0f bf
       0.61240613 0.7014103 -2.6116397 -0.56075054
0000e0 08 63 47 3f d6 75 41 bf db a9 43 bf c4 1b 1b 3f
       0.77885485 -0.7557043 -0.76431054 0.6058924
0000f0 c6 61 93 bf 1c 82 11 bf d4 ac 42 3f b0 dc 13 3f
       -1.1514213 -0.56839156 0.76044965 0.5775862
000100 4b ba 22 3f af e4 2f bf 97 e8 18 bf 0d 28 26 3f
       0.6356551 -0.6870832 -0.59729904 0.6490486
000110 c0 fa 11 3f 24 02 57 3f 35 7b 3f 3f 00 52 51 3f
       0.5702324 0.8398764 0.74797374 0.8176575
000120 49 ef 07 bf 7c f0 28 3f 1c 54 01 bf a9 a4 df 3f
       -0.53099495 0.6599195 -0.50518966 1.7472125
000130 1a af 17 3f 54 37 2a 3f 9b 33 39 3f 12 77 22 bf
       0.5925156 0.66490674 0.7234437 -0.63462937
000140 7b ad 30 bf c4 3b 3b bf 67 92 19 3f ae 65 3c bf
       -0.6901471 -0.7313807 0.5998902 -0.7359265
000150 23 3f 3d 3f c1 d1 2d 3f 2b e7 30 c0 73 7c 0e bf
       0.73924464 0.67898184 -2.7641094 -0.55658644
000160 3c b4 33 3f 26 00 2c bf 51 95 10 bf dd 4e 46 3f
       0.7019689 -0.67187726 -0.5647784 0.77464086
000170 b0 3a 9c bf 13 79 31 bf 32 e0 2a 3f 07 a5 00 3f
       -1.220541 -0.6932537 0.66748345 0.5025181
000180 4e 08 43 3f ba 77 48 bf 8c 1f 19 bf 98 68 80 3f
       0.76184547 -0.7830769 -0.5981376 1.003192
000190 a2 8d 3d 3f 48 1c 52 3f 0e 89 1b 3f 78 ca 1d 3f
       0.7404424 0.82074404 0.60756004 0.6163707
0001a0 37 57 33 bf 2a 1e 38 3f e4 a5 56 bf 33 94 c7 3f
       -0.70054954 0.71921027 -0.8384688 1.5592102
0001b0 71 a5 0d 3f 1d d5 55 3f d8 40 62 3f b1 73 48 bf
       0.5533057 0.8352831 0.88380194 -0.7830153
0001c0 43 92 17 bf 27 dd f1 be c4 30 2c 3f 87 e2 2d bf
       -0.5920755 -0.47239038 0.6726191 -0.6792378
0001d0 eb 9a 20 3f be 64 30 3f 3e b8 eb bf a4 7d 05 bf
       0.62736386 0.6890372 -1.8415601 -0.5214484
0001e0 35 46 3a 3f fb 2a 1f bf 25 56 19 bf be 2e 4d 3f
       0.7276338 -0.6217496 -0.5989707 0.8014945
0001f0 a4 9c aa bf 77 65 04 bf a3 0b 44 3f ce cb 2f 3f
       -1.3329053 -0.51717323 0.76580256 0.68670356
000200 88 78 0e 3f 2b 01 46 bf 1a 64 4e bf 46 69 72 3f
       0.55652666 -0.7734553 -0.8062149 0.94691885
000210 c2 93 1d 3f 45 7c 29 3f 59 17 0f 3f 1d f0 4b 3f
       0.61553586 0.66205245 0.55895 0.7966326
000220 2f b3 2b bf f5 90 1c 3f 25 79 2c bf b8 03 b8 3f
       -0.6707029 0.61158687 -0.6737235 1.4376135
000230 9d 45 17 3f a7 d5 5a 3f 9b 9b 65 3f 1c 57 3e bf
       0.59090596 0.8548226 0.8969056 -0.7435167
000240 f1 f7 43 bf 03 d3 09 bf 80 76 24 3f bf 2a 3c bf
       -0.76550204 -0.53837603 0.64243317 -0.73502725
000250 f7 a4 23 3f 63 0a 31 3f 0f c2 1a c0 2b 43 41 bf
       0.6392359 0.69156474 -2.4180944 -0.75493115
000260 e1 46 0b 3f 7d 1b 1b bf 26 e9 fe be c3 e8 63 3f
       0.5440503 -0.6058882 -0.49787253 0.8902704
000270 65 05 91 bf 7c 5c 01 bf 51 f7 26 3f b3 8c 34 3f
       -1.1329771 -0.50531745 0.65221125 0.7052719
000280 de 8c 03 3f d6 15 18 bf bd 45 29 bf 2a e5 3a 3f
       0.5138682 -0.5940832 -0.6612204 0.73005927
000290 41 ff 03 3f 02 0b 67 3f d6 8a 34 3f 37 9d 2b 3f
       0.5156136 0.9025117 0.70524347 0.67036766
0002a0 72 e2 3e bf ac 3c 1d 3f ec fd 47 bf fd 30 ba 3f
       -0.7456428 0.614207 -0.7812183 1.45462
0002b0 d4 6f 00 3f 81 63 1f 3f 94 48 35 3f 08 f2 27 bf
       0.50170636 0.62261206 0.7081387 -0.65603685
0002c0 99 6e 29 bf d7 4e f1 be b2 24 48 3f e4 ff f3 be
       -0.66184384 -0.47130463 0.7818099 -0.47656167
0002d0 ec a7 65 3f b1 b3 20 3f 07 79 2a c0 98 3b 3c bf
       0.89709353 0.6277419 -2.663637 -0.7352843
0002e0 bd 25 48 3f 4d 0f 43 bf 22 e9 4c bf e1 10 3a 3f
       0.78182584 -0.7619522 -0.8004323 0.72682005
0002f0 f3 e1 a8 bf 45 8e 45 bf e5 f9 24 3f ee 01 38 3f
       -1.3193954 -0.7717021 0.6444381 0.71877944
000300 e8 65 5c 3f fd 0d 1b bf 4b bd 28 bf d2 f3 82 3f
       0.86092997 -0.6056822 -0.6591384 1.0230658
000310 37 52 35 3f 4f 2f 18 3f 8c 19 14 3f 6f 4b 30 3f
       0.70828575 0.5944719 0.5785148 0.688651
000320 c9 ab 42 bf b4 05 3b 3f 96 2f 4e bf 12 ad b7 3f
       -0.76043373 0.7305558 -0.8054136 1.4349692
000330 e6 13 2c 3f 36 93 48 3f f5 b8 5e 3f 10 c4 2d bf
       0.6721786 0.78349626 0.8700097 -0.6787729
000340 df c1 38 bf 61 9f 13 bf 32 90 2b 3f 7f 9d 3e bf
       -0.72170824 -0.5766507 0.670169 -0.7445907
000350 53 10 1d 3f d8 c4 26 3f 96 2a bc bf 5b d0 18 bf
       0.61353034 0.6514411 -1.4700496 -0.59692925
000360 9e 51 27 3f 36 8b 1d bf d3 91 40 bf e2 fa 74 3f
       0.6535891 -0.61540544 -0.7522251 0.95695317
000370 15 d5 a6 bf aa 04 1a bf 80 30 1f 3f 96 24 0d 3f
       -1.3033777 -0.60163367 0.6218338 0.5513395
000380 d1 e1 1f 3f 9a f2 15 bf e6 61 2e bf f0 d9 73 3f
       0.62453943 -0.58573306 -0.6811813 0.9525442
000390 b5 55 23 3f 9d a2 3c 3f f8 3c 1e 3f e3 de 6f 3f
       0.63802654 0.7368563 0.6181178 0.93699473
0003a0 d1 d5 23 bf c1 0a 13 3f 8a 9b 40 bf 16 ec 8f 3f
       -0.6399813 0.57438284 -0.75237334 1.1243923
0003b0 5c 42 42 3f 37 be 47 3f aa f2 66 3f d9 2d 5d bf
       0.75882506 0.7802462 0.90214026 -0.8639808
0003c0 89 e4 14 bf a5 2d 25 bf 25 71 3b 3f 65 e8 2f bf
       -0.58161217 -0.64522773 0.7321952 -0.6871398
0003d0 94 06 37 3f 9c ed 58 3f 51 59 80 bf 80 cb 60 bf
       0.7149441 0.84737563 -1.0027257 -0.87810516
0003e0 c4 2e 3c 3f 6e 07 62 bf 39 85 58 bf 5d 76 36 3f
       0.7350886 -0.88292587 -0.8457828 0.7127436
0003f0 0e 9f 82 bf ba c5 38 bf d7 b1 19 3f 96 15 19 3f
       -1.020479 -0.72176707 0.6003699 0.5979856

lstm.weight_hh_l1 f4 [128, 32]
000000 a5 2d 07 3e 22 a4 ef 3d a3 8c 0e 3e 1c fb ca bd
       0.13201006 0.11701228 0.13920836 -0.099111766
000010 50 a4 78 3c 57 96 22 3e c7 e0 07 3e 6a df 9f 3d
       0.015175894 0.15877663 0.1326934 0.07806285
000020 b8 3a f7 bd 4a 50 20 be 02 57 9f 3d 8d 39 2b 3e
       -0.120717466 -0.15655628 0.07780267 0.16721173
000030 a5 92 cf bd 07 a0 cc bd be 3f fc bd 60 85 83 3b
       -0.10135392 -0.0999146 -0.12316845 0.0040137023
000040 af 30 b2 bd 20 5f ef 3b 20 42 a2 bb 74 cd 88 3d
       -0.08700692 0.007305041 -0.0049517304 0.06679812
000050 ae 57 a8 3d 89 34 ca bd ed 35 29 3e 3e e9 a4 3d
       0.082198486 -0.098733015 0.16524477 0.080523
000060 c2 3c 82 bd 50 22 85 3d c6 d8 8b bd f2 05 a9 3d
       -0.06359245 0.06500685 -0.068284556 0.08253087
000070 98 99 bb 3c 30 e7 14 be 72 75 79 bd a3 bf 06 3e
       0.022900388 -0.14541316 -0.06090302 0.13159041
000080 1c f6 5c 3d 15 b7 c6 bd 08 98 f5 bc 01 bd 30 3e
       0.053945646 -0.09702889 -0.02997972 0.172596
000090 30 4b 01 be ec a2 02 3d a8 16 70 3d cf 06 11 3e
       -0.12626338 0.031893656 0.058615357 0.14162754
0000a0 50 61 98 3c fa a3 b2 bd 00 90 b0 3c 3e df 0e be
       0.01860109 -0.08722682 0.02155304 -0.13952348
0000b0 9a fb 83 3d 3f 40 15 3e 0c 87 a0 bd ec 9f 11 be
       0.064444736 0.14575289 -0.07838258 -0.14221162
0000c0 d2 88 92 3d 68 e1 a6 bc f4 17 8b bd d3 7f eb bd
       0.07155003 -0.020371154 -0.06791678 -0.1149899
0000d0 c0 2f 45 3c 80 04 a4 3c 2f ee 16 3e 23 8a 08 3e
       0.01203531 0.020021677 0.14739297 0.13333945
0000e0 6e 31 a6 3d 00 cc 0a 39 0a 52 cb 3d 42 27 ea 3d
       0.08114897 0.00013236701 0.09927757 0.11433269
0000f0 ba 30 97 bd c0 35 a6 bb c3 ac 31 3e ee 2a ac 3d
       -0.07382341 -0.0050723255 0.1735106 0.08406626
000100 fc 87 25 bd e4 8b 92 bd 80 44 bb 3c e5 36 07 3e
       -0.040412888 -0.07155588 0.022859812 0.13204534
000110 90 b8 23 bd be dc a7 3d 2e c8 ae bd 1c fc c3 bd
       -0.039970934 0.081964 -0.08534275 -0.095695704
000120 64 23 b9 bd c1 72 19 3e 58 87 f7 3c d8 30 9e 3c
       -0.09039953 0.14985181 0.030215904 0.0193104
000130 b9 52 2f be 82 d6 2b be 07 50 27 3e d8 60 3e bd
       -0.171214 -0.16781047 0.16339122 -0.046479076
000140 30 6f 9d 3c 7a 95 b4 3d 2e e9 bc 3d 8c 0d 11 be
       0.019218057 0.08817573 0.09224163 -0.14165324
000150 04 c6 07 bd 68 07 a1 bc b9 3e 89 bd 88 15 86 bc
       -0.033147827 -0.019656852 -0.067014165 -0.016367689
000160 d0 7e 06 3d 30 f2 0e 3c a0 fa 78 bd 2d 17 1c 3e
       0.03283578 0.008724734 -0.06078589 0.15243216
000170 f9 9e 16 3e 17 f2 1d be 9c ef 7f bd cc fc e4 bd
       0.14709081 -0.15424381 -0.06248437 -0.1118103
000180 8e 2b b9 3d e0 3e be bd 5a 5a a8 3d 54 66 25 bd
       0.090415105 -0.09289336 0.08220358 -0.04038079
000190 67 57 1c be 3b ac 01 3e f0 ac 6e 3c 6d 8e 26 3e
       -0.15267716 0.12663357 0.014567599 0.16265269
0001a0 c0 1a b9 bd b2 fd cc bd 36 8b 9b 3d 07 1f 82 bd
       -0.09038305 -0.10009326 0.07594912 -0.06353574
0001b0 1e d1 bc 3d 40 52 10 3c 0a cc 10 be d8 bc 88 bd
       0.092195734 0.008808672 -0.14140335 -0.06676644
0001c0 f0 0c ca bc b6 0f 97 3d ee 9a 98 bd 82 04 a1 3d
       -0.024664372 0.073760435 -0.074514255 0.07862188
0001d0 86 b0 b1 3d ea d6 33 be e6 c2 e8 3d c0 c6 83 3c
       0.08676247 -0.17562452 0.11365299 0.016085982
0001e0 af e8 bd bd 40 00 03 3b 6f 7b 2e 3e 80 88 7f bb
       -0.092728965 0.0019989163 0.17039274 -0.0038991272
0001f0 2e f4 eb 3d dc ec d2 bd e0 32 30 bc ce 40 e7 3d
       0.11521183 -0.102990836 -0.010754317 0.112916574
000200 7e 9e a0 3d 90 36 03 3c 12 78 b7 3d 11 89 1e 3e
       0.0784273 0.008008614 0.089584485 0.15481974
000210 2c 23 c3 bd 02 84 32 be 34 60 c5 bd 64 fd 24 3d
       -0.09528193 -0.1743317 -0.0963749 0.040280715
000220 f4 69 63 3d e3 54 e9 bd 4b 7f 1d be a3 dd 27 3e
       0.055520967 -0.11393144 -0.1538059 0.16393141
000230 f3 fc 06 be ee 2f b9 3d f3 b2 1d 3e 2d 98 d6 bd
       -0.1318243 0.09042345 0.15400295 -0.10478244
000240 bc 85 41 3d c4 b8 2f 3d 4a 4c fe 3d bc 74 74 3d
       0.04724668 0.042900816 0.12416895 0.05968164
000250 0c 7c 9f bd 0e 9b c3 3d 1e 89 ba bd db 63 30 3e
       -0.07787332 0.09551059 -0.09108184 0.17225592
000260 18 fa dc bc da 56 ad 3d 5d 46 e4 bd a4 22 bd bd
       -0.026974723 0.08463831 -0.11146233 -0.09235123
000270 62 58 a0 3d 80 e2 da bb 60 a8 69 bd 15 d4 05 3e
       0.07829358 -0.006679833 -0.05704534 0.13069184
000280 17 7d 22 3e c0 f1 42 bc d4 57 1f be 20 d4 83 bb
       0.1586803 -0.011898458 -0.15560848 -0.00402309
000290 40 a6 46 bd 9e ef 94 bd 0d 82 87 bd 8b 8c 94 bd
       -0.048498392 -0.07272266 -0.06616602 -0.07253369
0002a0 cf 2e a3 bd 31 68 11 3e c0 93 af bd 16 75 bb 3d
       -0.079679124 0.14199902 -0.08573103 0.09153192
0002b0 34 70 10 bd 53 a8 1b 3e f2 5a f1 bd 00 c7 2c 3b
       -0.035263255 0.1520093 -0.117849246 0.002636373
0002c0 f4 f9 f6 bd 00 92 e3 bb 77 c6 d0 bd a3 41 bc bd
       -0.120593935 -0.006944895 -0.10194104 -0.09192207
0002d0 07 fe 2d 3e 58 54 f4 bd 64 97 ef bd 17 60 14 3e
       0.16991435 -0.1193015 -0.11698797 0.1448978
0002e0 68 09 57 3d 44 ab 4c bd c9 8e 17 3e 63 fc 1f 3e
       0.052499205 -0.04996802 0.14800562 0.15623622
0002f0 d0 35 62 bc 9d 96 2e 3e 20 01 73 bc ec 6e 13 be
       -0.013806775 0.17049642 -0.014831811 -0.14397782
000300 6a 7a d6 3d 9d bc 00 3e db 9f a3 bd 80 d0 1b bc
       0.104725674 0.1257195 -0.079894744 -0.0095101595
000310 51 4e 05 3e e0 b6 6b 3d 8f fc 1c 3e bc e8 6a 3d
       0.13018157 0.05754745 0.15330718 0.05735086
000320 c0 e4 01 bc ac 59 60 3d 54 64 3f 3d 08 93 f4 3c
       -0.007928073 0.054773018 0.04672654 0.029855266
000330 a6 ea c8 3d 80 35 ce 3c c0 73 fc bb 92 e1 ad 3d
       0.09810381 0.025171995 -0.007704228 0.0849029
000340 10 d4 06 3c e0 7c 41 3d f8 60 11 be 0e 9d c1 3d
       0.008229271 0.04723823 -0.14197147 0.09453784
000350 a9 02 29 3e 33 d4 11 be 1c 45 23 3d ac 7a fc bd
       0.16504921 -0.14241104 0.03986083 -0.12328085
000360 ae 63 a3 3d 4a 58 bc 3d 1a 14 cc 3d 40 e6 8b 3d
       0.07977997 0.09196527 0.099647716 0.06831026
000370 80 5c bb 3a ef 8a b7 bd ca 25 a0 3d dd df c2 bd
       0.0014294535 -0.08962046 0.07819708 -0.09515355
000380 c6 8c ab 3d b0 72 dc bd ba 5b e2 3d c6 41 bf bd
       0.0837646 -0.107640624 0.11052652 -0.09338717
000390 f8 36 50 3d 1c 05 41 3d 3c b1 2d bd bd e0 0f be
       0.050833672 0.047124013 -0.042405352 -0.14050575
0003a0 70 54 5f 3d a8 be d2 bd a3 b8 27 3e 18 1a 28 be
       0.054523885 -0.10290271 0.16379027 -0.16416204
0003b0 cd ab a3 bd 72 52 93 3d e0 49 6d bc f2 1d ef bd
       -0.07991753 0.071934596 -0.014482945 -0.116756335
0003c0 00 95 24 bd 50 e7 e5 bc c2 9e 85 3d ee 1d f4 bd
       -0.04018116 -0.0280644 0.06524421 -0.11919771
0003d0 d0 3b 2a 3c 39 69 fb bd 4d b5 23 be 26 0d 21 be
       0.010390237 -0.12275929 -0.1598713 -0.15727672
0003e0 64 6d 3c bd 10 d4 3b 3d 45 02 da bd 70 c3 7c 3c
       -0.04600276 0.045856535 -0.10644964 0.015427455
0003f0 12 7f a4 3d b0 28 00 bc 6d f2 11 3e c3 53 22 3e
       0.08032049 -0.007822201 0.14252634 0.15852265

lstm.bias_ih_l1 f4 [128]
000000 67 77 00 3f c3 2e ff 3e d4 9b 19 3f 33 b8 0c 3f
       0.50182194 0.49840364 0.600034 0.54968566
000010 fb d1 fc 3e ee d8 dc 3e 94 da 27 3f 48 4b 2e 3f
       0.49378952 0.43134254 0.655679 0.6808362
000020 97 9e 03 3f e7 f6 c1 3e e0 0c 12 3f ac 20 ca 3e
       0.51413864 0.37883684 0.57050896 0.39478052
000030 69 dd 1a 3f 0b 26 10 3f b2 26 13 3f f8 14 ee 3e
       0.60494095 0.5630805 0.5748092 0.46500373
000040 97 ab af 3e 23 9e e9 3e 31 bb b1 3e 92 a7 b7 3e
       0.343106 0.4562846 0.34713128 0.35870034
000050 30 b2 04 3f 91 09 da 3e e5 7f 23 3f 6b cb c3 3e
       0.5183439 0.42585424 0.63867027 0.38241133
000060 02 00 11 3f c7 a3 0f 3f cc 9c 02 3f 07 ac 1e 3f
       0.56640637 0.5610928 0.51020503 0.6198124
000070 1e 50 0f 3f 0b 05 0e 3f 86 ca d1 3e 7b af b4 3e
       0.55981624 0.55476445 0.40974826 0.3529013
000080 e9 55 af bd 09 fd 97 bd 09 75 18 be 5b 29 e9 bd
       -0.08561308 -0.074213095 -0.14888395 -0.11384841
000090 ba f4 a7 3d 26 84 98 bd c0 17 a1 3b 4a a6 04 be
       0.08200975 -0.0744708 0.0049161613 -0.12954059
0000a0 82 3f e2 3d 90 30 55 3d c0 32 1a 3d f0 44 f8 bc
       0.110472694 0.052048266 0.037646055 -0.03030631
0000b0 d4 47 e9 bd 70 1e b9 3c 05 c4 0f 3e e1 1c 1e 3e
       -0.11390653 0.022597522 0.1403962 0.15440704
0000c0 a8 05 24 be 9a 40 9f 3d d1 67 f1 bd c8 14 2e 3d
       -0.16017783 0.07775994 -0.117873795 0.042500287
0000d0 84 61 7d 3d 3f 59 21 3e f7 63 db bd 95 c5 a8 bd
       0.061860576 0.15756701 -0.10712426 -0.08240811
0000e0 f6 0f af 3d c6 0f fd bd 71 25 02 be a0 b6 b0 bb
       0.08547966 -0.12356524 -0.12709595 -0.0053928643
0000f0 80 b1 35 3b ef 1a 00 3e 58 e9 64 3d 66 8f 22 be
       0.0027724206 0.12510274 0.055886596 -0.15875015
000100 f9 85 db 3d 8e fd cb be eb 1d 87 be e7 4a 4a 3e
       0.10718913 -0.39841884 -0.26390013 0.19755135
000110 ad 6d ae 3e 14 f9 25 3e 5c a5 59 bd dd 98 16 bd
       0.3406805 0.16208297 -0.053136215 -0.036766876
000120 6f d7 b3 3e 35 2f a1 3e 2a 85 be be 91 e6 69 be
       0.351253 0.3148133 -0.3721097 -0.2284186
000130 bd 0b 9a 3e 4b e9 fa bd 19 7b d6 3e b0 91 ce 3e
       0.3008708 -0.12251528 0.4189079 0.40345526
000140 4f 50 1c be 5c 3b ab 3d 7e 60 b3 be a5 e1 d5 be
       -0.1526501 0.08360931 -0.35034555 -0.41773716
000150 e9 fd b4 be bd e7 d5 bd 90 3a b7 be 0b ae 9b 3e
       -0.35349968 -0.10444591 -0.35786867 0.30406222
000160 3f d1 de be 4b 8b 14 3e c6 1b 17 3e 34 47 75 3e
       -0.43519017 0.14506261 0.14756688 0.23952943
000170 0b a7 d7 3d a2 66 93 be 01 76 db 3e 98 60 df 3e
       0.10529908 -0.2878924 0.42863467 0.43628383
000180 b4 e1 c4 3e 7d 39 14 3f 3f e8 bb 3e 8a 5e 00 3f
       0.38453448 0.5790022 0.36700627 0.50144255
000190 dc d5 08 3f 74 e0 1d 3f b1 c4 f6 3e b8 d5 0f 3f
       0.53451324 0.61670613 0.4819694 0.56185484
0001a0 9e a2 08 3f 61 41 04 3f 08 c6 dd 3e 07 54 27 3f
       0.53373134 0.5166226 0.43315148 0.6536259
0001b0 9d 49 28 3f a3 15 28 3f 74 26 18 3f 36 a5 1c 3f
       0.65737325 0.65658015 0.59433675 0.6118959
0001c0 b9 f2 b6 3e b2 d2 30 3f 95 54 d7 3e cc ff 21 3f
       0.35732058 0.69071496 0.42056718 0.6328094
0001d0 c4 d5 07 3f 8c 0c 28 3f f3 e4 fc 3e 9a 6f 1a 3f
       0.53060555 0.65644145 0.49393424 0.6032654
0001e0 51 8c 2d 3f 1e a4 00 3f 15 ad 0f 3f 31 11 db 3e
       0.6779223 0.5025042 0.5612348 0.42786554
0001f0 ac 6f 43 3f 2a 96 12 3f b7 bb 13 3f 1f 26 10 3f
       0.7634227 0.5726038 0.57708305 0.5630817

lstm.bias_hh_l1 f4 [128]
000000 7b 48 c1 3e 3f f9 c4 3e d6 8a c7 3e 62 e8 06 3f
       0.3775061 0.3847141 0.3897311 0.5269834
000010 f0 9d e3 3e 4d c4 b5 3e a8 f9 19 3f ee 2b 3c 3f
       0.44456434 0.35501328 0.6014657 0.7350453
000020 02 48 f4 3e 6d 7f 2d 3f 8d f2 de 3e 84 10 fb 3e
       0.47711188 0.6777256 0.43544427 0.49036038
000030 e6 85 13 3f 47 6b cd 3e fd c2 08 3f da 6f d5 3e
       0.5762619 0.4012091 0.5342253 0.41686898
000040 3d d7 f0 3e 92 2b c1 3e 1e a5 15 3f dd 12 03 3f
       0.47039214 0.37728554 0.58455074 0.5120066
000050 8b 23 fa 3e 48 85 0f 3f 2a f0 04 3f 5b ec 2e 3f
       0.48855242 0.56062746 0.5192896 0.683294
000060 c4 f9 00 3f 49 a2 fc 3e e2 2e aa 3e 39 4d f5 3e
       0.5038111 0.49342564 0.33238894 0.4791048
000070 f1 67 ea 3e 03 3c 13 3f e7 58 1e 3f 36 0f 23 3f
       0.45782426 0.57513446 0.61854404 0.63695085
000080 b7 9e 05 be 5f 64 1d 3e fb 53 1d 3e 10 a1 5b bc
       -0.13048826 0.1537032 0.15364067 -0.0134050995
000090 60 dc eb 3c 50 54 ef 3c f9 ff c8 bd 36 e7 b6 3d
       0.028791606 0.029215008 -0.09814448 0.08930819
0000a0 79 8e 80 bd 38 ac 11 be 3a 1e e5 3d 8a 8a a4 3d
       -0.062771745 -0.14225852 0.11187406 0.08034237
0000b0 c3 01 0d 3e 9a b2 07 be 25 72 1c 3e 33 6e 0e be
       0.13770203 -0.13251725 0.15277918 -0.13909225
0000c0 17 f6 29 3e 8a 9f b6 3d 04 8f 09 3d 7a 4b ff 3d
       0.16597782 0.089171484 0.033583656 0.12465568
0000d0 a0 6a 9d bc 80 a1 8c bd 93 0f 10 be 00 81 70 bd
       -0.019215882 -0.06866741 -0.14068441 -0.058716774
0000e0 d6 1a ee bd ce 35 06 be 85 30 04 3e 89 a0 25 3e
       -0.11626212 -0.13106462 0.12909134 0.1617452
0000f0 6b c0 32 3e a0 9a 84 bb 18 5a b2 bd f2 c0 c9 3d
       0.17456214 -0.004046753 -0.0870859 0.098512545
000100 f1 4b b1 3d 0e 43 a1 be e5 28 de be a8 b5 9b 3e
       0.08657063 -0.3149647 -0.43390575 0.3041203
000110 1f 9f 72 3e 8c 17 e0 3e 8c 9a 58 bd a9 10 70 bd
       0.23693512 0.43767965 -0.052881762 -0.05860964
000120 63 0d 81 3e 54 34 6b 3e ed 53 08 be 50 5e 82 be
       0.25205526 0.2296918 -0.13313265 -0.2546258
000130 d9 45 d3 3e b6 a6 47 bd 56 24 38 3e 94 00 bb 3d
       0.41264227 -0.048742972 0.17982611 0.0913097
000140 bb b1 ac be 0d 4a 6e 3e c3 96 c6 be c0 b0 60 be
       -0.33729348 0.23270436 -0.38786897 -0.21942425
000150 5f fb 9f be 76 b0 10 be d6 30 98 be 44 37 c4 3e
       -0.31246468 -0.14129815 -0.2972476 0.38323414
000160 a5 69 7b be c3 3d 27 3e b8 f0 40 3e 65 ac b8 3e
       -0.24552019 0.16332154 0.18841827 0.36069027
000170 e6 6c e1 3b 52 f7 a3 be 45 9e dc 3e 95 2f 4d 3e
       0.006879437 -0.32024628 0.430895 0.20037682
000180 ff 33 37 3f be 8f 13 3f 71 20 fd 3e 60 cc 05 3f
       0.71563715 0.5764121 0.49438813 0.52264977
000190 59 12 0b 3f f2 47 1b 3f b8 8b 1c 3f a2 66 36 3f
       0.5432487 0.60656655 0.61150694 0.71250355
0001a0 ba 01 20 3f 03 62 fd 3e 54 a4 c1 3e 5f ba b0 3e
       0.62502635 0.4948884 0.37820685 0.3451719
0001b0 d2 ca ec 3e 5f 09 c2 3e 0b 67 1c 3f 00 d6 ee 3e
       0.4624849 0.37897775 0.6109473 0.46647644
0001c0 3f ff 23 3f a4 29 12 3f 1e 36 b8 3e 4f 11 b4 3e
       0.6406135 0.5709479 0.35978788 0.35169455
0001d0 75 9c fd 3e 02 b8 cb 3e 9f ef 26 3f a3 52 cc 3e
       0.4953343 0.39788824 0.6520938 0.39906797
0001e0 f6 f2 c6 3e b1 f6 41 3f bb 25 f8 3e 29 a8 be 3e
       0.3885724 0.75767046 0.48466286 0.3723767
0001f0 3c 9c 13 3f 20 56 f9 3e 5c 86 22 3f 45 4e 01 3f
       0.5766027 0.4869852 0.63486266 0.50510055

fc.weight f4 [1, 32]
000000 c0 9e 5d 43 06 92 5d c3 90 99 5d c3 b0 7f 5d 43
       221.62012 -221.5704 -221.59985 221.49878
000010 b4 7c 5d 43 8e 8a 5d 43 2c a2 5d c3 f8 ad 5d c3
       221.48712 221.54123 -221.63348 -221.67957
000020 5a 99 5d 43 52 7b 5d 43 14 80 5d c3 e4 84 5d c3
       221.59903 221.48172 -221.5003 -221.5191
000030 ce 7a 5d 43 0a 9f 5d c3 f8 80 5d 43 3a 93 5d 43
       221.4797 -221.62125 221.50378 221.5751
000040 7a 9f 5d c3 d6 8f 5d 43 28 92 5d c3 8a 84 5d c3
       -221.62296 221.56186 -221.57092 -221.51773
000050 de 7f 5d c3 1a 99 5d c3 80 7d 5d c3 4e 78 5d 43
       -221.49948 -221.59805 -221.49023 221.46994
000060 9e 79 5d c3 22 94 5d 43 be a4 5d 43 4c 88 5d 43
       -221.47507 221.57864 221.64352 221.53241
000070 c8 91 5d 43 c2 7d 5d c3 16 7f 5d 43 aa 88 5d 43
       221.56946 -221.49124 221.49643 221.53384
