save/model_20240611_161116.pth (torch, 62844 bytes, 9 tensors)

lstm.weight_ih_l0 f4 [128, 15]
0.16965142 0.21632273 -0.30342653 -0.2765013 -0.09824199 -0.3191113 -0.3762738 -0.19846903
0.1007529 -0.40960765 -0.4672384 0.15176646 -0.07186924 -0.032986753 -0.13638465 -0.17614764
-0.5240919 -0.84477794 -0.18480216 0.038128223 -0.1999601 -0.41449225 0.524816 -0.54188323
-0.49488503 0.03584611 0.28153947 0.62021697 0.793012 -0.05911596 -0.28226668 -0.25120002
-0.48808524 -0.20052016 0.894766 -1.058437 0.3441672 -0.99042755 -0.08237786 -0.12235924
-0.5486779 0.28543034 -0.57822824 0.9157226 0.74965054 0.12278273 -0.004805491 0.07468625
0.26963606 -0.08315283 0.122773774 -0.1344955 -0.19886671 0.11697128 -0.21883598 -0.01174953
-0.134305 -0.11026897 -0.18838893 -0.1745657 -0.22897491 0.16707078 -0.2977557 -0.049798615
-0.07299365 -0.3767546 -0.09044111 -0.51083744 0.10078984 -0.2380483 0.1076467 -0.06528314
-0.37310663 0.48065764 0.06850262 0.06948891 0.2740004 -0.3047694 -0.09228704 0.103610344
-0.19629252 0.18045996 -0.39596388 -0.20048726 0.39866892 -0.008647406 0.2700494 -0.39528686
0.27684847 0.057399042 0.57879657 0.028659632 0.08624027 -0.45670086 0.015975635 -0.057423946
-0.22174056 0.21547806 0.037192345 0.34454224 -0.28073245 -0.15349033 0.18505214 -0.15312317
-0.1790613 0.12810567 -0.15442495 0.06040922 0.21124437 -0.2509294 0.287161 -0.31056902
-0.3028429 -0.0026126131 -0.08047052 0.2723094 0.00057092216 0.100972846 0.27940387 -0.33286992
0.26182804 0.07049448 0.2927655 0.45134747 -0.10084933 0.39970657 0.24478056 -0.29380482
-0.2681408 0.24432233 -0.20183219 0.5341721 -0.31619236 -0.054273658 -0.2081726 0.12139915
0.09198718 -0.17035653 -0.13255727 -0.20733455 0.015412471 -0.15071896 0.044744197 -0.08062992
-0.02639019 0.10923507 0.041510895 -0.08131165 0.25981876 0.12490454 -0.3385559 -0.41279918
-0.5734315 -0.32809013 -0.5519981 0.027621925 0.03855798 0.73339593 -0.46217296 0.29494864
-0.6675971 0.04244197 0.45868918 0.70769334 -0.32579076 0.18590054 0.36151692 -0.08946535
-0.16651322 0.120681964 -0.23685916 0.08542087 -0.033243366 0.059264928 -0.038808856 -0.012824455
-0.34017065 -0.25244188 0.02327989 0.18350595 0.08706837 -0.12503247 -0.046328206 0.07046257
0.09612567 -0.32588592 -0.28207675 0.028191997 0.21474479 -0.03353921 -0.22974041 -0.0024944346
-0.059133038 0.19589813 -0.040982712 -0.11023431 0.0656361 -0.30741742 -0.3651281 0.13569918
-0.34797677 -0.24396746 0.023216154 -0.20822224 0.3055273 -0.088696375 -0.07865466 -0.060213324
-0.07512459 0.055069096 0.18997881 0.2646957 0.60320044 0.5468752 0.7336243 0.02827891
0.540136 0.3527162 0.04294422 -0.32126582 -0.14827986 0.26716977 -0.027039427 0.127707
-0.12596615 -0.15369235 -0.55074763 -0.009696531 0.14345253 -1.0699868 0.4587796 0.17588294
-0.64135516 -0.26014963 -0.06935805 -0.56060946 -0.23081203 -0.19833614 -0.5516655 -0.04470341
0.062383402 0.19814003 0.048396405 -0.16581349 0.046995193 -0.035672836 -0.2924356 -0.04294406
0.035643037 -0.11758266 -0.18528003 -0.00036493235 -0.23848589 0.1752403 -0.20148093 0.16880716
00000000: 1ab9 2d3e b583 5d3e b95a 9bbe 9491 8dbe
00000010: 1933 c9bd 8e62 a3be f6a6 c0be 773b 4bbe
00000020: 8957 ce3d 18b8 d1be df39 efbe ab68 1b3e
00000030: 2e30 93bd 1e1d 07bd 6ba8 0bbe 0c60 34be
00000040: e32a 06bf 5e43 58bf c73c 3dbe 572c 1c3d
00000050: 57c2 4cbe 5438 d4be 575a 063f dcb8 0abf
00000060: 9261 fdbe 5fd3 123d f125 903e 8ac6 1e3f
00000070: d602 4b3f 9423 72bd 4285 90be 4a9d 80be
00000080: 4fe6 f9be 2855 4dbe 620f 653f dd7a 87bf
00000090: af36 b03e a98c 7dbf b9b5 a8bd 7b97 fabd
000000a0: 2876 0cbf ed23 923e c406 14bf cc6c 6a3f
000000b0: 19e9 3f3f 8375 fb3d 6177 9dbb 1bf5 983d
000000c0: bd0d 8a3e 084c aabd d170 fb3d 30b9 09be
000000d0: b7a3 4bbe a38e ef3d 8a16 60be 1a81 40bc
000000e0: 4087 09be b3d4 e1bd 07e9 40be 5ac1 32be
000000f0: 6678 6abe 9a14 2b3e 6f73 98be a2f9 4bbd
00000100: b27d 95bd fbe5 c0be 3039 b9bd 3ec6 02bf
00000110: e76a ce3d efc2 73be e075 dc3d 2bb3 85bd
00000120: d507 bfbe c218 f63e 1a4b 8c3d 3450 8e3d
00000130: c849 8c3e bc0a 9cbe fd00 bdbd a931 d43d
00000140: e800 49be 7fca 383e c7bb cabe 884c 4dbe
00000150: 551e cc3e d9ad 0dbc ea43 8a3e 0a63 cabe
00000160: 15bf 8d3e 421b 6b3d 032c 143f 9bc7 ea3c
00000170: bd9e b03d b2d4 e9be 56df 823c 5f35 6bbd
00000180: f50f 63be 48a6 5c3e 0057 183d d767 b03e
00000190: 2abc 8fbe 922c 1dbe 4f7e 3d3e 52cc 1cbe
000001a0: d85b 37be 222e 033e 9321 1ebe a96f 773d
000001b0: 7250 583e d179 80be c406 933e e702 9fbe
000001c0: 390e 9bbe 6038 2bbb bacd a4bd 236c 8b3e
000001d0: f0a9 153a daca ce3d 060e 8f3e ed6d aabe
000001e0: 530e 863e 695f 903d 5ce5 953e 0417 e73e
000001f0: 188a cebd 57a6 cc3e c1a7 7a3e 966d 96be
00000200: c049 89be a22f 7a3e 19ad 4ebe 81bf 083f
00000210: f7e3 a1be 0e4e 5ebd 332b 55be 1ea0 f83d
00000220: c663 bc3d f171 2ebe 18bd 07be 824f 54be
00000230: 9784 7c3c 1256 1abe b145 373d 4d21 a5bd
00000240: 3d30 d8bc a3b6 df3d 5407 2a3d b986 a6bd
00000250: f706 853e f4cd ff3d 3357 adbe 6a5a d3be
00000260: 68cc 12bf 6efb a7be bf4f 0dbf 6047 e23c
00000270: f9ee 1d3d d6bf 3b3f efa1 ecbe 8203 973e
00000280: a5e7 2abf a2d7 2d3d 4fd9 ea3e 642b 353f
00000290: 0cce a6be b65c 3e3e bf18 b93e 9c39 b7bd
000002a0: 7182 2abe 1b28 f73d 358b 72be 23f1 ae3d
000002b0: 322a 08bd c8bf 723d 09f6 1ebd aa1d 52bc
000002c0: d92a aebe 1040 81be 78b5 be3c fce8 3b3e
000002d0: e750 b23d 8308 00be a5c2 3dbd ae4e 903d
000002e0: 89dd c43d 85da a6be 5d6c 90be e7f2 e63c
000002f0: 0fe6 5b3e 6960 09bd 1241 6bbe ab79 23bb
00000300: 7c35 72bd 8599 483e 7ddd 27bd 87c2 e1bd
00000310: 386c 863d d165 9dbe 12f2 babe baf4 0a3e
00000320: 032a b2be 9bd2 79be ce2f be3c 3638 55be
00000330: 136e 9c3e 72a6 b5bd b215 a1bd 3fa2 76bd
00000340: ecda 99bd 2290 613d ce89 423e 3286 873e
00000350: 586b 1a3f 0300 0c3f cdce 3b3f 2ca9 e73c
00000360: 5a46 0a3f 3897 b43e 47e6 2f3d f47c a4be
00000370: add6 17be 7aca 883e ca81 ddbc a0c5 023e
00000380: 45fd 00be 8761 1dbe ccfd 0cbf 33de 1ebc
00000390: 38e5 123e 54f5 88bf 29e5 ea3e a81a 343e
000003a0: da2f 24bf 5532 85be 980b 8ebd 1a84 0fbf
000003b0: fd59 6cbe a118 4bbe f339 0dbf ec1a 37bd
000003c0: bd85 7f3d 38e5 4a3e 4f3b 463d 03cb 29be
000003d0: 087e 403d ae1d 12bd 1eba 95be 1ce6 2fbd
000003e0: 6ffe 113d 2dcf f0bd 0cba 3dbe 6454 bfb9
000003f0: a535 74be 3172 333e 0451 4ebe c9db 2c3e

lstm.weight_hh_l0 f4 [128, 32]
-0.021381512 0.14149918 0.05604072 -0.037316695 -0.14191982 0.1542698 0.14892183 0.13270535
0.0710845 -0.04234384 -0.1279118 -0.115401715 -0.06676105 0.00019572675 0.046780363 0.080428824
-0.07260526 0.1740564 -0.15788904 -0.09473945 -0.08112627 -0.0505673 -0.171426 -0.06620817
0.12564512 -0.044891953 -0.10878118 -0.020098671 -0.069978096 -0.14483732 -0.074930966 0.16469209
-0.08664222 0.17422591 0.14165463 0.11643757 -0.15401477 -0.085353665 -0.15872043 0.07099655
-0.1637878 -0.10427261 -0.14145201 -0.15738042 -0.084575996 0.17462312 -0.07493769 -0.13935941
0.112961516 0.0779431 0.17389436 0.029536217 -0.07168068 -0.116643466 -0.052305862 0.1272911
0.13217716 0.0489645 -0.14002803 0.13618456 -0.15211926 0.03879559 0.031033203 0.035042673
-0.105403915 -0.11437264 0.018933505 -0.0049871057 0.00043685734 0.1621557 0.051532105 -0.038585126
0.17058064 -0.035161912 -0.055617698 -0.07777579 -0.13199177 -0.047846317 -0.013852388 0.13383926
-0.043460235 -0.16346526 -0.096616335 0.108167455 0.0010980964 -0.038290873 0.09596969 -0.007819608
-0.041728348 0.006339237 0.049423814 -0.064072035 0.003308639 -0.13600634 -0.0033991784 -0.17242223
-0.118865535 0.1046343 -0.16766028 -0.08483659 0.09703417 0.10993792 0.12036921 0.0787511
0.029142797 -0.12618925 0.029765308 -0.17053993 0.033251837 -0.024370909 -0.07172953 -0.00929825
-0.07322526 -0.018770814 -0.07381955 -0.12954335 -0.046586856 -0.0691984 0.10623281 -0.1765963
-0.0778632 -0.039302945 0.058862135 -0.17570938 0.08701719 -0.10376575 0.07740994 -0.09757448
-0.088033006 -0.029470429 -0.093523346 0.08757098 -0.017054811 0.046722516 0.10867797 -0.059245467
-0.16954863 0.09989466 0.040240496 0.050795093 -0.09513241 0.1124977 -0.0832128 -0.060089037
-0.1506177 -0.05826675 -0.10721819 -0.03819859 0.072024375 -0.03453888 0.016695753 -0.002307564
0.0067284703 -0.10475863 0.11550085 0.16631617 0.11125477 0.017790347 -0.011944145 -0.15199836
0.008202702 0.06964986 0.08915268 -0.060520343 -0.17611052 0.031165525 -0.080956616 -0.0955237
-0.089206226 0.026673123 -0.095071636 0.006380141 -0.023473814 -0.07061639 -0.025844082 -0.008372605
0.05332786 0.01226148 0.10069431 0.13333927 -0.1292263 -0.069690086 0.080883786 0.16271551
0.119391665 -0.0501592 0.09655659 -0.14974461 0.08411603 -0.12248561 0.004907578 0.1287571
0.08101569 0.11748786 -0.11642167 -0.053591616 -0.06647361 0.08918433 -0.057789333 -0.15316126
-0.031708375 -0.11230771 -0.077974744 0.17250176 0.116282746 -0.13038641 0.16738282 -0.15753746
0.06033793 -0.06638324 -0.15229036 0.03620653 0.03149514 -0.092862315 -0.03710425 0.104182765
0.10709308 0.023636684 -0.14545858 -0.07024746 0.048971623 -0.004412502 -0.09947465 0.0028461516
-0.11430221 0.12864386 -0.079136774 -0.029995367 0.17268349 0.07281804 -0.15741083 0.11286898
0.07695417 0.1028011 0.109626725 0.120143965 -0.14480156 -0.09029631 -0.1572882 0.07719807
-0.09526351 -0.113421194 -0.16038072 -0.029833838 0.09912582 0.02841635 0.14847012 0.13288881
0.07831003 0.012564063 -0.03584549 -0.16330652 -0.064986035 -0.014810532 0.055914983 0.14286245
00000000: 4828 afbc 29e5 103e f48a 653d 64d9 18bd
00000010: 6e53 11be e7f8 1d3e f77e 183e e9e3 073e
00000020: c094 913d bc70 2dbd 50fb 02be bc57 ecbd
00000030: 04ba 88bd 003c 4d39 c49c 3f3d deb7 a43d
00000040: 11b2 94bd d73b 323e aaad 21be c206 c2bd
00000050: 8825 a6bd a81f 4fbd 4c8a 2fbe 2698 87bd
00000060: 1da9 003e a0e0 37bd abc8 debd f8a5 a4bc
00000070: ad50 8fbd 3c50 14be 6875 99bd 0ba5 283e
00000080: 7a71 b1bd 4768 323e e90d 113e d276 ee3d
00000090: 0cb6 1dbe e7cd aebd 9c87 22be a466 913d
000000a0: fdb7 27be e18c d5bd ccd8 10be 5528 21be
000000b0: 2e36 adbd 67d0 323e ee78 99bd 3cb4 0ebe
000000c0: 5e58 e73d a2a0 9f3d 5d11 323e f0f5 f13c
000000d0: 52cd 92bd c5e2 eebd ac3e 56bd 9958 023e
000000e0: 7359 073e 008f 483d 8263 0fbe f773 0b3e
000000f0: 27c5 1bbe 20e8 1e3d 5839 fe3c e888 0f3d
00000100: 02de d7bd 343c eabd 701a 9b3c e06a a3bb
00000110: 000a e539 250c 263e 5413 533d 700b 1ebd
00000120: b1ac 2e3e f005 10bd 62cf 63bd ea48 9fbd
00000130: da28 07be 80fa 43bd 20f5 62bc 290d 093e
00000140: 5c03 32bd 7063 27be c9de c5bd e686 dd3d
00000150: 00ee 8f3a e4d6 1cbd c28b c43d d01d 00bc
00000160: 58eb 2abd 60b9 cf3b a070 4a3d 3338 83bd
00000170: c0d5 583b 3f45 0bbe c0c4 5ebb 748f 30be
00000180: c66f f3bd 824a d63d 23af 2bbe cebe adbd
00000190: dab9 c63d 2227 e13d 2284 f63d 4248 a13d
000001a0: e0bc ee3c c137 01be 60d6 f33c 05a2 2ebe
000001b0: 1433 083d 80a5 c7bc efe6 92bd b057 18bc
000001c0: 20f7 95bd 40c5 99bc b42e 97bd 03a7 04be
000001d0: dcd1 3ebd e4b7 8dbd 9690 d93d a9d5 34be
000001e0: be76 9fbd 20fc 20bd 6c19 713d 29ed 33be
000001f0: 1236 b23d 2383 d4bd 1a89 9e3d 21d5 c7bd
00000200: a64a b4bd f86b f1bc 2b89 bfbd 6a58 b33d
00000210: 88b6 8bbc 1c60 3f3d 8e92 de3d 60ab 72bd
00000220: 289e 2dbe 9295 cc3d 38d3 243d 840e 503d
00000230: c8d4 c2bd 3265 e63d 796b aabd ec1f 76bd
00000240: 873b 1abe 1ea9 6ebd 3695 dbbd 2076 1cbd
00000250: 8481 933d a478 0dbd 88c5 883c 803a 17bb
00000260: 807a dc3b b18b d6bd b68b ec3d c94e 2a3e
00000270: 8ad9 e33d 10bd 913c 60b1 43bc 75a5 1bbe
00000280: a064 063c 96a4 8e3d ae95 b63d 2ee4 77bd
00000290: 5156 34be d84e ff3c 95cc a5bd eea1 c3bd
000002a0: c1b1 b6bd 9881 da3c ebb4 c2bd 8010 d13b
000002b0: 284c c0bc 539f 90bd f8b6 d3bc 402d 09bc
000002c0: 506e 5a3d 60e4 483c d238 ce3d 178a 083e
000002d0: e653 04be adb9 8ebd 66a6 a53d e59e 263e
000002e0: 9e83 f43d bc73 4dbd 76bf c53d a756 19be
000002f0: 0645 ac3d bcd9 fabd c0cf a03b e7d8 033e
00000300: 8eeb a53d 7a9d f03d 7c6e eebd e282 5bbd
00000310: 5123 88bd 46a6 b63d 82b4 6cbd 4ed6 1cbe
00000320: a4e0 01bd 9601 e6bd 39b1 9fbd 4da4 303e
00000330: a625 ee3d 0484 05be 6766 2b3e 8051 21be
00000340: e824 773d f0f3 87bd 01f2 1bbe 4c4d 143d
00000350: 0c01 013d 992e bebd a0fa 17bd c65d d53d
00000360: 9e53 db3d b8a1 c13c 18f3 14be e6dd 8fbd
00000370: 7896 483d c096 90bb 5eb9 cbbd 8086 3a3b
00000380: 4717 eabd 37bb 033e 7612 a2bd d8b8 f5bc
00000390: f1d3 303e a021 953d 4e30 21be da27 e73d
000003a0: 269a 9d3d 6289 d23d fa83 e03d 0a0e f63d
000003b0: dc46 14be 46ed b8bd 2810 21be 061a 9e3d
000003c0: 8419 c3bd 5f49 e8bd d83a 24be 1866 f4bc
000003d0: 7a02 cb3d 68c9 e83c 8d08 183e 0114 083e
000003e0: 0261 a03d 80d9 4d3c b8d2 12bd d339 27be
000003f0: 6617 85bd e0a7 72bc 1c07 653d 894a 123e

lstm.bias_ih_l0 f4 [128]
-0.69594955 0.40740258 0.96406513 -0.89070356 -0.794276 -0.7555391 -0.48936033 -0.7419713
-0.37676564 -0.73654175 0.3481112 -0.634828 -0.6371438 -0.5660267 -0.06711504 -0.5196211
-0.6239118 -0.58559024 -0.46863922 -0.5699299 1.3252305 -0.30851758 -0.5605871 -0.58834815
0.11786567 0.39032596 0.78287435 -0.26889247 0.43220425 0.78836024 -0.028707597 1.0781277
0.053965434 0.058909804 -0.13314119 0.010573387 -0.14378679 0.019039094 -0.11652413 -0.11135041
0.010522112 -0.12413174 0.1255108 -0.113406844 0.014847055 -0.07624283 -0.056759983 0.04107581
0.07232043 0.0023448616 -0.12769675 0.17318787 -0.0044610947 0.043205574 -0.07615299 0.12949549
-0.06104648 0.16339381 -0.025608629 -0.052264348 0.14210756 -0.11439635 0.015752703 0.051695257
-0.12658523 -0.6435225 0.9727027 0.24729769 0.14466228 -0.19317298 0.40360215 -0.044758532
0.15149245 0.16302909 -0.65074635 -0.06554902 -0.063841425 -0.12681317 0.37065142 -0.18779323
-0.043118823 -0.01856426 -0.00897986 0.034231555 0.6887862 -0.07004978 0.025991015 0.15901992
0.4569804 -0.6707316 -0.92382354 0.38631764 0.45374689 0.80626273 0.39869475 0.7914487
-0.70580417 0.44105306 0.8622774 -0.85672915 -0.44515622 -0.96624094 -0.2888202 -0.8478281
-0.26262867 -0.72383356 0.58848095 -0.7651108 -0.7350075 -0.41433632 -0.0936579 -0.6662654
-0.65688425 -0.4307262 -0.52617764 -0.79229146 1.2224184 -0.24409662 -0.8408006 -0.4559794
-0.050469603 0.59925926 0.8917532 -0.2980514 0.5887071 0.8686465 -0.28263354 1.0913018
00000000: c029 32bf 1297 d03e f9cc 763f 2605 64bf
00000010: ac55 4bbf 036b 41bf 708d fabe d5f1 3dbf
00000020: 6de7 c0be 008e 3cbf a23b b23e 1684 22bf
00000030: db1b 23bf 20e7 10bf 9c73 89bd e305 05bf
00000040: afb8 1fbf 3ee9 15bf 7bf1 efbe ede6 11bf
00000050: 27a1 a93f 04f6 9dbe a382 0fbf fc9d 16bf
00000060: 8e63 f13d ced8 c73e 746a 483f 46ac 89be
00000070: e049 dd3e fad1 493f 322c ebbc 1700 8a3f
00000080: dc0a 5d3d 684b 713d 2a56 08be 003c 2d3c
00000090: d83c 13be e0f7 9b3c 34a4 eebd af0b e4bd
000000a0: f064 2c3c c838 febd e785 003e d941 e8bd
000000b0: 1041 733c 3325 9cbd 287d 68bd 1c3f 283d
000000c0: bc1c 943d 40ac 193b f0c2 02be 2958 313e
000000d0: 602e 92bb 54f8 303d 19f6 9bbd 779a 043e
000000e0: e00b 7abd b550 273e 30c9 d1bc 2413 56bd
000000f0: a584 113e a248 eabd d00b 813c 68be 533d
00000100: 8f9f 01be e4bd 24bf 0b03 793f 9b3b 7d3e
00000110: 5922 143e 23cf 45be f1a4 ce3e b954 37bd
00000120: d620 1b3e 19f1 263e 5097 26bf 913e 86bd
00000130: 4bbf 82bd 50db 01be 06c6 bd3e de4c 40be
00000140: 5d9d 30bd 1314 98bc 4320 13bc 6336 0c3d
00000150: 4b54 303f 4276 8fbd 1ceb d43c 1ed6 223e
00000160: 56f9 e93e 11b5 2bbf b37f 6cbf 6dcb c53e
00000170: 8351 e83e 3c67 4e3f b821 cc3e 629c 4a3f
00000180: 95af 34bf b5d1 e13e 36be 5c3f 9a52 5bbf
00000190: 84eb e3be 915b 77bf 3ee0 93be 430b 59bf
000001a0: 4477 86be 284d 39bf b0a6 163f 4dde 43bf
000001b0: 7429 3cbf e423 d4be b7cf bfbd 5f90 2abf
000001c0: 9129 28bf 2588 dcbe 94b3 06bf 9dd3 4abf
000001d0: 3578 9c3f 77f4 79be b53e 57bf 2276 e9be
000001e0: 37b9 4ebd 0e69 193f f049 643f 319a 98be
000001f0: 82b5 163f 9e5f 5e3f 58b5 90be c7af 8b3f

lstm.bias_hh_l0 f4 [128]
-0.71162176 0.38858116 0.9291157 -0.78023016 -0.5265789 -0.874805 -0.29255146 -0.8226673
-0.25169662 -0.83886194 0.3321166 -0.7035837 -0.684787 -0.5222266 0.06325852 -0.44185227
-0.48300338 -0.5934749 -0.58268213 -0.6773773 1.1404101 -0.25012785 -0.882138 -0.41185206
0.1371771 0.39250088 0.9579477 -0.4390732 0.49873024 0.7832105 -0.03083591 0.9194678
-0.073807135 -0.083070405 -0.1535539 -0.119211346 0.007367775 -0.092180505 -0.12517308 0.04183787
0.010875359 0.14593749 -0.07894973 0.090799704 0.123938784 0.03288968 -0.07228218 -0.077848874
0.0038976371 -0.17279601 0.15819211 -0.05649905 -0.063330784 -0.017833486 0.07303698 -0.11228693
-0.031907752 0.040241733 -0.046081886 -0.15378405 -0.12730461 -0.028901845 0.13952245 -0.1741577
-0.17906626 -0.6422777 0.84250337 -0.012512836 0.10277532 -0.06444805 0.07060711 0.0021804546
0.27438402 -0.16362338 -0.6368798 0.053002037 0.054514185 -0.32121953 0.30839714 -0.018976329
-0.054138396 -0.24227357 -0.045243964 0.1550071 0.8600506 -0.30512565 -0.1127204 0.18421713
0.2400723 -0.5809842 -0.7334656 0.073379725 0.7038853 0.61473507 0.35490614 0.95247144
-0.5543715 0.51142985 0.84017974 -0.89642334 -0.5084932 -0.9700796 -0.3249185 -0.7389501
-0.45884773 -0.9218892 0.38692564 -0.50577235 -0.67371297 -0.5218296 0.094637014 -0.7033474
-0.43979067 -0.7072469 -0.81840503 -0.84853715 1.3624232 -0.31590986 -0.65296346 -0.271566
-0.089039855 0.57972956 0.84790677 -0.4852879 0.5037505 0.69876575 -0.35066903 0.9848838
00000000: d82c 36bf 1cf4 c63e 87da 6d3f 2abd 47bf
00000010: e0cd 06bf 38f3 5fbf 4ec9 95be 539a 52bf
00000020: 61de 80be a8bf 56bf 300b aa3e 101e 34bf
00000030: 334e 2fbf a4b0 05bf af8d 813d 763a e2be
00000040: 384c f7be f9ed 17bf a82a 15bf 9968 2dbf
00000050: f5f8 913f c210 80be ccd3 61bf 46de d2be
00000060: 2778 0c3e e0f5 c83e 0f3c 753f 34ce e0be
00000070: 9259 ff3e 7c80 483f 979b fcbc 3e62 6b3f
00000080: 3228 97bd d120 aabd 3c3d 1dbe 1425 f4bd
00000090: 606d f13b 22c9 bcbd 5f2d 00be 305e 2b3d
000000a0: 902e 323c a370 153e 65b0 a1bd 32f5 b93d
000000b0: 9ed3 fd3d 54b7 063d ae08 94bd 3b6f 9fbd
000000c0: 806f 7f3b 70f1 30be 1dfd 213e 8c6b 67bd
000000d0: 92b3 81bd 8817 92bc 6a94 953d b1f6 e5bd
000000e0: b4b1 02bd 84d4 243d 5cc0 3cbd 9179 1dbe
000000f0: 245c 02be 90c3 ecbc f9de 0e3e 6556 32be
00000100: 255d 37be 506c 24bf 4dae 573f a302 4dbc
00000110: de7b d23d 57fd 83bd 769a 903d f5e5 0e3b
00000120: 107c 8c3e e38c 27be 8e0a 23bf aa18 593d
00000130: 444a 5f3d e376 a4be 3be6 9d3e 3f74 9bbc
00000140: 39c0 5dbd 9016 78be bc51 39bd 2eba 1e3e
00000150: 472c 5c3f 6e39 9cbe f4d9 e6bd 6aa3 3c3e
00000160: 83d5 753e 61bb 14bf 67c4 3bbf 1c48 963d
00000170: d431 343f 475f 1d3f 42b6 b53e 2bd5 733f
00000180: 4aeb 0dbf 11ed 023f 0516 573f 007c 65bf
00000190: 9c2c 02bf 2357 78bf b85b a6be d52b 3dbf
000001a0: 17ee eabe ee00 6cbf 1e1b c63e 4c7a 01bf
000001b0: 7478 2cbf a096 05bf 0dd1 c13d 930e 34bf
000001c0: 3e2c e1be 220e 35bf fe82 51bf bb39 59bf
000001d0: e263 ae3f f0be a1be 9d28 27bf b30a 8bbe
000001e0: 875a b6bd 2869 143f 6b10 593f a877 f8be
000001f0: cbf5 003f 50e2 323f e48a b3be 5821 7c3f

lstm.weight_ih_l1 f4 [128, 32]
0.18009095 0.8726737 -1.0432187 0.08771763 -0.2730833 0.01704157 -0.16801015 -0.32320023
-0.32105374 -0.046688877 0.81664014 -0.018121991 -0.14100286 0.13663945 -0.69820106 0.32887384
0.16167791 0.33618 0.24231745 0.12520786 -0.9934251 0.4211774 0.15758747 -0.08362868
-0.7753973 0.78887457 1.0160182 -0.5503782 -0.5590223 -1.112932 -0.31641522 -1.4917116
0.045965593 1.2641768 -1.0015786 0.090200014 0.13110308 -0.020954369 -0.44207117 0.14011908
-0.18123262 -0.17382511 0.93338275 0.0005418014 0.17256951 0.17514488 -1.0173397 0.5691265
0.25890744 0.17906635 0.17115033 -0.21308893 -0.86312914 0.11768462 0.22990961 -0.16382957
-0.53697884 0.7013428 1.1369648 -0.49487504 -0.47804374 -1.242826 -0.554487 -1.3043206
0.076841876 0.8057746 -1.4542474 0.2189859 0.056508884 -0.16598137 -0.57860035 -0.08636981
-0.40582904 -0.24025406 0.6528227 -0.19576396 -0.047268942 0.34832528 -0.68112856 0.22290231
0.17049532 0.02212956 0.09250343 -0.18696482 -1.4615071 0.32382432 0.28867382 -0.6770797
-0.668496 1.0839212 0.98927194 -0.6562262 -0.9204011 -1.2344124 -0.37139565 -1.4801981
0.36548468 0.8523063 -0.91075796 -0.48684284 -0.2576836 0.06535961 -0.14372414 0.07830094
-0.63532174 0.2158676 0.93354964 0.32038692 -0.15880379 0.53813285 -0.85555905 0.2922783
0.25447434 0.42622125 0.0063270223 -0.5688814 -1.0763646 0.56039464 -0.12478569 0.029383568
-0.4960035 0.7051563 1.0779024 -0.6037837 -0.84766984 -1.0858574 -0.4498642 -1.5097101
0.21327722 1.0434095 -1.1861168 -0.14647114 0.06753209 0.048975207 -0.39464515 -0.15763545
-0.41185153 -0.17302303 0.94062144 -0.08950081 -0.21977808 0.008456322 -0.46735743 0.44144413
0.21191266 0.3331473 0.057290614 -0.14604971 -0.94267845 0.27396578 0.0531158 -0.11077138
-0.6125934 0.61361456 1.1512874 -0.36652714 -0.4682509 -1.0575483 -0.4918129 -1.5273136
0.4307344 0.7192094 -1.6564635 -0.36605477 -0.28081053 0.31639352 -0.21314277 -0.15075518
-0.4928762 -0.15250026 0.9210774 0.051959485 0.065122955 0.46809864 -0.48556814 0.3249324
0.02811351 0.13173504 0.026957244 -0.10538327 -1.367272 0.5503118 0.33353332 -0.27147913
-0.6899983 0.9798902 1.2054645 -0.5567876 -0.85690314 -1.2201424 -1.0831398 -1.5598392
0.07278149 1.166138 -1.2681456 -0.121946484 0.05346715 -0.07376381 -0.40196976 0.07102147
-0.38630885 -0.10061559 0.78517085 0.04551885 -0.006616356 0.28175253 -0.68276733 0.3586316
0.39305252 -0.053952176 0.19786282 -0.22228242 -1.1143588 0.55785286 0.26272297 0.20874208
-0.8662321 0.7837069 1.3680931 -0.5467152 -0.5529435 -1.1957124 -0.54598546 -1.2481083
0.28975254 1.038136 -1.3026221 0.084076576 -0.19877674 -0.14245419 -0.43630138 -0.5100424
-0.31001207 -0.3989926 0.83222765 -0.36753678 -0.23359573 0.0903684 -0.38663375 0.21788284
0.045354277 0.021281047 0.22737132 0.097083464 -1.3559355 0.22682677 0.07054344 -0.39094877
-0.621353 0.75049084 1.0200031 -0.6531306 -0.63778526 -1.1479812 -0.65222585 -1.4244474
00000000: c369 383e 8b67 5f3f 3188 85bf 4da5 b33d
00000010: 93d1 8bbe c39a 8b3c da0a 2cbe 807a a5be
00000020: 2861 a4be d63c 3fbd 540f 513f 9274 94bc
00000030: 0e63 10be 36eb 0b3e 4ebd 32bf 2762 a83e
00000040: e58e 253e c91f ac3e 1122 783e 7d36 003e
00000050: 1b51 7ebf 90a4 d73e 9c5e 213e 8345 abbd
00000060: 7080 46bf aff3 493f e20c 823f 96e5 0cbf
00000070: 161c 0fbf 8e74 8ebf 2d01 a2be 68f0 bebf
00000080: 6b46 3c3d 8cd0 a13f ba33 80bf c9ba b83d
00000090: e33f 063e 7fa8 abbc 2757 e2be 607b 0f3e
000000a0: 0b95 39be 36ff 31be 2cf2 6e3f ad07 0e3a
000000b0: 10b6 303e 2e59 333e 3038 82bf 46b2 113f
000000c0: 848f 843e 2b5d 373e 0842 2f3e fc33 5abe
000000d0: 08f6 5cbf a204 f13d 6d6d 6b3e f0c2 27be
000000e0: 7277 09bf 348b 333f 1088 913f 4360 fdbe
000000f0: 26c2 f4be ec14 9fbf dcf2 0dbf faf3 a6bf
00000100: 465f 9d3d 3f47 4e3f c724 babf d73d 603e
00000110: dc75 673d 05f7 29be 271f 14bf a8e2 b0bd
00000120: d3c8 cfbe 2905 76be 631f 273f 5976 48be
00000130: 149d 41bd b157 b23e 715e 2ebf 8140 643e
00000140: 5396 2e3e 0d49 b53c 7072 bd3d b573 3fbe
00000150: aa12 bbbf 4dcc a53e 0ecd 933e 1855 2dbf
00000160: 8e22 2bbf eebd 8a3f ed40 7d3f 71fe 27bf
00000170: 689f 6bbf 3a01 9ebf 9227 bebe 2277 bdbf
00000180: cf20 bb3e bf30 5a3f 6f27 69bf 7743 f9be
00000190: 1bef 83be 42db 853d 6c2c 13be 3e5c a03d
000001a0: 72a4 22bf 650c 5d3e 1cfd 6e3f c109 a43e
000001b0: 769d 22be 13c3 093f eb05 5bbf 80a5 953e
000001c0: 764a 823e ac39 da3e e952 cf3b 36a2 11bf
000001d0: 51c6 89bf 0676 0f3f a48f ffbd cfb5 f03c
000001e0: 2cf4 fdbe 2085 343f b5f8 893f 9291 1abf
000001f0: e400 59bf 60fd 8abf 9a54 e6be 2e3e c1bf
00000200: 5865 5a3e 718e 853f add2 97bf 88fc 15be
00000210: 444e 8a3d 3a9a 483d ee0e cabe 306b 21be
00000220: 34de d2be f32c 31be 91cc 703f 334c b7bd
00000230: 810d 61be 638c 0a3c 7949 efbe f704 e23e
00000240: a2ff 583e 4892 aa3e 90a9 6a3d 0e8e 15be
00000250: 6053 71bf 3e45 8c3e f48f 593d 1bdc e2bd
00000260: ecd2 1cbf d815 1d3f 635d 933f 72a9 bbbe
00000270: 95be efbe be5d 87bf e7ce fbbe 037f c3bf
00000280: 3889 dc3e 1b1e 383f ff06 d4bf 886b bbbe
00000290: 66c6 8fbe 55fe a13e 1942 5abe 915f 1abe
000002a0: 455a fcbe 0729 1cbe bacb 6b3f 78d3 543d
000002b0: 2f5f 853d a0aa ef3e 639c f8be 8a5d a63e
000002c0: 4e4e e63c 8de5 063e 70d5 dc3c 2fd3 d7bd
000002d0: c502 afbf 3ce1 0c3f e1c4 aa3e 50ff 8abe
000002e0: bba3 30bf 16da 7a3f a94c 9a3f a289 0ebf
000002f0: 015e 5bbf a02d 9cbf 53a4 8abf d0a8 c7bf
00000300: 760e 953d 0344 953f 9852 a2bf 14bf f9bd
00000310: 5f00 5b3d 7b11 97bd fbce cdbe b473 913d
00000320: 46ca c5be 8c0f cebd f500 493f f971 3a3d
00000330: 04ce d8bb de41 903e d7c9 2ebf 909e b73e
00000340: 2e3e c93e f5fc 5cbd 8d9c 4a3e 019e 63be
00000350: 4fa3 8ebf 72cf 0e3f a083 863e 7cc0 553e
00000360: 63c1 5dbf 04a1 483f ad1d af3f 87f5 0bbf
00000370: b58d 0dbf 1b0d 99bf b4c5 0bbf 03c2 9fbf
00000380: 725a 943e a4e1 843f 52bc a6bf 5730 ac3d
00000390: 218c 4bbe 83df 11be e562 dfbe 2492 02bf
000003a0: e7b9 9ebe c248 ccbe df0c 553f c82d bcbe
000003b0: b833 6fbe 1113 b93d dcf4 c5be ae1c 5f3e
000003c0: 68c5 393d 9755 ae3c 07d4 683e b2d3 c63d
000003d0: 4b8f adbf 4745 683e 1479 903d 702a c8be
000003e0: fd10 1fbf 2b20 403f 768f 823f 9133 27bf
000003f0: e545 23bf 0cf1 92bf 46f8 26bf 4b54 b6bf

lstm.weight_hh_l1 f4 [128, 32]
0.09515722 0.04888171 0.064902455 -0.16779524 0.10952829 -0.13220948 -0.026898012 -0.09216032
-0.036666214 -0.07999598 -0.00545989 0.15027346 -0.10644896 0.005259827 0.09739672 -0.06718945
-0.10917869 -0.1571811 -0.16217865 0.0094731 -0.04725425 0.010711089 0.12133004 -0.14966029
-0.16211791 -0.09842484 0.17275013 0.1297781 -0.024787381 0.13720293 -0.062487826 -0.053617068
0.06795195 0.034006715 -0.08865018 0.077598944 0.034422636 0.04390827 0.16153614 0.13330616
-0.028156012 0.12931584 0.08410959 0.01062341 0.14691772 0.10525738 -0.05549547 0.0048272014
-0.15115832 -0.114497855 -0.044958383 -0.10024384 -0.16022514 0.0028546453 0.10745977 0.14695759
0.053799108 -0.16568384 -0.07511517 -0.026581496 -0.07275233 0.156684 0.047623068 -0.028019458
0.09722735 0.0028752536 0.038925126 0.011647657 0.039037824 0.036422 0.06257483 -0.089657135
-0.16131409 -0.047754586 -0.15076728 -0.056554556 -0.056608208 -0.0818178 0.020083249 0.1255977
-0.053820387 0.035301164 0.08422686 -0.004161477 -0.11091849 -0.114714384 -0.17228773 0.0025442094
-0.016406372 -0.09083611 0.07199782 0.12850977 0.053256467 -0.09149699 0.11792655 -0.154297
-0.02991341 -0.13321729 -0.022392765 -0.0956579 0.16347311 0.07090075 0.021401227 -0.1282079
-0.11514236 -0.062304422 -0.11018945 0.018060416 0.05555041 0.046200454 -0.083569214 0.1408719
0.11161469 -0.10269079 0.13694204 0.14337926 0.095307454 -0.018334046 0.09292625 0.16967432
0.15499772 -0.15304427 0.15651153 -0.0282242 -0.023200497 0.13237481 0.08672704 -0.14575028
0.10595073 -0.14895879 0.10258557 0.04510185 0.12365134 0.14610426 -0.16014634 -0.024699122
-0.04754539 -0.081356965 -0.05341114 -0.13510248 -0.09290126 0.011272132 -0.15041533 -0.09336178
-0.121111184 -0.072492704 -0.038554102 0.1231233 -0.06953178 -0.103007995 -0.013073742 -0.10803959
-0.011518523 0.1318901 0.13435088 0.04364574 -0.14448273 -0.17279425 -0.00021021068 0.15983073
-0.12000185 -0.036429986 -0.0715716 0.11032577 -0.09331628 -0.0051333457 -0.11821103 0.16942833
-0.058184043 -0.07226587 -0.053815983 0.15047593 -0.07173145 0.11579822 0.024623469 -0.031461805
-0.048502088 -0.17536092 -0.10271931 0.14692439 0.04006535 -0.013587654 -0.017782584 -0.073959835
0.08065073 0.15570603 -0.14969091 0.091677055 -0.14164256 0.020974964 0.033369035 0.12625973
0.114221886 -0.14299312 0.15415387 -0.15957114 0.07944374 0.096169546 0.09925343 0.08475299
-0.04592599 0.14875095 0.09453215 0.13550423 -0.103460714 0.01777862 -0.16163555 -0.12914896
-0.054617323 -0.106645584 0.072144955 0.053334817 -0.12628901 -0.12022671 0.16974847 0.076801464
-0.1467072 0.10886054 0.101750955 -0.010246724 0.13825367 -0.0856421 -0.11130041 -0.06302956
-0.05564688 0.023870394 -0.026067764 -0.0027471036 0.011707976 -0.12782338 0.15940441 0.09261204
-0.16527657 -0.048339084 -0.033350155 -0.15750338 0.041827545 0.010761648 -0.009026676 -0.14104077
-0.0673624 -0.05525121 0.03487523 -0.15598106 -0.14343771 0.059942216 0.13567679 0.08889599
0.16887952 0.11732109 0.08505301 -0.017813593 -0.13500196 0.14476405 0.023026988 -0.007164076
00000000: cae1 c23d 3038 483d 94eb 843d 84d2 2bbe
00000010: 5e50 e03d ec61 07be 3859 dcbc 8dbe bcbd
00000020: 502f 16bd efd4 a3bd e0e8 b2bb 49e1 193e
00000030: ea01 dabd a05a ac3b ee77 c73d 9f9a 89bd
00000040: 1499 dfbd 15f4 20be 2912 26be 1035 1b3c
00000050: ac8d 41bd 907d 2f3c e27b f83d 8c40 19be
00000060: 3d02 26be f692 c9bd 69e5 303e 8de4 043e
00000070: e80e cbbc ed7e 0c3e 3cf3 7fbd 929d 5bbd
00000080: 642a 8b3d a04a 0b3d 3a8e b5bd 32ec 9e3d
00000090: c0fe 0c3d 28d9 333d bb69 253e 6981 083e
000000a0: 70a7 e6bc 5f6b 043e a641 ac3d d00d 2e3c
000000b0: 9971 163e 2e91 d73d 384f 63bd 802d 9e3b
000000c0: 3fc9 1abe da7d eabd 4826 38bd a44c cdbd
000000d0: 0f12 24be 0015 3b3b de13 dc3d 0d7c 163e
000000e0: 745c 5c3d 06a9 29be fbd5 99bd 70c1 d9bc
000000f0: 2cff 94bd c571 203e 6810 433d 1089 e5bc
00000100: 221f c73d c06e 3c3b f46f 1f3d d0d5 3e3c
00000110: 20e6 1f3d 3c2f 153d 3c27 803d 299e b7bd
00000120: 852f 25be 509a 43bd bd62 1abe c0a5 67bd
00000130: 02de 67bd 1790 a7bd a085 a43c af9c 003e
00000140: c472 5cbd f497 103d 227f ac3d 005d 88bb
00000150: 3c29 e3bd 60ef eabd 326c 30be c0bc 263b
00000160: a866 86bc 4808 babd 9873 933d 1198 033e
00000170: 7423 5a3d c662 bbbd 7a83 f13d 0800 1ebe
00000180: f80c f5bc 1d6a 08be 0871 b7bc 4ae8 c3bd
00000190: 7f65 273e 6a34 913d a051 af3c ef48 03be
000001a0: c2cf ebbd ec32 7fbd 02ab e1bd 70f3 933c
000001b0: d488 633d b03c 3d3d 5626 abbd b940 103e
000001c0: 3e96 e43d 8d4f d2bd 893a 0c3e 03d2 123e
000001d0: 8e30 c33d 4831 96bc 1e50 be3d 1bbf 2d3e
000001e0: b9b7 1e3e a3b7 1cbe 8f44 203e 7036 e7bc
000001f0: f80e bebc 438d 073e f29d b13d 903f 15be
00000200: b2fc d83d a788 18be 6218 d23d b8bc 383d
00000210: ea3c fd3d 5b9c 153e 67fd 23be d055 cabc
00000220: f4be 42bd 7b9e a6bd a4c5 5abd 4e58 0abe
00000230: 0443 bebd c0ae 383c 7a06 1abe 7634 bfbd
00000240: 2409 f8bd 0e77 94bd e8ea 1dbd 1228 fc3d
00000250: ae66 8ebd dbf5 d2bd 4033 56bc dc43 ddbd
00000260: 30b8 3cbc 330e 073e 4793 093e e0c5 323d
00000270: 48f3 13be faf0 30be 006c 5cb9 abaa 233e
00000280: 88c3 f5bd 9c37 15bd 2294 92bd 7af2 e13d
00000290: 9b1c bfbd a035 a8bb a018 f2bd 9f7e 2d3e
000002a0: 6452 6ebd 2100 94bd 266e 5cbd 5d16 1a3e
000002b0: f0e7 92bd 9e27 ed3d 28b7 c93c 18de 00bd
000002c0: 20aa 46bd d091 33be 805e d2bd 5973 163e
000002d0: 901b 243d c09e 5ebc c8ac 91bc 4178 97bd
000002e0: 362c a53d 6771 1f3e 9348 19be 2ec1 bb3d
000002f0: bf0a 11be b0d3 ab3c f8ad 083d 3b4a 013e
00000300: 2aed e93d ca6c 12be 83da 1d3e 9e66 23be
00000310: 66b3 a23d 8af4 c43d 6245 cb3d fa92 ad3d
00000320: e41c 3cbd 2b52 183e 129a c13d 9fc1 0a3e
00000330: 36e3 d3bd 78a4 913c ca83 25be a03f 04be
00000340: 6ab6 5fbd 0069 dabd bcc0 933d 9c75 5a3d
00000350: e851 01be 6c39 f6bd 8bd2 2d3e 164a 9d3d
00000360: 6a3a 16be 46f2 de3d ce62 d03d e0e1 27bc
00000370: 5f92 0d3e 2065 afbd 78f1 e3bd a415 81bd
00000380: fced 63bd d88b c33c 108c d5bc c008 34bb
00000390: d0d2 3f3c 22e4 02be e93a 233e 62ab bd3d
000003a0: 433e 29be 34ff 45bd 2c9a 08bd 9148 21be
000003b0: 5c53 2b3d a051 303c a0e4 13bc fe6c 10be
000003c0: 4cf5 89bd 184f 62bd 54d9 0e3d 80b9 1fbe
000003d0: 56e1 12be f885 753d dbee 0a3e 1a0f b63d
000003e0: c1ee 2c3e 0a46 f03d 4630 ae3d d0ed 91bc
000003f0: f43d 0abe 073d 143e 18a3 bc3c a0c0 eabb

lstm.bias_ih_l1 f4 [128]
-1.44986 -1.2634324 -1.0302409 -1.3248968 -1.4645107 -0.83301944 -1.1567804 -1.1749446
-1.3798286 -1.0837404 -1.1993843 -0.7304423 -1.1089647 -1.0777065 -1.4709529 -1.178726
-0.8642852 -1.2295209 -1.3148826 -0.9065676 -1.1106994 -1.0023184 -1.5067272 -1.0229412
-1.0727521 -1.2695163 -1.6916596 -0.84707576 -1.2507645 -1.041992 -1.3450819 -1.0370786
-0.12651312 -0.16715258 -0.15664878 -0.081726655 0.16668053 0.08906685 -7.5384974e-05 0.06232764
0.08487867 0.05159168 0.05725752 0.023680106 0.015455812 -0.13185155 -0.10670347 -0.09377446
0.020051286 0.07756783 -0.019074604 -0.12276599 0.15711175 0.071996376 -0.14854763 0.11354737
0.035175547 0.00020894408 -0.060018316 0.013424441 -0.05984024 -0.02249986 0.17582013 0.07105912
0.0014868114 -0.09469023 0.100104846 -0.041381985 -0.02593239 -0.14967006 -0.06429797 -0.13592087
-0.13881378 -0.04031431 0.021581441 0.025048133 0.028250856 0.0031325913 0.010202027 0.029451577
0.0885037 0.052066606 -0.12556495 0.11043823 -0.0073472206 -0.1558238 -0.100605 -0.0112160565
0.09386508 -0.044282127 0.09615887 -0.03311114 0.044589255 0.066601105 -0.060353752 0.111981064
-1.3577284 -1.3338187 -0.8821753 -1.2768238 -1.4580549 -0.94203997 -1.31195 -1.0489144
-1.3877456 -1.1649462 -1.1057109 -0.74456275 -1.1930567 -1.2361888 -1.1922983 -0.98322845
-0.8835594 -0.99381804 -1.313723 -1.0965637 -1.3853157 -1.0167052 -1.4238927 -1.0942762
-0.90924585 -1.2441825 -1.4355748 -1.0138788 -1.1389436 -0.9245403 -1.2608396 -1.1834735
00000000: 0395 b9bf 27b8 a1bf efde 83bf 3896 a9bf
00000010: 1675 bbbf c340 55bf 6111 94bf 9664 96bf
00000020: 399e b0bf 01b8 8abf 6d85 99bf 44fe 3abf
00000030: 8ef2 8dbf 49f2 89bf 2f48 bcbf 7ee0 96bf
00000040: cb41 5dbf f160 9dbf 134e a8bf d014 68bf
00000050: 662b 8ebf f84b 80bf 70dc c0bf bdef 82bf
00000060: f14f 89bf 837f a2bf 4d88 d8bf f5d9 58bf
00000070: 0d19 a0bf fe5f 85bf a52b acbf febe 84bf
00000080: a88c 01be 0c2a 2bbe 8a68 20be 4e60 a7bd
00000090: 4dae 2a3e ae68 b63d 0018 9eb8 444b 7f3d
000000a0: ded4 ad3d cc51 533d dc86 6a3d c8fc c13c
000000b0: 603a 7d3c 1804 07be 5987 dabd d30c c0bd
000000c0: 9842 a43c e2db 9e3d 5842 9cbc bc6c fbbd
000000d0: e7e1 203e d672 933d df1c 18be 868b e83d
000000e0: 3c14 103d 0018 5b39 c4d5 75bd 30f2 5b3c
000000f0: 0a1b 75bd a051 b8bc 310a 343e 7287 913d
00000100: 1de1 c23a f4ec c1bd c503 cd3d 2880 29bd
00000110: 2a70 d4bc 1c43 19be a7ae 83bd d72e 0bbe
00000120: 3325 0ebe 9e20 25bd 90cb b03c be31 cd3c
00000130: 576e e73c 294c 4d3b 6726 273c 6f44 f13c
00000140: 6e41 b53d cb43 553d 1994 00be 702d e23d
00000150: f4c0 f0bb 4690 1fbe ff09 cebd 8dc3 37bc
00000160: 563c c03d 2d61 35bd f1ee c43d 8c9f 07bd
00000170: 39a3 363d 2966 883d 7f35 77bd 5456 e53d
00000180: 0bca adbf 92ba aabf 3ed6 61bf f66e a3bf
00000190: 8ba1 babf 8829 71bf faed a7bf d442 86bf
000001a0: a6a1 b1bf f51c 95bf ef87 8dbf aa9b 3ebf
000001b0: 15b6 98bf 6f3b 9ebf 3b9d 98bf dcb4 7bbf
000001c0: f330 62bf dc6a 7ebf 1328 a8bf 335c 8cbf
000001d0: 0652 b1bf 6523 82bf 1e42 b6bf 3e11 8cbf
000001e0: 56c4 68bf 5f41 9fbf eac0 b7bf c8c6 81bf
000001f0: e7c8 91bf acae 6cbf 3163 a1bf 0f7c 97bf

lstm.bias_hh_l1 f4 [128]
-1.3981943 -1.355779 -0.9470025 -1.2839816 -1.5479884 -0.94222695 -1.2776612 -1.1758957
-1.194643 -1.0649302 -0.9371656 -0.9365686 -1.3513882 -1.1708665 -1.2114216 -0.954999
-1.141125 -1.1950535 -1.2747031 -1.1751084 -1.3621141 -0.9545219 -1.3337655 -1.0419054
-1.0320764 -1.4908829 -1.6232537 -0.8897858 -1.3103532 -1.0128545 -1.2491609 -1.0426428
-0.15992013 -0.07560653 -7.987022e-06 -0.03552927 0.096793815 -0.080716506 -0.09818064 -0.009512141
0.012499064 -0.010701045 0.0739644 0.13178979 0.051820666 0.13743396 -0.01601258 0.10082637
0.08547668 -0.10889759 -0.03739664 -0.09722806 0.052685454 -0.038609236 -0.16818917 -0.01319854
0.1532649 0.09608953 -0.003796488 0.14566778 -0.11936991 -0.11932173 -0.17481889 -0.04634489
-0.02701231 0.0672035 -0.1251379 0.00858107 0.019264817 0.17686833 0.09754656 0.107861124
0.13461176 0.0022146283 -0.002888763 -0.00515486 -0.032073904 -0.00021378724 -0.012097371 0.018842783
-0.07080859 -0.06842871 0.119643286 -0.14837898 -0.0066403793 0.105688065 0.104808025 0.025657471
-0.09117341 0.054140475 -0.09448602 0.0391045 -0.07663126 -0.03140371 0.049726848 -0.069594204
-1.3997409 -1.1340266 -0.9400239 -1.2422031 -1.2870642 -1.0073037 -1.2896171 -1.1501509
-1.3433316 -0.99718475 -1.0892453 -0.7536377 -1.1727154 -1.0274466 -1.4309827 -0.9844161
-1.0108501 -1.2190266 -1.1755859 -1.1639675 -1.27785 -0.8488878 -1.5030158 -1.0700532
-0.87899435 -1.3602257 -1.7498062 -0.85245275 -1.0777909 -1.0999147 -1.3478385 -0.972319
00000000: 08f8 b2bf 2b8a adbf c16e 72bf 8259 a4bf
00000010: 7c24 c6bf c935 71bf 678a a3bf c083 96bf
00000020: 10ea 98bf a24f 88bf 16ea 6fbf f6c2 6fbf
00000030: 4afa acbf f4de 95bf dd0f 9bbf d17a 74bf
00000040: 6210 92bf 83f7 98bf 7929 a3bf f469 96bf
00000050: c159 aebf 8c5b 74bf d4b8 aabf 285d 85bf
00000060: 141b 84bf 40d5 bebf c7c6 cfbf 01c9 63bf
00000070: a7b9 a7bf 37a5 81bf 81e4 9fbf 5275 85bf
00000080: 1ac2 23be 99d7 9abd 0000 06b7 2487 11bd
00000090: d63b c63d b24e a5bd ee12 c9bd d0d8 1bbc
000000a0: e0c8 4c3c 7053 2fbc a67a 973d e7f3 063e
000000b0: e841 543d 7dbb 0c3e d02c 83bc 0e7e ce3d
000000c0: 660e af3d b305 dfbd 382d 19bd 811f c7bd
000000d0: b4cc 573d b824 1ebd c839 2cbe b03e 58bc
000000e0: 79f1 1c3e 96ca c43d 80ce 78bb ef29 153e
000000f0: 3678 f4bd f45e f4bd b903 33be 24d4 3dbd
00000100: ec48 ddbc fda1 893d 2624 00be 9e97 0c3c
00000110: 40d1 9d3c f91c 353e 7ec6 c73d 4be6 dc3d
00000120: aad7 093e 4c23 113b 6751 3dbb 1aea a8bb
00000130: ed5f 03bd 132c 60b9 0d34 46bc 2e5c 9a3c
00000140: 1804 91bd 5a24 8cbd 8a07 f53d a9f0 17be
00000150: 8a97 d9bb fc72 d83d 97a5 d63d 9e2f d23c
00000160: 20b9 babd 67c2 5d3d e381 c1bd 0a2c 203d
00000170: daf0 9cbd 2da1 00bd 61ae 4b3d 6887 8ebd
00000180: b62a b3bf c927 91bf 68a5 70bf 8300 9fbf
00000190: 85be a4bf 54ef 80bf 2c12 a5bf 2538 93bf
000001a0: 4af2 abbf 8047 7fbf 646c 8bbf 66ee 40bf
000001b0: 8a1b 96bf 5f83 83bf 712a b7bf b202 7cbf
000001c0: 8963 81bf 1009 9cbf 9979 96bf e3fc 94bf
000001d0: 9790 a3bf b650 59bf d262 c0bf 81f7 88bf
000001e0: c605 61bf e01b aebf a6f9 dfbf 583a 5abf
000001f0: 0df5 89bf 01ca 8cbf f985 acbf e6e9 78bf

fc.weight f4 [1, 32]
-0.00030869828 -0.003479736 -0.0035347305 -0.007414086 -0.011904982 0.00682981 0.0044007744 0.010429026
-0.008984718 -0.014505396 0.003545552 0.0005156623 -0.0005479677 -0.016858838 0.008287434 0.0026656818
-0.014330469 -0.007833436 -0.005119686 0.0049865083 0.0009671039 -0.0031321724 0.002358593 0.005034138
0.00033418584 0.0008914486 -0.011126962 0.0028510618 -0.010095564 0.0021642074 0.00028395175 -0.002587851
00000000: c8d8 a1b9 480c 64bb f0a6 67bb dcf1 f2bb
00000010: 1d0d 43bc 99cc df3b 5f34 903b 81de 2a3c
00000020: a334 13bc 0aa8 6dbc 7e5c 683b 832d 073a
00000030: 7da5 0fba 8c1b 8abc 04c8 073c b8b2 2e3b
00000040: 58ca 6abc d057 00bc 0ac3 a7bb dd65 a33b
00000050: 3e85 7d3a 2245 4dbb a092 1a3b 69f5 a43b
00000060: aa35 af39 1ab0 693a dc4d 36bc e1d8 3a3b
00000070: dd67 25bc 60d5 0d3b 5cdf 9439 ef98 29bb
