save/model_20240611_160527.pth (torch, 62844 bytes, 9 tensors)

lstm.weight_ih_l0 f4 [128, 15]
00000000: fc41 d2bd 8055 12be 28c7 813e 0caa d6be
00000010: 0d33 cabd 4087 92bb cb03 65bd 66ad 063d
00000020: 93cd 51bd 2fbe 8fbe dbe8 82bd b9e4 8d3d
00000030: 1ad6 b83d c30f 8d3e 3362 c63c 6343 56bf
00000040: 3dcc b9be a692 1d3f 6c6a 99bd bab7 88bf
00000050: 263d 663f c5ca 213f 3561 11bf 3f5a a2bd
00000060: 2623 133f 3b76 47be 7841 2a3f 4196 75bd
00000070: 2843 703e 98c5 2e3e 142e ee3d 7463 433e
00000080: d8e7 21bf 7a37 4dbe 1f73 103f afd4 ca3b
00000090: 4324 9fbe e450 bf3e 05a7 22bf 4566 683c
000000a0: a49d fcbd b2d0 423e 08a4 1d3e fff2 49be
000000b0: e978 853e 8cfe 6a3e 89c1 ffba 2d03 20be
000000c0: 91b6 143f 53b6 283e 8577 dfbe 03f2 803e
000000d0: 6d8b 4b3f bd19 dabe 2b10 173e c1af ba3c
000000e0: 1f98 0ebf 63a3 ba3d bb62 b7bd 562c a63e
000000f0: 5a9b febd fb5f fbbe 3de2 e0be 6d76 27bf
00000100: 8928 983f 7f92 743f addb 07bf 0216 e8bc
00000110: 4592 1f3f a788 693e 1de1 9fbe c10a 28bd
00000120: b9cb 503f ef51 f03d 411a 123f 5a79 32be
00000130: 9c39 9d3d af9b 7fbd 3c0e 82bb 2efb 13be
00000140: af58 c13e 9bdc 8abe 3687 c73c 1f7e 9ebe
00000150: 2bb0 76bd b21f 873e 0cd7 56be 6a6f e43d
00000160: 5587 1bbe b1db c7be 10fb 413e cfd4 eebe
00000170: bcd2 b33c c464 96be db96 a8be 4082 273e
00000180: 7a6a 503e 8616 32be daf2 f23e 9066 a1be
00000190: 116b 76bc bf25 40bd b5a0 2d3e 7f05 383b
000001a0: f2ce 413e 6b33 033e bb6b 81bf 3f7f c7bc
000001b0: d7f5 b9be 5f34 3b3c 230b 1d3f eada 16bf
000001c0: 9021 01bf fa99 ec3e e5f9 05be b325 cf3e
000001d0: 65d7 313e be21 143e a888 223f 78fb 8ebd
000001e0: 7c0b fd3c 6af1 33be 955c 2a3e ec93 cabd
000001f0: 02ec 0a3e 867c ebbd 1493 e63c 839a 173e
00000200: e8f4 103f ccfd 85be 605f 983d f615 dfbd
00000210: 9b6f 393d 1a79 513e 6109 1a3e 85fa 9dbe
00000220: a400 01bf 4472 ecbd 7024 a2bc 1798 b9bd
00000230: 263a c6bd 63c6 0bbe 4eea debe e5bf ac3e
00000240: 5498 d4bd 645c 01be 345e adbe e786 a33e
00000250: fd21 e93e e0aa 783e 8e43 2e3c a73b 073d
00000260: 6541 9d3e dcc7 8abe d7ff 3c3d 3b65 0a3e
00000270: 6dc8 2dbd 099f 78be cebd a6bd 195b f4bd
00000280: bb53 2dbe 02a3 13bd cc57 8ebc 3b6e 1f3e
00000290: 69ec dbbd 0265 2bbe 9766 97bd d03c 31bd
000002a0: 7252 943e 875a 42bd 096a 9f3d afcf 433e
000002b0: 6bd9 6bbe 158f 0c3e a08e 2e3d c4a0 58be
000002c0: 75c4 643c 0766 a0bd b758 c4bd 5fd9 f03d
000002d0: 56cc 1abf 6bb4 053e cc04 27be 9b5f 843e
000002e0: d39e a23d f753 fb3e d348 8cbe e128 c8bd
000002f0: db57 bd3e c2de fd3e 4abf 7b3e fc73 9bbc
00000300: 1d25 8fbe 9ff1 843d df45 6c3e 5855 75bf
00000310: 4f45 4f3e 1459 c3bd 61c7 bc3e 9940 96be
00000320: ee5d 863e 57e1 50be 46ad 29bf faa2 833f
00000330: 1999 ff3e 6b88 803f 29ee 483e db44 dcbc
00000340: 3cb9 e33e 286b b7be e80e 35bf 0e7a 083f
00000350: 23e2 773d 8b51 febe 4295 28be 03a2 053d
00000360: fb51 d6bd 0d3c a2be 1d7b bd3e cd5a cd3d
00000370: d7e0 60be 0c9d 653e c917 463e 5173 26be
00000380: b464 2a3e 4716 2e3d 9e71 74be d8ba 5e3d
00000390: 88ee c6be 617e fb3d 8a31 aabb 3a89 0bbc
000003a0: 89c6 fc3d 3dd7 8f3c e440 25be e228 cb3d
000003b0: 7d10 ae3e f780 443e d2b0 0bbc f933 f4bc
000003c0: 20a4 133f 6d86 553e 38b0 78bc a78c 02bf
000003d0: c126 183e bb47 2dbf f50e 69be b243 01bf
000003e0: af41 e6bd 5dda cfbe 2d81 6e3e 82ae 9d3e
000003f0: 195d 9cbe f515 44be fe9b e03d c102 be3c
-0.10266492 -0.14290428 0.25347257 -0.4192661 -0.098730184 -0.0044716895 -0.05591182 0.03288021
-0.05122144 -0.28074786 -0.0639207 0.06928391 0.09025212 0.27551088 0.024216747 -0.83696574
-0.36288634 0.6155189 -0.074910015 -1.0681069 0.89937055 0.63200027 -0.5678895 -0.07927369
0.5747551 -0.19478695 0.6650615 -0.059957746 0.23463118 0.17067564 0.116298825 0.19080907
-0.6324439 -0.20040694 0.5642566 0.0061899046 -0.31082353 0.37366402 -0.635361 0.014184539
-0.12334755 0.19024923 0.15394604 -0.19721602 0.2606881 0.22948664 -0.0019512634 -0.15626211
0.58091074 0.16475801 -0.43645874 0.2518464 0.7950962 -0.42597762 0.14752261 0.022788884
-0.5570087 0.09113195 -0.08954378 0.324557 -0.12431975 -0.49096665 -0.43922606 -0.6541508
1.188737 0.95536035 -0.53069574 -0.028330807 0.62332565 0.22806035 -0.31226435 -0.04102588
0.81560856 0.117343776 0.5707131 -0.17429104 0.07677004 -0.06240433 -0.003968982 -0.14451286
0.37762973 -0.27121434 0.024356466 -0.30955598 -0.0602266 0.2639137 -0.20980471 0.11154063
-0.15188344 -0.390348 0.18943429 -0.46646735 0.021951072 -0.29373753 -0.32927594 0.1635828
0.20353118 -0.17391405 0.47450906 -0.3152356 -0.015040175 -0.046910997 0.16955836 0.0028079448
0.189266 0.12812583 -1.0111002 -0.024352668 -0.36320373 0.01142606 0.6134512 -0.58927786
-0.5044184 0.46211225 -0.13083608 0.4045845 0.17367323 0.14465997 0.6348977 -0.069815576
0.030889265 -0.17572561 0.1663688 -0.09891495 0.13566592 -0.1149836 0.028146304 0.14805035
0.566237 -0.26170194 0.07440066 -0.108928606 0.04527245 0.20456353 0.1504264 -0.30855194
-0.503916 -0.11545232 -0.019792765 -0.09062212 -0.0967906 -0.13649897 -0.43538135 0.33740154
-0.10380617 -0.126329 -0.33860934 0.3193886 0.45533744 0.24283934 0.0106362235 0.033015873
0.30713955 -0.27105606 0.046142425 0.13515179 -0.04242747 -0.24279417 -0.08141671 -0.11931438
-0.16926472 -0.03604413 -0.01737585 0.15569393 -0.10738451 -0.1673775 -0.07392614 -0.043270886
0.2896915 -0.047449615 0.077838965 0.19122194 -0.23032157 0.13726456 0.042616487 -0.21155077
0.013962855 -0.0783196 -0.095872335 0.1176021 -0.6046804 0.13057105 -0.16310424 0.2585419
0.079404496 0.49087498 -0.2739931 -0.09773422 0.3698109 0.49584013 0.2458469 -0.018976204
-0.27958003 0.06491398 0.23073529 -0.9583335 0.20241283 -0.09538475 0.36870864 -0.2934616
0.26243538 -0.2039846 -0.6628002 1.0284111 0.49921492 1.0041631 0.19622101 -0.026888302
0.4447726 -0.3582394 -0.7072587 0.5331124 0.060518395 -0.49671587 -0.16463187 0.03262521
-0.10464855 -0.3168644 0.3700799 0.100270845 -0.2196077 0.2242319 0.19345011 -0.16254927
0.16639978 0.042501714 -0.23871467 0.054377407 -0.3885386 0.12279964 -0.005193894 -0.008516604
0.12342555 0.017558688 -0.16138035 0.09919907 0.33996955 0.19189821 -0.008526044 -0.029809939
0.5767231 0.2085206 -0.015178733 -0.5099587 0.14858533 -0.67687577 -0.22759612 -0.5049392
-0.11242997 -0.40596285 0.23291464 0.307972 -0.30539778 -0.19149001 0.10967253 0.023194673

lstm.weight_hh_l0 f4 [128, 32]
00000000: 5dec 083e 52b0 06be 863c c53d 037d a9bd
00000010: 467c f03d 601c 34bc 68f1 c83c 702d 6e3d
00000020: 4e27 60bd e222 ff3d 8831 8dbc 4065 463c
00000030: 405f 8e3b e955 033e 1bc5 2c3e c777 bdbd
00000040: 00fa 93bc 2362 053e 9524 1f3e c06e 2ebd
00000050: dc4e 13bd 8939 1b3e 6961 a3bd 6820 f83c
00000060: c939 1d3e 81c6 a1bd 6fc3 273e 260e d83d
00000070: d7b5 04be 6a52 c03d 60f9 eb3c 4065 16bb
00000080: d1af 1a3e a791 a6bd 52f8 22be 6493 17bd
00000090: 06de 19be f5ed 293e b0d4 35bd 75ef 97bd
000000a0: 5d6d 273e e6aa ae3d 0063 46ba b168 093e
000000b0: 5a86 e93d eedd bd3d 248e c1bd 66fa dd3d
000000c0: 936e 303e 6890 29be 8a33 c43d e22d 0fbe
000000d0: 3e87 8e3d 3b19 02be 2073 35bd afb7 1d3e
000000e0: 4ed6 d23d e8aa 11bd f0de e53c 35de 0b3e
000000f0: 20e5 273c fa7d a0bd a209 e53d 80b8 a23a
00000100: 8e45 c1bd 65b4 2c3e 55f7 07be 9e36 913d
00000110: 76f6 c73d e8f4 8c3c 644b 22bd 43e6 08be
00000120: b0fc 55bd 2452 493d 0aa3 fe3d ee1e cc3d
00000130: 8e42 96bd a008 133c 1363 01be 69d9 1d3e
00000140: db7f bdbd ca17 dfbd 757c 0c3e 4104 cebd
00000150: 020e fbbd 5c84 f4bd b9d4 2f3e 6b8a 313e
00000160: e8ae 06be 9634 b63d 7cfa 0dbd a00f 163d
00000170: 8de8 d4bd a629 03be a4a1 12be 6f8b 0d3e
00000180: ecbd c4bd be8c 963d 00b0 6e3c 802d 383c
00000190: 0087 03ba 5575 31be 98be de3c 78e4 17bd
000001a0: c9b7 023e 2e94 8d3d 7e93 d63d e8a0 dcbd
000001b0: 0e48 fdbd 4458 193d 5999 033e 7152 9abd
000001c0: a0ca 833d 5650 84bd 006d 99bb 40bf 85bc
000001d0: eb56 0d3e b8cb 26bd b40e 15be 74cc 803d
000001e0: 8528 99bd 50b2 3b3c e287 babd 28e6 943d
000001f0: cce7 683d 10fc a63c 083c 99bd 0a99 ae3d
00000200: d95f 133e 8045 583c 64d0 3a3d 5645 e4bd
00000210: 7001 9fbc 0be1 8cbd ed3e 273e 8672 26be
00000220: 2991 25be 213f 98bd 8759 293e ee93 69bd
00000230: 67e4 83bd c43a 66bd 0c63 0e3d 0a12 a43d
00000240: f098 5e3c f056 1abe 76e2 d43d c01d b1bc
00000250: 4b3e 82bd f0ec a33c 5f7e 1d3e 9c1f 15bd
00000260: f7df 173e 625c b63d fc34 15bd a2da d03d
00000270: 0894 d03c ca9a ad3d 3f2b bfbd 7a1f 61bd
00000280: af7b debd 272b d9bd 75c8 313e 95b8 babd
00000290: 486e f0bc eac0 be3d fbdd c3bd 233a b9bd
000002a0: 73fe 053e 8312 bcbd d0ea cebc 3ed0 ab3d
000002b0: f8b0 613d 8243 63bd 3f78 b2bd cc3f 2fbe
000002c0: 5665 64bd 527f aa3d 80ff 7e3b 12c4 fb3d
000002d0: 362f b9bd 9062 07be d09f 9dbc 9eea ed3d
000002e0: 6793 253e a82b 183d 1262 06be c532 e5bd
000002f0: a064 0fbc c36f 213e 157f 063e bae5 b6bd
00000300: 4024 f1bb 00cc 3e3a 5cd4 3c3d 7d6e 073e
00000310: 30d7 87bc 784d 96bd b440 903d ea69 01be
00000320: c54e a1bd 1e86 f73d 1755 143e 9f7b 013e
00000330: 32c9 e23d 9b00 043e 5728 093e 4bdf 2bbe
00000340: 9185 20be d114 0e3e e92a 0a3e 70c5 803d
00000350: 7239 f43d 0706 0b3e 5ca6 03bd 7000 babd
00000360: f32b 2ebe 2c5c 90bd 3832 6dbd 3055 b7bc
00000370: e092 883d c015 bd3b 6c81 c4bd 7c0c 8dbd
00000380: 794a 33be ce3e 5ebd fedc b1bd 1480 02be
00000390: e08f e4bb 287e 0abe a073 dabc 350e 8fbd
000003a0: 6cb1 6e3d b85c 99bc 7cd8 643d 8e8e fbbd
000003b0: e790 d0bd 5d11 173e 3fbf 143e b072 503c
000003c0: 2e07 fa3d 6cfc 01be 4ed1 8b3d 072c 20be
000003d0: a9c0 033e 7f97 c4bd 2a8b 2abe f05f 4dbc
000003e0: daf5 f23d 4c42 a7bd 6479 ffbd e765 2d3e
000003f0: 59c5 333e ebe5 adbd e319 063e 7036 543d
0.13371415 -0.13153198 0.096306846 -0.08275797 0.11742453 -0.010993093 0.024529174 0.0581488
-0.054724984 0.12457825 -0.017235532 0.012109101 0.004344851 0.12825741 0.16872065 -0.09251361
-0.018063545 0.13025717 0.15541299 -0.04258609 -0.035963878 0.15158667 -0.07977564 0.03028889
0.15354075 -0.0789919 0.16383146 0.105495736 -0.12959991 0.09390719 0.028805435 -0.0022948533
0.15106131 -0.0813325 -0.15915039 -0.037005797 -0.15026101 0.1659468 -0.044392288 -0.0741872
0.16350313 0.0852869 -0.0007567853 0.13418843 0.11402579 0.09270845 -0.09450939 0.10838775
0.1722968 -0.16558993 0.09580143 -0.13982347 0.06959389 -0.12704937 -0.044299245 0.15402101
0.102947816 -0.03556338 0.028060406 0.13658984 0.010247499 -0.07836528 0.11183478 0.0012414604
-0.09437095 0.1686569 -0.13277943 0.070904955 0.097638056 0.017206624 -0.03962268 -0.13369088
-0.052242935 0.0491506 0.12433441 0.09966837 -0.07336913 0.008974224 -0.1263545 0.15414967
-0.09252902 -0.10893209 0.13719352 -0.10059405 -0.12258531 -0.11939308 0.17170991 0.17337959
-0.13152659 0.08896749 -0.03466271 0.036635995 -0.10395918 -0.12808856 -0.14319474 0.13822721
-0.09606537 0.07351063 0.014568329 0.011241317 -0.000501737 -0.17329915 0.027190492 -0.03708312
0.12765421 0.06913029 0.10477351 -0.10772878 -0.12367259 0.037437692 0.12851466 -0.07535256
0.06435132 -0.06460635 -0.0046821833 -0.016326547 0.13802688 -0.040721625 -0.1455639 0.06288996
-0.074784316 0.011456087 -0.09107949 0.07270461 0.056861684 0.020383865 -0.07482153 0.08525284
0.14392032 0.013200164 0.045608893 -0.11146037 -0.019409865 -0.06878861 0.16332598 -0.16254625
-0.16168655 -0.07433916 0.16538058 -0.057025842 -0.06440049 -0.056208387 0.034762427 0.08011253
0.013586268 -0.15072227 0.103947565 -0.021620631 -0.06359538 0.020010442 0.15380238 -0.0364071
0.1483153 0.089043394 -0.036427483 0.10197951 0.025461212 0.08476789 -0.093344204 -0.05496166
-0.108634345 -0.10603934 0.17361625 -0.091172375 -0.029349461 0.09314139 -0.09563824 -0.09044292
0.13085346 -0.09183218 -0.025258452 0.083893284 0.05510041 -0.055484302 -0.08714341 -0.1711418
-0.055760704 0.08325066 0.0038909614 0.12293257 -0.09042208 -0.13221192 -0.019241244 0.11617015
0.16169511 0.03715101 -0.13123348 -0.11191324 -0.008752018 0.1576529 0.13134415 -0.089305356
-0.0073590577 0.0007278323 0.04610096 0.13225742 -0.016582102 -0.07338995 0.07043591 -0.1263806
-0.07876352 0.12086128 0.14485584 0.12644814 0.11073531 0.12890856 0.13394295 -0.16784398
-0.15675952 0.13875128 0.13492931 0.06287658 0.11925019 0.13576518 -0.032141075 -0.09082115
-0.17008953 -0.070488304 -0.05790922 -0.022379488 0.06668639 0.005770415 -0.09594998 -0.06887147
-0.17508878 -0.054259114 -0.08684729 -0.1274417 -0.006975159 -0.13524687 -0.026666462 -0.06985132
0.05827467 -0.01872097 0.055870518 -0.122830495 -0.10183888 0.14752717 0.1452608 0.012722656
0.12208401 -0.12693948 0.06827031 -0.15641795 0.12866463 -0.09599208 -0.1665465 -0.01253508
0.11863299 -0.08166942 -0.12474325 0.16933404 0.17555751 -0.08491119 0.13095812 0.05180973

lstm.bias_ih_l0 f4 [128]
00000000: d917 78bf fb86 553f 7b00 44bd 23d9 b43f
00000010: 64eb 183f 185f 17bf 2e95 6fbf efff 67be
00000020: 9a58 2abf 2893 5fbf 8ea7 d8be f4f2 f4be
00000030: 383b 18bf ae02 1c3f 0eff f2be ddf6 66bf
00000040: 6d4a 663f e318 eabe 410e 4d3f 3feb f1be
00000050: ad3b b4be 1fa6 52bf 1fc2 cc3d 8438 b3be
00000060: 3360 dcbe 162e 6fbd a4fb eb3d 9dad 33bf
00000070: 79f8 1f3f 4048 9fbc ffc2 4a3f f728 35be
00000080: 5351 96bd d08a 20bc 3894 0cbe ad29 bfbd
00000090: 9442 f4bd 49a5 9abd e6f3 dd3d fbd2 063e
000000a0: 380c eabd 1666 fe3d 50b6 71bc 7faf 8bbd
000000b0: c4ec 523d bcfc fabd db69 1a3e e0d6 2e3c
000000c0: 1caf 723d 0798 313e ed4c 323e 3ca8 5dbd
000000d0: 0001 febb f138 2a3e 520a c73d 3363 103e
000000e0: 9188 243e 9f75 273e b7b5 1fbe a619 00be
000000f0: 4154 043e 3f25 fabd 3908 2a3e 4658 a1bd
00000100: 25c9 6e3c 785e 7f3f 3c59 28be bf9b 823f
00000110: 9e79 57bf 0d29 773e 7c8b 4d3d 73b7 e03d
00000120: d032 75bd 65b7 d23d 09ac 3b3e 2ef5 a0bc
00000130: 6a85 133d f830 1dbf 71d4 43be 238b aebd
00000140: 25d6 553f 5212 413e 5835 803f 6e81 31be
00000150: ffc4 01be 2f4a 0d3b c832 113f 0aed 773e
00000160: ba61 07be ea81 f7be 304a 01bf be9c 9abe
00000170: 6441 37bf 56a4 9d3e 2d94 593f a92c 81be
00000180: 30e9 38bf a934 813f b997 86bd 452d c33f
00000190: 817b 593f cfcc 26bf f1df 2bbf 3546 80be
000001a0: e4f3 33bf 64a1 74bf 928a a9be c409 0dbf
000001b0: e102 1ebf 08a7 243f 5fc2 22bf cb0c 77bf
000001c0: da90 a03f 4a10 f3be 71d1 8a3f 6d8c a6be
000001d0: d9fc d2be ddc3 75bf 0ed1 0c3e 092a 85be
000001e0: 060a 1dbf c344 503e 04be 273e 39f8 1ebf
000001f0: 27f7 133f 09a6 3fbe b193 743f dc9a 193d
-0.9691139 0.8340909 -0.04785202 1.4128765 0.5973418 -0.59129477 -0.93587005 -0.22656225
-0.66541445 -0.8733392 -0.42315334 -0.4784161 -0.5946536 0.6094159 -0.47460216 -0.90220433
0.89957315 -0.45722112 0.80099875 -0.4724979 -0.3520178 -0.8228473 0.09997963 -0.35004056
-0.43042144 -0.05839356 0.11522606 -0.7018679 0.62488514 -0.019443631 0.7920379 -0.17691408
-0.0733973 -0.0097987205 -0.13728416 -0.09334121 -0.11926761 -0.07551057 0.108375356 0.1316642
-0.11428112 0.12421815 -0.014752939 -0.068205826 0.05149533 -0.122552365 0.15079443 0.010671347
0.05924903 0.1734315 0.17412157 -0.05411552 -0.007751584 0.16623284 0.09718765 0.14100341
0.16067721 0.16353463 -0.15596662 -0.12509784 0.12922765 -0.122141354 0.16604699 -0.07878165
0.014574324 0.9975352 -0.1644029 1.020378 -0.8416995 0.24136753 0.05018185 0.1097249
-0.05986291 0.10288886 0.18327345 -0.01964816 0.036015905 -0.61402845 -0.19124009 -0.08522632
0.83529884 0.18854645 1.0016279 -0.1733453 -0.12672804 0.002155911 0.5671811 0.24211517
-0.13220873 -0.48341304 -0.50503826 -0.3019771 -0.71584153 0.3078944 0.84991723 -0.25229385
-0.72230816 1.0094196 -0.065719076 1.524819 0.84954077 -0.65156263 -0.6713858 -0.25053564
-0.7029402 -0.9555876 -0.33113533 -0.55093026 -0.6172314 0.6431737 -0.63577837 -0.96503896
1.2544205 -0.47473365 1.0845166 -0.3252901 -0.41208532 -0.9600199 0.13751623 -0.26008633
-0.6134342 0.2033873 0.16381079 -0.6209751 0.57799 -0.18715681 0.9553786 0.0375012

lstm.bias_hh_l0 f4 [128]
00000000: 92a6 48bf bb8a 603f 3139 e4bd e272 b03f
00000010: ab42 e73e b5af e2be 74cc 4abf 4b1d acbe
00000020: dcbd 63bf 38ae 54bf cce2 10bf 1d4e 00bf
00000030: 3e88 24bf b4fe 0e3f 107f 0bbf 9daf 5ebf
00000040: 6d65 923f b786 eabe 9ef8 8f3f e43f 95be
00000050: 0e9e 22bf ab56 48bf a426 883c 8c81 8abe
00000060: 1abf d8be 91c4 6b3d ceb0 01be 6376 2abf
00000070: 6cb9 f93e 8898 60be 6230 603f 0beb fc3c
00000080: 7a04 ebbd 14b2 f2bd f9c6 8fbd 0072 083b
00000090: e5f2 1a3e 38e1 30bd 368c 24be bac7 2fbe
000000a0: 9048 563d ed8c 11be 2961 113e 33a5 84bd
000000b0: 2911 0e3e 6f2f 293e 873f 1dbe 6809 bc3c
000000c0: c6fd b03d 0044 0dba e622 a5bd 2f78 dbbd
000000d0: 3f8a e4bd ddb7 263e d47a 953d c941 1d3e
000000e0: 0060 d6bb b005 003c c028 533c aa40 0cbe
000000f0: 75c2 133e 1e4d b3bd 9fc5 2e3e b0fc 5abc
00000100: 3715 75bc 834d 3b3f fe15 93be ceb5 833f
00000110: c671 2abf 1839 83bc 0947 163e 9d53 8b3e
00000120: b7e8 ce3d 3642 363e 8e19 ab3d ba66 33bd
00000130: 7f8c 503e 40dd 25bf 21de 73be 16d3 09be
00000140: d51f 503f 003c 073e 335c 653f 28cf 41be
00000150: a0c8 66be 1c00 bdbd a1a8 953e 0cdc 8e3e
00000160: ea78 bf3d 4fb7 91be 853b a5be 3084 efbd
00000170: 7f2a 06bf dc94 8a3e 59c9 183f 0f76 acbe
00000180: a42c 60bf 34bf 843f 6d8d a8ba d7e6 b93f
00000190: 01ef 3a3f d9ac 0abf fb99 28bf 8d7a 6bbe
000001a0: 5efb 57bf 07c5 59bf df23 01bf 5d0b 3bbf
000001b0: fd12 46bf ac2d 1b3f 5332 19bf a3de 97bf
000001c0: 8da4 693f fed2 b7be 7c45 9b3f a12b 99be
000001d0: 3398 a1be b92a 64bf fca7 493e 9e47 12be
000001e0: a7bc 30bf aa98 bf3d 55e6 b53d 33ac 26bf
000001f0: 609f fb3e bdd0 8fbe 9af8 833f 7f2b cebc
-0.78379166 0.87711686 -0.11143721 1.378506 0.4516805 -0.4427468 -0.7921822 -0.336161
-0.8896158 -0.83078337 -0.56596065 -0.5011919 -0.6427039 0.55857396 -0.54490757 -0.86986715
1.1437203 -0.45805904 1.1247747 -0.29150307 -0.6352242 -0.78257245 0.016619988 -0.2705196
-0.423333 0.057560507 -0.12665102 -0.66586894 0.48774278 -0.21933186 0.87573826 0.030873796
-0.11475463 -0.11850372 -0.07020373 0.0020819902 0.1513172 -0.043183535 -0.16069111 -0.17166033
0.052315295 -0.14213915 0.1419722 -0.06476822 0.13873734 0.16522 -0.15356265 0.022953704
0.086421534 -0.0005388856 -0.08063297 -0.107162826 -0.11159181 0.16281076 0.07298818 0.15357126
-0.006542206 0.007813856 0.0128881335 -0.13696542 0.14429648 -0.08754943 0.17067574 -0.013365909
-0.014958671 0.7316515 -0.28727716 1.0289857 -0.66579854 -0.016018435 0.14675535 0.2721223
0.101029806 0.17798695 0.083544835 -0.04379914 0.20366095 -0.64790726 -0.23815204 -0.13459429
0.8129857 0.13206482 0.8959381 -0.1892668 -0.2253747 -0.092285365 0.29230216 0.27902257
0.093492344 -0.28460166 -0.32271972 -0.11695135 -0.52408594 0.27066696 0.5968223 -0.33683822
-0.87568116 1.037085 -0.0012859531 1.4523572 0.7302094 -0.54169995 -0.65859956 -0.22995968
-0.8436793 -0.85066265 -0.5044536 -0.73064214 -0.77372724 0.60616565 -0.59842414 -1.1864818
0.9126671 -0.35903162 1.213058 -0.299161 -0.3156143 -0.8912769 0.19692987 -0.14285132
-0.6903786 0.0935529 0.08881823 -0.65106505 0.4914503 -0.28088942 1.0310242 -0.025167225

lstm.weight_ih_l1 f4 [128, 32]
00000000: 3c18 a9ba 8b1e b3bf 2f09 b33e 9191 9cbf
00000010: 7b77 bd3f e9b6 bbbe 5edc 07be 09ee eebe
00000020: 2ec5 df3b cb91 b7be 8e16 2c3e 52d3 0dbe
00000030: 0a68 1dbe 95f4 513f 2456 473d 1927 8d3e
00000040: 7b1e b7bf eda3 ecbd c977 a3bf 23d4 c93e
00000050: 1dd0 503c 673e c43d 60bf 40bf 72cb 9fbe
00000060: 95c6 883e 46f0 8d3f 7566 183f e107 983d
00000070: 3df5 763f a450 f9be 9015 96bf 20d1 323e
00000080: 749d 363e f71d 5bbf 2185 583f 54c8 f8bf
00000090: b14d 303f 9a50 553d 8fba 2cbe 1f82 afbe
000000a0: 7d04 50be 35b5 7fbe e2ac 67be 4111 9cbe
000000b0: b099 00be 5d4e 463f e596 0d3f bd08 62be
000000c0: d02f 11bf 0855 76be 37ef a5bf 78a3 1a3e
000000d0: d9bd c23d b6b7 ad3e c731 b7be 6cbe a7be
000000e0: c1c5 253e c72d cc3e 4dd0 073f a068 4fbd
000000f0: 7141 4b3f ee8f eabe 8c3a 67bf c4d5 cd3e
00000100: 9353 373e bc2a 7abf 011d 153f 64d5 edbf
00000110: 5a9f a23f c0f3 5ebe 0fdb 18be aa4a 3bbf
00000120: 8445 06be 83f2 e1be 41e1 0dbe e133 0dbe
00000130: 7c0a 77be 4bf8 5c3f 60a7 093f adfd 413e
00000140: 88c5 9bbf d70a a1be 8eef 79bf 909e 0f3f
00000150: 5296 dc3e 6bd1 793e 1f5c 35bf 2fd4 85be
00000160: 1968 853e 590d 7b3f 13c9 5f3f 9a5b 90bc
00000170: 157a 6e3f 8098 10bf 54bf 23bf 2479 353e
00000180: cd62 b03e 924b 62bf 110d e93e 7855 c3bf
00000190: a30c 813f a7e8 62be 97a0 e5be e482 cdbe
000001a0: c5e9 4bbd 9bfd debe d350 6abe 1ecb b9be
000001b0: 4634 0abf 4ca4 933f c045 c23e bdc6 193e
000001c0: 1bea 48bf 7705 4dbe 54f6 8bbf dea8 373e
000001d0: b6ab d63e 8536 13bd ac79 1ebf 0946 5bbe
000001e0: 93f3 663d a8f2 263f bf7a 133f 0bb1 cebd
000001f0: 4d2f 0c3f 397c 5dbf b6e9 8bbf dbd3 b03e
00000200: 51de 433c 7c31 8ebf 5e30 8e3e 4d70 c2bf
00000210: 3fab 403f 767a a6be a389 16bd 53a1 8ebe
00000220: 0c88 813e 2ad9 96be 7ad9 33be f218 f23d
00000230: a196 123e 27cf a43f b554 3b3e 0996 9e3d
00000240: aba0 61bf 4aca 67bd 6da6 39bf b5f5 c03e
00000250: 3c99 903e b03b 1c3d 9b1e 4dbf 0cd5 7dbe
00000260: b9a0 373d 550c 563f 3590 3b3f 55cf afbb
00000270: 9dad 7c3f c01a dbbe ebbd 85bf c8e1 003e
00000280: 5f42 5e3e a12f 47bf ab45 073f 5b3a b3bf
00000290: 5496 903f 5b35 8fbe d812 a6be 286e 46bf
000002a0: 1307 75be 644f e7be f41e e7bc a54c 3dbc
000002b0: 37be 06bf 9af3 843f 5593 dd3e 5448 6ebe
000002c0: 8a81 69bf f8a2 bbbe 0618 94bf efc1 013f
000002d0: f5bc 113e c1f2 b93e 3eee 2cbf 4821 5ebe
000002e0: 671a 2b3e f9b2 8b3f 3731 1f3f 473b e7be
000002f0: 4376 6c3f fd67 96bf 915a 7fbf d012 8f3e
00000300: e05d a43d 3d7c a2bf 83f0 393f 382a c2bf
00000310: b3ab 943f 2e25 063e 9147 c4be a646 dbbe
00000320: 35e5 4cbe a474 c2be dd7a bcbd 066a 1ebd
00000330: f493 59be 31c0 3f3f 3fcd 013f 32a2 abbe
00000340: eabf 88bf a94b c4be bc7a 92bf 8e72 883e
00000350: 1e00 033f 6590 d13e af23 89be e1bc 0fbe
00000360: e941 8c3e 4776 ff3e 4215 c63e 4a12 44be
00000370: 943d 713f 0fc5 0bbf e314 8fbf 083e ad3e
00000380: dc7b 8a3d eace 8bbf 9717 ab3e 0e3e a8bf
00000390: 966c 9d3f 57ea a3be 822a 3bbe f75f 3ebf
000003a0: d731 24bd cd61 cfbe 2256 50bd 9779 233e
000003b0: 4b7f e6be d89e 5a3f eb56 cf3e 98e1 ca3c
000003c0: 954b 6dbf c1bd bcbe 344a 8bbf 6953 913e
000003d0: 96c5 8e3e c842 653e e9e3 43bf 3fbf b0be
000003e0: 781c bdbd e631 883f 2fc6 883f be11 cabe
000003f0: 9f29 823f 659a 3cbf 1ad1 8abf 497f 25bd
-0.0012900899 -1.3993696 0.34967944 -1.2231923 1.4802088 -0.36662987 -0.13267657 -0.4666598
0.0068289256 -0.3585342 0.16805479 -0.13850144 -0.15371719 0.8201383 0.048666134 0.27568892
-1.4306177 -0.11554704 -1.277093 0.3941966 0.012744931 0.09582215 -0.75292015 -0.31209904
0.26714006 1.1088951 0.5953134 0.07423378 0.96467954 -0.48694336 -1.172533 0.17462587
0.17833501 -0.855926 0.8457814 -1.9436135 0.6886855 0.05207882 -0.16868041 -0.34278962
-0.20314212 -0.24971469 -0.22624543 -0.30481914 -0.12558627 0.7746332 0.5530837 -0.22073646
-0.5671358 -0.24055874 -1.2963628 0.15101421 0.09508867 0.33929223 -0.35780165 -0.32762468
0.16188718 0.39878675 0.53052217 -0.050636888 0.7939673 -0.45812935 -0.9032371 0.40202153
0.17902975 -0.9772146 0.5824738 -1.8580747 1.270488 -0.21772671 -0.14927314 -0.73160803
-0.13112456 -0.44130334 -0.13855459 -0.13789321 -0.24125093 0.86316365 0.5377102 0.18944426
-1.2169657 -0.31453583 -0.97631156 0.5610132 0.43083435 0.24396293 -0.7084369 -0.26138446
0.26055983 0.9806724 0.8741619 -0.017621804 0.9315503 -0.56482697 -0.6396382 0.17721993
0.3445038 -0.8839656 0.4551778 -1.5260458 1.0081981 -0.22159062 -0.44849083 -0.40138924
-0.049783487 -0.4355286 -0.22882394 -0.3628778 -0.5398601 1.1534514 0.3794384 0.15017219
-0.78482217 -0.20021616 -1.0934548 0.17935511 0.4192788 -0.035940666 -0.61904407 -0.21413435
0.056384634 0.65214014 0.5760917 -0.10092362 0.54759675 -0.86517674 -1.0930698 0.34536633
0.01195486 -1.1108851 0.27771276 -1.5190521 0.752613 -0.32515305 -0.036752354 -0.27857456
0.25299108 -0.29462558 -0.1756343 0.11821164 0.14315273 1.2875718 0.18294032 0.07743461
-0.88135785 -0.056589402 -0.7251957 0.3768746 0.2824191 0.03814286 -0.80124825 -0.24788302
0.04483101 0.8361257 0.7326692 -0.005365292 0.9870241 -0.42793846 -1.0448583 0.12586129
0.21705006 -0.7780705 0.5284068 -1.4002184 1.1295877 -0.27970394 -0.32436252 -0.77511835
-0.2392848 -0.45177758 -0.028213002 -0.011553918 -0.52633995 1.0386841 0.43276468 -0.23269778
-0.91213286 -0.36647773 -1.1569831 0.50686544 0.14232238 0.3631802 -0.6755103 -0.21692383
0.1670929 1.0913993 0.6218447 -0.45162413 0.92367953 -1.1750485 -0.9974757 0.2794404
0.08025718 -1.2694165 0.72632617 -1.5169134 1.1614898 0.1310012 -0.3833585 -0.42827338
-0.2000931 -0.37979615 -0.09203122 -0.03867533 -0.21247846 0.74902636 0.50703806 -0.33522183
-1.0683568 -0.38338974 -1.1443706 0.26649898 0.51172054 0.40930477 -0.26785037 -0.14036895
0.27394035 0.49894926 0.38688093 -0.19147602 0.94234586 -0.5459756 -1.1178249 0.3383639
0.067619056 -1.092252 0.33416435 -1.3143938 1.2298763 -0.32014725 -0.18277934 -0.7436518
-0.040086593 -0.40504304 -0.050863393 0.15964352 -0.45018992 0.85398626 0.40496 0.024765775
-0.92693454 -0.3686352 -1.088202 0.2838395 0.2788512 0.22388756 -0.7651964 -0.3452091
-0.092339456 1.0640228 1.0685481 -0.3946666 1.0168952 -0.7367309 -1.0845063 -0.04040459

lstm.weight_hh_l1 f4 [128, 32]
00000000: 6001 bdbc dfe6 b9bd f0bd 46bc cda6 16be
00000010: c065 19be 4833 d9bc f4f3 05be c0d1 463c
00000020: 0093 81bc c1cc 1dbe 3861 ebbd 1ad7 32be
00000030: baab ed3d 0240 19be 60e6 703c a83b 6c3d
00000040: 340b 7b3d 4432 593d c00f babd d825 3cbd
00000050: a835 243d c66a 9f3d 9eca 803d 657e f4bd
00000060: d622 833d da3c e2bd 2bb5 133e 5471 a8bd
00000070: 7480 45bd 702c 423c 8834 bebc a0ca f1bc
00000080: ea61 f1bd 0ecc 69bd 5047 ebbd 409a 803d
00000090: b567 a7bd 6b09 113e a0e0 413d a073 7a3d
000000a0: 34c6 29be da3a c33d 3d01 013e 04f1 4d3d
000000b0: 42de a93d 7f1a 0e3e 636a 29be c890 343d
000000c0: e4e2 573d 6874 b8bc a662 1bbe d2e2 babd
000000d0: 7831 9bbd ec82 183d 3e9b c93d dcb3 4cbd
000000e0: 5047 493d 7f1c 01be c08c e23b 0020 7d3b
000000f0: e755 24be 1b10 063e 1013 9fbc d85c fbbc
00000100: 903d 18bd 6bbc 2a3e def1 cf3d c8d8 903d
00000110: 169c 28be 90ef 72bc 0ef3 8e3d 66ae 943d
00000120: e844 f13c c422 023d b218 b53d 46d9 a33d
00000130: c03e 32be a044 053d ac22 07be 5636 a2bd
00000140: 0432 1dbd af22 c1bd b04e 74bc 1a9a 6cbd
00000150: 4054 153d e744 293e 96b4 8b3d ff88 023e
00000160: 93d9 11be 245b 533d 1edd 72bd a8a8 48bd
00000170: b19e 053e 83e8 003e e175 263e c8b8 40bd
00000180: 0209 ff3d 9ebb b63d be7a af3d e9ea 16be
00000190: fedc f43d 1bb5 023e 401b 763d 16a5 cf3d
000001a0: 84c5 2fbd 3c88 3f3d 1c8a 74bd e657 eb3d
000001b0: 7747 1f3e 6e31 03be b31d 0f3e ae47 f83d
000001c0: 946c 8cbd 8bd3 243e d287 fb3d 6f1c 1b3e
000001d0: 7fa3 28be 3fc7 323e e7de d3bd 6abe 9e3d
000001e0: 8da2 9dbd feff e8bd 309e d1bc 26d0 edbd
000001f0: e89a c5bc febd e23d 3ec1 f33d dcdc 3e3d
00000200: e5c3 e0bd e6bc f73d 3046 3ebc bfd4 263e
00000210: 7e84 a93d c6a7 c43d 0e0e e43d 57e6 a2bd
00000220: f93b 123e 4119 eabd 4510 093e 51e4 283e
00000230: af9b 283e b63a b3bd 784b 01be 3834 08be
00000240: a337 103e 80e6 c4bb 7b9d 0d3e 015b 153e
00000250: 31bd 11be 4059 6d3c 9e44 32be 148e 14bd
00000260: 1563 23be 76f7 c63d 50df 09bc 80fb c5ba
00000270: d898 853d cbef 29be 8869 26be ff8d 093e
00000280: f166 203e e800 143d ca66 26be efc8 313e
00000290: 591c 18be 0125 c5bd f077 0bbc 820a d4bd
000002a0: 80fb fc3b e7ea 073e 4470 003d f946 94bd
000002b0: 8059 653d c28c 05be 6082 8abb dd48 09be
000002c0: cc3b 5ebd d02f 1abd 8b0e 9dbd 453e a0bd
000002d0: 70fd 66bd 7034 6cbd 949b 5cbd d141 013e
000002e0: 201b edbd 3ccc 8b3d ee72 d6bd 00de 1abe
000002f0: 2074 503d 0215 d63d fa58 cd3d e962 2dbe
00000300: 36ba 0abe b85b 9f3c 3198 17be ed74 323e
00000310: e1a9 babd f052 6d3d 3021 fabc f88e a5bc
00000320: d56c 003e 7358 183e 284a a0bc 702b 803c
00000330: a8e7 5dbd c88b 00bd e454 933d 6194 323e
00000340: 948d edbd 16d7 ef3d 686d 06be 80ee 5d3b
00000350: f27f f03d 3eef b13d 76d0 c53d f380 a4bd
00000360: f1fa 04be 0538 0c3e 98f9 063d a68d cdbd
00000370: f584 19be a350 1f3e 7a6d 2fbe c8d4 94bc
00000380: 1a62 c83d c7e0 023e 258f cabd 0662 cf3d
00000390: e644 57bd e400 05bd 3a2d de3d b00f 173d
000003a0: 3b3b 283e 7f19 04be c033 92bc 0061 c03c
000003b0: 6065 c63b f245 55bd 8264 df3d 38f9 b0bc
000003c0: e82f f73c 2c1e 87bd 2cbc 223d 38ea f0bc
000003d0: 85d9 0b3e b89b 953c b706 c0bd 3008 0cbe
000003e0: 5a41 ca3d 43d4 273e 0c99 513d 963b 72bd
000003f0: 8681 c43d 80bc c73b f822 b53c 76ce 943d
-0.023071945 -0.09077238 -0.012130246 -0.14712067 -0.14980221 -0.02651371 -0.13081342 0.012134969
-0.015817165 -0.15410139 -0.114931524 -0.17464867 0.1160502 -0.14965823 0.014703363 0.05767408
0.06128998 0.053026453 -0.09085035 -0.045934528 0.040090233 0.07784037 0.06288646 -0.1193817
0.06403129 -0.11046763 0.14424579 -0.082247406 -0.048218206 0.011851415 -0.023218408 -0.029515564
-0.11786254 -0.057079367 -0.11488211 0.06279421 -0.081740774 0.14163749 0.04733336 0.061145425
-0.16579515 0.095327094 0.12598129 0.05027868 0.082943454 0.13877295 -0.1654449 0.044083387
0.052706614 -0.022516444 -0.1517435 -0.09125294 -0.07577795 0.03723423 0.09844063 -0.049976215
0.049140275 -0.12608527 0.0069137514 0.003862381 -0.16048394 0.13092081 -0.01941827 -0.03068392
-0.037168086 0.16673438 0.101535544 0.07072598 -0.16465792 -0.014827624 0.06979953 0.07259826
0.029451802 0.031771436 0.08842601 0.08000426 -0.1740675 0.03253615 -0.1319682 -0.0792052
-0.038377777 -0.094304435 -0.014911339 -0.05776415 0.0364573 0.1653019 0.068215534 0.12747572
-0.14243154 0.05160059 -0.059292905 -0.048988968 0.13048817 0.12588696 0.16255905 -0.04705122
0.1245289 0.08922504 0.08568333 -0.14738049 0.119562134 0.12764399 0.06008458 0.101389095
-0.042912975 0.046760783 -0.059702024 0.11491375 0.15554605 -0.12811825 0.13976173 0.12123047
-0.06856647 0.16096322 0.12281765 0.15147565 -0.16468619 0.17458819 -0.103452496 0.07751162
-0.0769702 -0.11376952 -0.025588125 -0.11611967 -0.024121717 0.110713944 0.119020924 0.046597347
-0.10974864 0.120965764 -0.011613414 0.16292094 0.08277224 0.09602313 0.11135493 -0.0795409
0.1428069 -0.11430598 0.13385113 0.16493346 0.16465639 -0.087514326 -0.12626445 -0.1330117
0.14083724 -0.006008923 0.13829605 0.14585496 -0.14232327 0.014486611 -0.17408988 -0.03626831
-0.15955766 0.09715168 -0.008415058 -0.001510486 0.06523293 -0.1659538 -0.16251194 0.13433073
0.15664269 0.036133677 -0.16250148 0.17361806 -0.14854564 -0.096261986 -0.008512482 -0.10353567
0.007720411 0.13273202 0.031357065 -0.072400995 0.055993557 -0.13041976 -0.0042269677 -0.13406701
-0.054256245 -0.037643254 -0.076687895 -0.07824377 -0.05639404 -0.057667196 -0.05385931 0.12622763
-0.11577439 0.06826064 -0.1047114 -0.15123749 0.050891995 0.10453226 0.100267366 -0.16932262
-0.13547596 0.019452915 -0.1480415 0.17427416 -0.09114433 0.057940423 -0.030533403 -0.020209774
0.12541516 0.1487749 -0.01956661 0.015645713 -0.054176003 -0.031383306 0.07193926 0.17439415
-0.115992695 0.11710946 -0.13127673 0.003386408 0.11743154 0.0868821 0.096589014 -0.080324076
-0.12986352 0.13693245 0.032952875 -0.10036783 -0.14992125 0.15558104 -0.17131606 -0.018167868
0.097843364 0.12781058 -0.09890584 0.10126118 -0.05255594 -0.032471552 0.1084847 0.036880195
0.16428845 -0.12900351 -0.017846942 0.023483753 0.0060545653 -0.05206866 0.10907842 -0.021603212
0.03017421 -0.06597552 0.039730236 -0.02940856 0.13657196 0.018262729 -0.09376281 -0.13674998
0.09875746 0.16389565 0.051171347 -0.059138857 0.09595017 0.006095469 0.022111401 0.07265942

lstm.bias_ih_l1 f4 [128]
00000000: 9fdd 6bbf 5e4d 9fbf 4122 83bf e554 9dbf
00000010: 734b 9ebf a8fe 86bf b763 4dbf edc6 81bf
00000020: 45d2 39bf 6bd6 8cbf b33e cabf 0d33 90bf
00000030: 6a05 3bbf c51a 95bf a8fa 8cbf d473 9ebf
00000040: ca2a 60bf 764b 70bf 90e6 87bf 1826 b1bf
00000050: 4e51 7fbf b330 a1bf cd7f 5dbf 270f 5ebf
00000060: 057d 8ebf 4a66 9dbf 5e2a 41bf f13c b2bf
00000070: 177e a1bf 9b46 9bbf a76e 98bf 9091 8dbf
00000080: c8f6 c8bc facc c23d b509 12be 10b7 b3bc
00000090: d8e1 84bc eb57 043e 95b0 86bd 8359 273e
000000a0: e0ff a03c c0e7 11be 18fb ecbc 8d9c 0f3e
000000b0: 60af 1e3d afb3 e1bd 4e5f 6cbd 490b 31be
000000c0: 0d03 2bbe 9827 35bd 2489 553d 4e6d 93bd
000000d0: 832f d8bd 8461 46bd 8d20 303e 9600 f63d
000000e0: c0d3 7abb 000b 5c3d be94 f43d 77bc 193e
000000f0: 369a 11be 75da 223e 8840 59bd c8d7 803c
00000100: 2629 763b 33dd a5bc 600e 743c 5be0 9dbd
00000110: 1535 1c3d baa5 a93a 4f08 2b3d 87b9 37bd
00000120: 3165 9dbd 2240 9bbd d2c5 4cbe 4d62 4abd
00000130: 0521 dfbc 6460 75bd dfb0 c0bd 6785 313d
00000140: 9bc2 21bd 5f11 7f3b 1718 863c 1706 de3d
00000150: 375d 6a3d 659e 67bd 95a8 113d d4fa 643d
00000160: 70a7 81bc f53f c3bc c2c9 ba3d 39b3 d83d
00000170: f738 c1bd 7563 273c 7269 c8bc 4e8f ab3c
00000180: 00f2 6bbf dc70 a6bf 5619 7dbf b4e7 abbf
00000190: 06bd aabf 16ce 80bf 6ae3 4dbf 3c47 81bf
000001a0: 1c40 22bf f99b a0bf e874 b1bf ebfc 7dbf
000001b0: 3c4a 0abf ddea 92bf c944 8cbf 7785 93bf
000001c0: 1dc9 5dbf 582c 72bf d024 90bf 161b 90bf
000001d0: fc53 8dbf 4fda a6bf a702 3fbf cf54 64bf
000001e0: 9481 77bf 7ed6 82bf 5069 80bf 6b6a acbf
000001f0: f437 90bf 73c6 a2bf 510b 90bf 1a32 8cbf
-0.9213504 -1.2445486 -1.0244828 -1.2291533 -1.2366775 -1.0546465 -0.8023028 -1.0138832
-0.7258647 -1.1002935 -1.5800384 -1.126558 -0.73055136 -1.1648794 -1.1013994 -1.2379098
-0.8756529 -0.93865144 -1.0617237 -1.383975 -0.99733436 -1.2592987 -0.86523134 -0.8674187
-1.1131903 -1.2296841 -0.7545527 -1.3924848 -1.2616605 -1.2130922 -1.1908768 -1.1060047
-0.024531737 0.095117524 -0.14261515 -0.021937877 -0.016220972 0.12924163 -0.06576649 0.1634274
0.01965326 -0.14248562 -0.028928325 0.14024563 0.03874147 -0.110206 -0.057708077 -0.17289461
-0.16700383 -0.044227213 0.05213274 -0.071985826 -0.10555937 -0.048432842 0.17199917 0.120118305
-0.0038273185 0.053721428 0.11942433 0.150133 -0.14218983 0.15903647 -0.053040057 0.015727893
0.0037561147 -0.020247078 0.014896005 -0.07708808 0.03813656 0.0012943067 0.04175597 -0.044854667
-0.07685316 -0.07580592 -0.19997337 -0.049410153 -0.027237425 -0.05990638 -0.094087355 0.043340113
-0.03949223 0.0038920266 0.016368909 0.10841005 0.057217803 -0.05654754 0.035561163 0.05590327
-0.01582691 -0.023834208 0.091205135 0.10581059 -0.09434693 0.0102165835 -0.024464343 0.020942356
-0.9216614 -1.3003192 -0.98866785 -1.3430085 -1.3338935 -1.0062892 -0.8042513 -1.0099864
-0.63379073 -1.2547599 -1.3863802 -0.9921405 -0.5401952 -1.1477925 -1.0958492 -1.1525105
-0.86635 -0.94598913 -1.1261234 -1.1258266 -1.1041255 -1.3035372 -0.7461342 -0.8919191
-0.96682096 -1.0221708 -1.0032139 -1.3469976 -1.1267076 -1.2716812 -1.1253453 -1.095279

lstm.bias_hh_l1 f4 [128]
00000000: cb23 7cbf ec0f 96bf 3bc3 86bf dbf6 9dbf
00000010: 8dc0 97bf e8c1 8abf 2947 58bf 6eb3 a6bf
00000020: 39c9 4abf 2a93 8fbf cdd1 b7bf a97d 8ebf
00000030: f6dc 53bf 56a2 83bf 9d5f 99bf 2b8a b0bf
00000040: 8230 41bf 1206 76bf 2cff 80bf 082e 94bf
00000050: 22e8 7cbf 071b abbf 3956 37bf 07da 7bbf
00000060: 49bf 83bf c3db 84bf 97bd 8bbf 6b0a b3bf
00000070: 2546 77bf 7960 99bf 1c69 91bf bbe7 84bf
00000080: 7d71 2bbe e05e 4bbd ef86 023e d22d e7bd
00000090: c031 55bb 7847 2ebd 6065 4cbd dab0 923d
000000a0: 2481 edbd 90d1 683d 28ee b83c e03e 9f3b
000000b0: 0a2a 08be ca15 0ebe 881c 8fbc 1464 5e3d
000000c0: 02cb ac3d a8f2 543d 7776 0c3e 78fa d7bd
000000d0: 875c 23be 9462 903d fac9 f43d a01a 3a3d
000000e0: 2820 1bbe 3a1b d33d b45e 9fbd 663c df3d
000000f0: 4069 dbbb bbf7 1b3e 28c9 823c 8907 0c3e
00000100: 3e8d 64bc 374e a23d a647 a43b 59d5 783b
00000110: 9729 42bd fd62 163d 2aa8 cbbc 411e 193d
00000120: c162 853c e87e b93d b4b4 1d3c ac8b 6c3c
00000130: 2870 a0bc cbb1 d7b9 b4dd 143e 82c5 90bd
00000140: 352b 913d 3254 7ebc 2ea9 14bd 5c8e 05be
00000150: 370d 68bd 709f 9a3d 205a 22bc 8fa6 afbd
00000160: d876 11bc 28df 7c3d 4ca8 81bd 0fa1 7ebd
00000170: 971f f03d 0576 8cbd 21f1 183d 1699 b3bc
00000180: 799c 93bf ea5b 9abf edde 8fbf da78 abbf
00000190: b413 93bf bb82 a4bf dccf 64bf 3f2d a8bf
000001a0: 242c 6bbf d4a5 9fbf 8681 b8bf 8629 9dbf
000001b0: 95ba 3bbf 32b4 8cbf ca43 80bf 1953 a3bf
000001c0: 186c 37bf 8407 71bf 0277 81bf 15a4 a5bf
000001d0: 8936 78bf 3aae afbf 0d2e 38bf b36e 90bf
000001e0: 7cab 7abf 9028 8ebf 2980 6cbf b3a1 a8bf
000001f0: aa6b 9ebf 5e5a 97bf b28f 7bbf 7f6f 69bf
-0.98492116 -1.1723609 -1.052833 -1.2340959 -1.1855637 -1.0840425 -0.8448358 -1.3023508
-0.7921329 -1.1216786 -1.4360901 -1.1132098 -0.82759035 -1.0283916 -1.1982304 -1.3792166
-0.7546464 -0.9610301 -1.0077872 -1.1576548 -0.98791707 -1.3367623 -0.7161594 -0.9837956
-1.0292751 -1.0379566 -1.0917233 -1.3987554 -0.9659141 -1.1982566 -1.1360202 -1.0383219
-0.16742511 -0.049651027 0.12746786 -0.112880364 -0.0032530874 -0.042548627 -0.049901366 0.07162638
-0.11596897 0.05684048 0.0225745 0.00485979 -0.13297287 -0.138755 -0.01746966 0.05429466
0.08437158 0.051989228 0.13717066 -0.1054582 -0.15953265 0.07050052 0.119525865 0.045435548
-0.15148985 0.103079274 -0.07781735 0.10900192 -0.0066958964 0.1523122 0.01596506 0.1367475
-0.01394969 0.079250745 0.005013424 0.0037968962 -0.047402944 0.036715496 -0.02486046 0.037382368
0.016282441 0.090574086 0.0096256025 0.014437597 -0.01958473 -0.00041140462 0.14537698 -0.070689216
0.07088319 -0.015523003 -0.036294155 -0.13042587 -0.056653228 0.075499415 -0.009909183 -0.085766904
-0.008878432 0.061736256 -0.06330928 -0.062165316 0.11724775 -0.06858448 0.037339333 -0.021923583
-1.1532127 -1.20593 -1.1239907 -1.3396256 -1.1490388 -1.2852396 -0.8937967 -1.3138808
-0.9186423 -1.2472482 -1.4414527 -1.2278297 -0.73331577 -1.0992491 -1.0020688 -1.2759734
-0.7164931 -0.9415209 -1.0114443 -1.2940699 -0.96958214 -1.3725045 -0.7194527 -1.1283783
-0.97917914 -1.1106129 -0.92383057 -1.3174347 -1.2376606 -1.1824453 -0.98266137 -0.91185755

fc.weight f4 [1, 32]
00000000: f106 af3b 9743 92bc 08e8 6f3c 4876 0c3c
00000010: 75ea 243a ac44 62ba b861 093c e5fa 543b
00000020: 46bd 90bc 5334 5c3b cb2a cabd c312 acbb
00000030: 7a9d e6bb 8d06 bebc ae38 b43b 2fcf 55bb
00000040: 429e af3c ecc3 71bb a8ce 13bc 03c9 303b
00000050: a719 53bc 1c95 7ebb b6f7 633a 0eb0 023d
00000060: 5980 49bc b825 c538 bea1 2a3c 2405 f93b
00000070: 015c cdbc 20a0 013b 9287 b83a d372 953a
0.0053414037 -0.017854495 0.014642723 0.008573122 0.00062910403 -0.0008631449 0.008385114 0.0032498178
-0.017668378 0.0033600524 -0.09871443 -0.00525126 -0.0070378156 -0.023196483 0.005499921 -0.0032624712
0.021437768 -0.003689046 -0.009021439 0.002697528 -0.012884534 -0.00388462 0.00086962746 0.03190618
-0.012298667 9.400718e-05 0.010414539 0.0075994898 -0.025068285 0.001977928 0.0014078489 0.0011402018
